…
        "lr": 0.1,
        "momentum": 0.9,
        "weight_decay": 0.0001
      }
    },
    "lr_scheduler": {
      "warmup_epochs": 0,
      "type": "MultiStepLR",
      "kwargs": {
        "milestones": [
          30,
          60,
          90
        ],
        "gamma": 0.1
      }
    }
  },
  "saver": {
    "pretrian_model": null,
    "resume_model": null,
    "save_dir": "checkpoints/dpn92"
  }
}[0m
2020-07-09 17:35:17,839 [32mINFO[0m: creating model 'dpn131'[0m
2020-07-09 17:35:18,511 [32mINFO[0m: model
DistributedParrotsModel
DPN(
  (features): Sequential(
    (0): InputBlock(
      (conv): Conv2d(3, 128, kernel_size=(7, 7), stride=(2, 2), padding=(3, 3), bias=False)
      (bn): BatchNorm2d(128, eps=0.001, momentum=0.1, affine=True, track_running_stats=True)
      (act): ReLU(inplace)
      (pool): MaxPool2d(kernel_size=3, stride=2, padding=1, dilation=1, ceil_mode=False)
    )
    (1): DualPathBlock(
      (c1x1_w_s1): BnActConv2d(
        (bn): BatchNorm2d(128, eps=0.001, momentum=0.1, affine=True, track_running_stats=True)
        (act): ReLU(inplace)
        (conv): Conv2d(128, 288, kernel_size=(1, 1), stride=(1, 1), bias=False)
      )
      (c1x1_a): BnActConv2d(
        (bn): BatchNorm2d(128, eps=0.001, momentum=0.1, affine=True, track_running_stats=True)
        (act): ReLU(inplace)
        (conv): Conv2d(128, 160, kernel_size=(1, 1), stride=(1, 1), bias=False)
      )
      (c3x3_b): BnActConv2d(
        (bn): BatchNorm2d(160, eps=0.001, momentum=0.1, affine=True, track_running_stats=True)
        (act): ReLU(inplace)
        (conv): Conv2d(160, 160, kernel_size=(3, 3), stride=(1, 1), padding=(1, 1), groups=40, bias=False)
      )
      (c1x1_c): BnActConv2d(
        (bn): BatchNorm2d(160, eps=0.001, momentum=0.1, affine=True, track_running_stats=True)
        (act): ReLU(inplace)
        (conv): Conv2d(160, 272, kernel_size=(1, 1), stride=(1, 1), bias=False)
      )
    )
    (2): DualPathBlock(
      (c1x1_a): BnActConv2d(
        (bn): BatchNorm2d(304, eps=0.001, momentum=0.1, affine=True, track_running_stats=True)
        (act): ReLU(inplace)
        (conv): Conv2d(304, 160, kernel_size=(1, 1), stride=(1, 1), bias=False)
      )
      (c3x3_b): BnActConv2d(
        (bn): BatchNorm2d(160, eps=0.001, momentum=0.1, affine=True, track_running_stats=True)
        (act): ReLU(inplace)
        (conv): Conv2d(160, 160, kernel_size=(3, 3), stride=(1, 1), padding=(1, 1), groups=40, bias=False)
      )
      (c1x1_c): BnActConv2d(
        (bn): BatchNorm2d(160, eps=0.001, momentum=0.1, affine=True, track_running_stats=True)
        (act): ReLU(inplace)
        (conv): Conv2d(160, 272, kernel_size=(1, 1), stride=(1, 1), bias=False)
      )
    )
    (3): DualPathBlock(
      (c1x1_a): BnActConv2d(
        (bn): BatchNorm2d(320, eps=0.001, momentum=0.1, affine=True, track_running_stats=True)
        (act): ReLU(inplace)
        (conv): Conv2d(320, 160, kernel_size=(1, 1), stride=(1, 1), bias=False)
      )
      (c3x3_b): BnActConv2d(
        (bn): BatchNorm2d(160, eps=0.001, momentum=0.1, affine=True, track_running_stats=True)
        (act): ReLU(inplace)
        (conv): Conv2d(160, 160, kernel_size=(3, 3), stride=(1, 1), padding=(1, 1), groups=40, bias=False)
      )
      (c1x1_c): BnActConv2d(
        (bn): BatchNorm2d(160, eps=0.001, momentum=0.1, affine=True, track_running_stats=True)
        (act): ReLU(inplace)
        (conv): Conv2d(160, 272, kernel_size=(1, 1), stride=(1, 1), bias=False)
      )
    )
    (4): DualPathBlock(
      (c1x1_a): BnActConv2d(
        (bn): BatchNorm2d(336, eps=0.001, momentum=0.1, affine=True, track_running_stats=True)
        (act): ReLU(inplace)
        (conv): Conv2d(336, 160, kernel_size=(1, 1), stride=(1, 1), bias=False)
      )
      (c3x3_b): BnActConv2d(
        (bn): BatchNorm2d(160, eps=0.001, momentum=0.1, affine=True, track_running_stats=True)
        (act): ReLU(inplace)
        (conv): Conv2d(160, 160, kernel_size=(3, 3), stride=(1, 1), padding=(1, 1), groups=40, bias=False)
      )
      (c1x1_c): BnActConv2d(
        (bn): BatchNorm2d(160, eps=0.001, momentum=0.1, affine=True, track_running_stats=True)
        (act): ReLU(inplace)
        (conv): Conv2d(160, 272, kernel_size=(1, 1), stride=(1, 1), bias=False)
      )
    )
    (5): DualPathBlock(
      (c1x1_w_s2): BnActConv2d(
        (bn): BatchNorm2d(352, eps=0.001, momentum=0.1, affine=True, track_running_stats=True)
        (act): ReLU(inplace)
        (conv): Conv2d(352, 576, kernel_size=(1, 1), stride=(2, 2), bias=False)
      )
      (c1x1_a): BnActConv2d(
        (bn): BatchNorm2d(352, eps=0.001, momentum=0.1, affine=True, track_running_stats=True)
        (act): ReLU(inplace)
        (conv): Conv2d(352, 320, kernel_size=(1, 1), stride=(1, 1), bias=False)
      )
      (c3x3_b): BnActConv2d(
        (bn): BatchNorm2d(320, eps=0.001, momentum=0.1, affine=True, track_running_stats=True)
        (act): ReLU(inplace)
        (conv): Conv2d(320, 320, kernel_size=(3, 3), stride=(2, 2), padding=(1, 1), groups=40, bias=False)
      )
      (c1x1_c): BnActConv2d(
        (bn): BatchNorm2d(320, eps=0.001, momentum=0.1, affine=True, track_running_stats=True)
        (act): ReLU(inplace)
        (conv): Conv2d(320, 544, kernel_size=(1, 1), stride=(1, 1), bias=False)
      )
    )
    (6): DualPathBlock(
      (c1x1_a): BnActConv2d(
        (bn): BatchNorm2d(608, eps=0.001, momentum=0.1, affine=True, track_running_stats=True)
        (act): ReLU(inplace)
        (conv): Conv2d(608, 320, kernel_size=(1, 1), stride=(1, 1), bias=False)
      )
      (c3x3_b): BnActConv2d(
        (bn): BatchNorm2d(320, eps=0.001, momentum=0.1, affine=True, track_running_stats=True)
        (act): ReLU(inplace)
        (conv): Conv2d(320, 320, kernel_size=(3, 3), stride=(1, 1), padding=(1, 1), groups=40, bias=False)
      )
      (c1x1_c): BnActConv2d(
        (bn): BatchNorm2d(320, eps=0.001, momentum=0.1, affine=True, track_running_stats=True)
        (act): ReLU(inplace)
        (conv): Conv2d(320, 544, kernel_size=(1, 1), stride=(1, 1), bias=False)
      )
    )
    (7): DualPathBlock(
      (c1x1_a): BnActConv2d(
        (bn): BatchNorm2d(640, eps=0.001, momentum=0.1, affine=True, track_running_stats=True)
        (act): ReLU(inplace)
        (conv): Conv2d(640, 320, kernel_size=(1, 1), stride=(1, 1), bias=False)
      )
      (c3x3_b): BnActConv2d(
        (bn): BatchNorm2d(320, eps=0.001, momentum=0.1, affine=True, track_running_stats=True)
        (act): ReLU(inplace)
        (conv): Conv2d(320, 320, kernel_size=(3, 3), stride=(1, 1), padding=(1, 1), groups=40, bias=False)
      )
      (c1x1_c): BnActConv2d(
        (bn): BatchNorm2d(320, eps=0.001, momentum=0.1, affine=True, track_running_stats=True)
        (act): ReLU(inplace)
        (conv): Conv2d(320, 544, kernel_size=(1, 1), stride=(1, 1), bias=False)
      )
    )
    (8): DualPathBlock(
      (c1x1_a): BnActConv2d(
        (bn): BatchNorm2d(672, eps=0.001, momentum=0.1, affine=True, track_running_stats=True)
        (act): ReLU(inplace)
        (conv): Conv2d(672, 320, kernel_size=(1, 1), stride=(1, 1), bias=False)
      )
      (c3x3_b): BnActConv2d(
        (bn): BatchNorm2d(320, eps=0.001, momentum=0.1, affine=True, track_running_stats=True)
        (act): ReLU(inplace)
        (conv): Conv2d(320, 320, kernel_size=(3, 3), stride=(1, 1), padding=(1, 1), groups=40, bias=False)
      )
      (c1x1_c): BnActConv2d(
        (bn): BatchNorm2d(320, eps=0.001, momentum=0.1, affine=True, track_running_stats=True)
        (act): ReLU(inplace)
        (conv): Conv2d(320, 544, kernel_size=(1, 1), stride=(1, 1), bias=False)
      )
    )
    (9): DualPathBlock(
      (c1x1_a): BnActConv2d(
        (bn): BatchNorm2d(704, eps=0.001, momentum=0.1, affine=True, track_running_stats=True)
        (act): ReLU(inplace)
        (conv): Conv2d(704, 320, kernel_size=(1, 1), stride=(1, 1), bias=False)
      )
      (c3x3_b): BnActConv2d(
        (bn): BatchNorm2d(320, eps=0.001, momentum=0.1, affine=True, track_running_stats=True)
        (act): ReLU(inplace)
        (conv): Conv2d(320, 320, kernel_size=(3, 3), stride=(1, 1), padding=(1, 1), groups=40, bias=False)
      )
      (c1x1_c): BnActConv2d(
        (bn): BatchNorm2d(320, eps=0.001, momentum=0.1, affine=True, track_running_stats=True)
        (act): ReLU(inplace)
        (conv): Conv2d(320, 544, kernel_size=(1, 1), stride=(1, 1), bias=False)
      )
    )
    (10): DualPathBlock(
      (c1x1_a): BnActConv2d(
        (bn): BatchNorm2d(736, eps=0.001, momentum=0.1, affine=True, track_running_stats=True)
        (act): ReLU(inplace)
        (conv): Conv2d(736, 320, kernel_size=(1, 1), stride=(1, 1), bias=False)
      )
      (c3x3_b): BnActConv2d(
        (bn): BatchNorm2d(320, eps=0.001, momentum=0.1, affine=True, track_running_stats=True)
        (act): ReLU(inplace)
        (conv): Conv2d(320, 320, kernel_size=(3, 3), stride=(1, 1), padding=(1, 1), groups=40, bias=False)
      )
      (c1x1_c): BnActConv2d(
        (bn): BatchNorm2d(320, eps=0.001, momentum=0.1, affine=True, track_running_stats=True)
        (act): ReLU(inplace)
        (conv): Conv2d(320, 544, kernel_size=(1, 1), stride=(1, 1), bias=False)
      )
    )
    (11): DualPathBlock(
      (c1x1_a): BnActConv2d(
        (bn): BatchNorm2d(768, eps=0.001, momentum=0.1, affine=True, track_running_stats=True)
        (act): ReLU(inplace)
        (conv): Conv2d(768, 320, kernel_size=(1, 1), stride=(1, 1), bias=False)
      )
      (c3x3_b): BnActConv2d(
        (bn): BatchNorm2d(320, eps=0.001, momentum=0.1, affine=True, track_running_stats=True)
        (act): ReLU(inplace)
        (conv): Conv2d(320, 320, kernel_size=(3, 3), stride=(1, 1), padding=(1, 1), groups=40, bias=False)
      )
      (c1x1_c): BnActConv2d(
        (bn): BatchNorm2d(320, eps=0.001, momentum=0.1, affine=True, track_running_stats=True)
        (act): ReLU(inplace)
        (conv): Conv2d(320, 544, kernel_size=(1, 1), stride=(1, 1), bias=False)
      )
    )
    (12): DualPathBlock(
      (c1x1_a): BnActConv2d(
        (bn): BatchNorm2d(800, eps=0.001, momentum=0.1, affine=True, track_running_stats=True)
        (act): ReLU(inplace)
        (conv): Conv2d(800, 320, kernel_size=(1, 1), stride=(1, 1), bias=False)
      )
      (c3x3_b): BnActConv2d(
        (bn): BatchNorm2d(320, eps=0.001, momentum=0.1, affine=True, track_running_stats=True)
        (act): ReLU(inplace)
        (conv): Conv2d(320, 320, kernel_size=(3, 3), stride=(1, 1), padding=(1, 1), groups=40, bias=False)
      )
      (c1x1_c): BnActConv2d(
        (bn): BatchNorm2d(320, eps=0.001, momentum=0.1, affine=True, track_running_stats=True)
        (act): ReLU(inplace)
        (conv): Conv2d(320, 544, kernel_size=(1, 1), stride=(1, 1), bias=False)
      )
    )
    (13): DualPathBlock(
      (c1x1_w_s2): BnActConv2d(
        (bn): BatchNorm2d(832, eps=0.001, momentum=0.1, affine=True, track_running_stats=True)
        (act): ReLU(inplace)
        (conv): Conv2d(832, 1088, kernel_size=(1, 1), stride=(2, 2), bias=False)
      )
      (c1x1_a): BnActConv2d(
        (bn): BatchNorm2d(832, eps=0.001, momentum=0.1, affine=True, track_running_stats=True)
        (act): ReLU(inplace)
        (conv): Conv2d(832, 640, kernel_size=(1, 1), stride=(1, 1), bias=False)
      )
      (c3x3_b): BnActConv2d(
        (bn): BatchNorm2d(640, eps=0.001, momentum=0.1, affine=True, track_running_stats=True)
        (act): ReLU(inplace)
        (conv): Conv2d(640, 640, kernel_size=(3, 3), stride=(2, 2), padding=(1, 1), groups=40, bias=False)
      )
      (c1x1_c): BnActConv2d(
        (bn): BatchNorm2d(640, eps=0.001, momentum=0.1, affine=True, track_running_stats=True)
        (act): ReLU(inplace)
        (conv): Conv2d(640, 1056, kernel_size=(1, 1), stride=(1, 1), bias=False)
      )
    )
    (14): DualPathBlock(
      (c1x1_a): BnActConv2d(
        (bn): BatchNorm2d(1120, eps=0.001, momentum=0.1, affine=True, track_running_stats=True)
        (act): ReLU(inplace)
        (conv): Conv2d(1120, 640, kernel_size=(1, 1), stride=(1, 1), bias=False)
      )
      (c3x3_b): BnActConv2d(
        (bn): BatchNorm2d(640, eps=0.001, momentum=0.1, affine=True, track_running_stats=True)
        (act): ReLU(inplace)
        (conv): Conv2d(640, 640, kernel_size=(3, 3), stride=(1, 1), padding=(1, 1), groups=40, bias=False)
      )
      (c1x1_c): BnActConv2d(
        (bn): BatchNorm2d(640, eps=0.001, momentum=0.1, affine=True, track_running_stats=True)
        (act): ReLU(inplace)
        (conv): Conv2d(640, 1056, kernel_size=(1, 1), stride=(1, 1), bias=False)
      )
    )
    (15): DualPathBlock(
      (c1x1_a): BnActConv2d(
        (bn): BatchNorm2d(1152, eps=0.001, momentum=0.1, affine=True, track_running_stats=True)
        (act): ReLU(inplace)
        (conv): Conv2d(1152, 640, kernel_size=(1, 1), stride=(1, 1), bias=False)
      )
      (c3x3_b): BnActConv2d(
        (bn): BatchNorm2d(640, eps=0.001, momentum=0.1, affine=True, track_running_stats=True)
        (act): ReLU(inplace)
        (conv): Conv2d(640, 640, kernel_size=(3, 3), stride=(1, 1), padding=(1, 1), groups=40, bias=False)
      )
      (c1x1_c): BnActConv2d(
        (bn): BatchNorm2d(640, eps=0.001, momentum=0.1, affine=True, track_running_stats=True)
        (act): ReLU(inplace)
        (conv): Conv2d(640, 1056, kernel_size=(1, 1), stride=(1, 1), bias=False)
      )
    )
    (16): DualPathBlock(
      (c1x1_a): BnActConv2d(
        (bn): BatchNorm2d(1184, eps=0.001, momentum=0.1, affine=True, track_running_stats=True)
        (act): ReLU(inplace)
        (conv): Conv2d(1184, 640, kernel_size=(1, 1), stride=(1, 1), bias=False)
      )
      (c3x3_b): BnActConv2d(
        (bn): BatchNorm2d(640, eps=0.001, momentum=0.1, affine=True, track_running_stats=True)
        (act): ReLU(inplace)
        (conv): Conv2d(640, 640, kernel_size=(3, 3), stride=(1, 1), padding=(1, 1), groups=40, bias=False)
      )
      (c1x1_c): BnActConv2d(
        (bn): BatchNorm2d(640, eps=0.001, momentum=0.1, affine=True, track_running_stats=True)
        (act): ReLU(inplace)
        (conv): Conv2d(640, 1056, kernel_size=(1, 1), stride=(1, 1), bias=False)
      )
    )
    (17): DualPathBlock(
      (c1x1_a): BnActConv2d(
        (bn): BatchNorm2d(1216, eps=0.001, momentum=0.1, affine=True, track_running_stats=True)
        (act): ReLU(inplace)
        (conv): Conv2d(1216, 640, kernel_size=(1, 1), stride=(1, 1), bias=False)
      )
      (c3x3_b): BnActConv2d(
        (bn): BatchNorm2d(640, eps=0.001, momentum=0.1, affine=True, track_running_stats=True)
        (act): ReLU(inplace)
        (conv): Conv2d(640, 640, kernel_size=(3, 3), stride=(1, 1), padding=(1, 1), groups=40, bias=False)
      )
      (c1x1_c): BnActConv2d(
        (bn): BatchNorm2d(640, eps=0.001, momentum=0.1, affine=True, track_running_stats=True)
        (act): ReLU(inplace)
        (conv): Conv2d(640, 1056, kernel_size=(1, 1), stride=(1, 1), bias=False)
      )
    )
    (18): DualPathBlock(
      (c1x1_a): BnActConv2d(
        (bn): BatchNorm2d(1248, eps=0.001, momentum=0.1, affine=True, track_running_stats=True)
        (act): ReLU(inplace)
        (conv): Conv2d(1248, 640, kernel_size=(1, 1), stride=(1, 1), bias=False)
      )
      (c3x3_b): BnActConv2d(
        (bn): BatchNorm2d(640, eps=0.001, momentum=0.1, affine=True, track_running_stats=True)
        (act): ReLU(inplace)
        (conv): Conv2d(640, 640, kernel_size=(3, 3), stride=(1, 1), padding=(1, 1), groups=40, bias=False)
      )
      (c1x1_c): BnActConv2d(
        (bn): BatchNorm2d(640, eps=0.001, momentum=0.1, affine=True, track_running_stats=True)
        (act): ReLU(inplace)
        (conv): Conv2d(640, 1056, kernel_size=(1, 1), stride=(1, 1), bias=False)
      )
    )
    (19): DualPathBlock(
      (c1x1_a): BnActConv2d(
        (bn): BatchNorm2d(1280, eps=0.001, momentum=0.1, affine=True, track_running_stats=True)
        (act): ReLU(inplace)
        (conv): Conv2d(1280, 640, kernel_size=(1, 1), stride=(1, 1), bias=False)
      )
      (c3x3_b): BnActConv2d(
        (bn): BatchNorm2d(640, eps=0.001, momentum=0.1, affine=True, track_running_stats=True)
        (act): ReLU(inplace)
        (conv): Conv2d(640, 640, kernel_size=(3, 3), stride=(1, 1), padding=(1, 1), groups=40, bias=False)
      )
      (c1x1_c): BnActConv2d(
        (bn): BatchNorm2d(640, eps=0.001, momentum=0.1, affine=True, track_running_stats=True)
        (act): ReLU(inplace)
        (conv): Conv2d(640, 1056, kernel_size=(1, 1), stride=(1, 1), bias=False)
      )
    )
    (20): DualPathBlock(
      (c1x1_a): BnActConv2d(
        (bn): BatchNorm2d(1312, eps=0.001, momentum=0.1, affine=True, track_running_stats=True)
        (act): ReLU(inplace)
        (conv): Conv2d(1312, 640, kernel_size=(1, 1), stride=(1, 1), bias=False)
      )
      (c3x3_b): BnActConv2d(
        (bn): BatchNorm2d(640, eps=0.001, momentum=0.1, affine=True, track_running_stats=True)
        (act): ReLU(inplace)
        (conv): Conv2d(640, 640, kernel_size=(3, 3), stride=(1, 1), padding=(1, 1), groups=40, bias=False)
      )
      (c1x1_c): BnActConv2d(
        (bn): BatchNorm2d(640, eps=0.001, momentum=0.1, affine=True, track_running_stats=True)
        (act): ReLU(inplace)
        (conv): Conv2d(640, 1056, kernel_size=(1, 1), stride=(1, 1), bias=False)
      )
    )
    (21): DualPathBlock(
      (c1x1_a): BnActConv2d(
        (bn): BatchNorm2d(1344, eps=0.001, momentum=0.1, affine=True, track_running_stats=True)
        (act): ReLU(inplace)
        (conv): Conv2d(1344, 640, kernel_size=(1, 1), stride=(1, 1), bias=False)
      )
      (c3x3_b): BnActConv2d(
        (bn): BatchNorm2d(640, eps=0.001, momentum=0.1, affine=True, track_running_stats=True)
        (act): ReLU(inplace)
        (conv): Conv2d(640, 640, kernel_size=(3, 3), stride=(1, 1), padding=(1, 1), groups=40, bias=False)
      )
      (c1x1_c): BnActConv2d(
        (bn): BatchNorm2d(640, eps=0.001, momentum=0.1, affine=True, track_running_stats=True)
        (act): ReLU(inplace)
        (conv): Conv2d(640, 1056, kernel_size=(1, 1), stride=(1, 1), bias=False)
      )
    )
    (22): DualPathBlock(
      (c1x1_a): BnActConv2d(
        (bn): BatchNorm2d(1376, eps=0.001, momentum=0.1, affine=True, track_running_stats=True)
        (act): ReLU(inplace)
        (conv): Conv2d(1376, 640, kernel_size=(1, 1), stride=(1, 1), bias=False)
      )
      (c3x3_b): BnActConv2d(
        (bn): BatchNorm2d(640, eps=0.001, momentum=0.1, affine=True, track_running_stats=True)
        (act): ReLU(inplace)
        (conv): Conv2d(640, 640, kernel_size=(3, 3), stride=(1, 1), padding=(1, 1), groups=40, bias=False)
      )
      (c1x1_c): BnActConv2d(
        (bn): BatchNorm2d(640, eps=0.001, momentum=0.1, affine=True, track_running_stats=True)
        (act): ReLU(inplace)
        (conv): Conv2d(640, 1056, kernel_size=(1, 1), stride=(1, 1), bias=False)
      )
    )
    (23): DualPathBlock(
      (c1x1_a): BnActConv2d(
        (bn): BatchNorm2d(1408, eps=0.001, momentum=0.1, affine=True, track_running_stats=True)
        (act): ReLU(inplace)
        (conv): Conv2d(1408, 640, kernel_size=(1, 1), stride=(1, 1), bias=False)
      )
      (c3x3_b): BnActConv2d(
        (bn): BatchNorm2d(640, eps=0.001, momentum=0.1, affine=True, track_running_stats=True)
        (act): ReLU(inplace)
        (conv): Conv2d(640, 640, kernel_size=(3, 3), stride=(1, 1), padding=(1, 1), groups=40, bias=False)
      )
      (c1x1_c): BnActConv2d(
        (bn): BatchNorm2d(640, eps=0.001, momentum=0.1, affine=True, track_running_stats=True)
        (act): ReLU(inplace)
        (conv): Conv2d(640, 1056, kernel_size=(1, 1), stride=(1, 1), bias=False)
      )
    )
    (24): DualPathBlock(
      (c1x1_a): BnActConv2d(
        (bn): BatchNorm2d(1440, eps=0.001, momentum=0.1, affine=True, track_running_stats=True)
        (act): ReLU(inplace)
        (conv): Conv2d(1440, 640, kernel_size=(1, 1), stride=(1, 1), bias=False)
      )
      (c3x3_b): BnActConv2d(
        (bn): BatchNorm2d(640, eps=0.001, momentum=0.1, affine=True, track_running_stats=True)
        (act): ReLU(inplace)
        (conv): Conv2d(640, 640, kernel_size=(3, 3), stride=(1, 1), padding=(1, 1), groups=40, bias=False)
      )
      (c1x1_c): BnActConv2d(
        (bn): BatchNorm2d(640, eps=0.001, momentum=0.1, affine=True, track_running_stats=True)
        (act): ReLU(inplace)
        (conv): Conv2d(640, 1056, kernel_size=(1, 1), stride=(1, 1), bias=False)
      )
    )
    (25): DualPathBlock(
      (c1x1_a): BnActConv2d(
        (bn): BatchNorm2d(1472, eps=0.001, momentum=0.1, affine=True, track_running_stats=True)
        (act): ReLU(inplace)
        (conv): Conv2d(1472, 640, kernel_size=(1, 1), stride=(1, 1), bias=False)
      )
      (c3x3_b): BnActConv2d(
        (bn): BatchNorm2d(640, eps=0.001, momentum=0.1, affine=True, track_running_stats=True)
        (act): ReLU(inplace)
        (conv): Conv2d(640, 640, kernel_size=(3, 3), stride=(1, 1), padding=(1, 1), groups=40, bias=False)
      )
      (c1x1_c): BnActConv2d(
        (bn): BatchNorm2d(640, eps=0.001, momentum=0.1, affine=True, track_running_stats=True)
        (act): ReLU(inplace)
        (conv): Conv2d(640, 1056, kernel_size=(1, 1), stride=(1, 1), bias=False)
      )
    )
    (26): DualPathBlock(
      (c1x1_a): BnActConv2d(
        (bn): BatchNorm2d(1504, eps=0.001, momentum=0.1, affine=True, track_running_stats=True)
        (act): ReLU(inplace)
        (conv): Conv2d(1504, 640, kernel_size=(1, 1), stride=(1, 1), bias=False)
      )
      (c3x3_b): BnActConv2d(
        (bn): BatchNorm2d(640, eps=0.001, momentum=0.1, affine=True, track_running_stats=True)
        (act): ReLU(inplace)
        (conv): Conv2d(640, 640, kernel_size=(3, 3), stride=(1, 1), padding=(1, 1), groups=40, bias=False)
      )
      (c1x1_c): BnActConv2d(
        (bn): BatchNorm2d(640, eps=0.001, momentum=0.1, affine=True, track_running_stats=True)
        (act): ReLU(inplace)
        (conv): Conv2d(640, 1056, kernel_size=(1, 1), stride=(1, 1), bias=False)
      )
    )
    (27): DualPathBlock(
      (c1x1_a): BnActConv2d(
        (bn): BatchNorm2d(1536, eps=0.001, momentum=0.1, affine=True, track_running_stats=True)
        (act): ReLU(inplace)
        (conv): Conv2d(1536, 640, kernel_size=(1, 1), stride=(1, 1), bias=False)
      )
      (c3x3_b): BnActConv2d(
        (bn): BatchNorm2d(640, eps=0.001, momentum=0.1, affine=True, track_running_stats=True)
        (act): ReLU(inplace)
        (conv): Conv2d(640, 640, kernel_size=(3, 3), stride=(1, 1), padding=(1, 1), groups=40, bias=False)
      )
      (c1x1_c): BnActConv2d(
        (bn): BatchNorm2d(640, eps=0.001, momentum=0.1, affine=True, track_running_stats=True)
        (act): ReLU(inplace)
        (conv): Conv2d(640, 1056, kernel_size=(1, 1), stride=(1, 1), bias=False)
      )
    )
    (28): DualPathBlock(
      (c1x1_a): BnActConv2d(
        (bn): BatchNorm2d(1568, eps=0.001, momentum=0.1, affine=True, track_running_stats=True)
        (act): ReLU(inplace)
        (conv): Conv2d(1568, 640, kernel_size=(1, 1), stride=(1, 1), bias=False)
      )
      (c3x3_b): BnActConv2d(
        (bn): BatchNorm2d(640, eps=0.001, momentum=0.1, affine=True, track_running_stats=True)
        (act): ReLU(inplace)
        (conv): Conv2d(640, 640, kernel_size=(3, 3), stride=(1, 1), padding=(1, 1), groups=40, bias=False)
      )
      (c1x1_c): BnActConv2d(
        (bn): BatchNorm2d(640, eps=0.001, momentum=0.1, affine=True, track_running_stats=True)
        (act): ReLU(inplace)
        (conv): Conv2d(640, 1056, kernel_size=(1, 1), stride=(1, 1), bias=False)
      )
    )
    (29): DualPathBlock(
      (c1x1_a): BnActConv2d(
        (bn): BatchNorm2d(1600, eps=0.001, momentum=0.1, affine=True, track_running_stats=True)
        (act): ReLU(inplace)
        (conv): Conv2d(1600, 640, kernel_size=(1, 1), stride=(1, 1), bias=False)
      )
      (c3x3_b): BnActConv2d(
        (bn): BatchNorm2d(640, eps=0.001, momentum=0.1, affine=True, track_running_stats=True)
        (act): ReLU(inplace)
        (conv): Conv2d(640, 640, kernel_size=(3, 3), stride=(1, 1), padding=(1, 1), groups=40, bias=False)
      )
      (c1x1_c): BnActConv2d(
        (bn): BatchNorm2d(640, eps=0.001, momentum=0.1, affine=True, track_running_stats=True)
        (act): ReLU(inplace)
        (conv): Conv2d(640, 1056, kernel_size=(1, 1), stride=(1, 1), bias=False)
      )
    )
    (30): DualPathBlock(
      (c1x1_a): BnActConv2d(
        (bn): BatchNorm2d(1632, eps=0.001, momentum=0.1, affine=True, track_running_stats=True)
        (act): ReLU(inplace)
        (conv): Conv2d(1632, 640, kernel_size=(1, 1), stride=(1, 1), bias=False)
      )
      (c3x3_b): BnActConv2d(
        (bn): BatchNorm2d(640, eps=0.001, momentum=0.1, affine=True, track_running_stats=True)
        (act): ReLU(inplace)
        (conv): Conv2d(640, 640, kernel_size=(3, 3), stride=(1, 1), padding=(1, 1), groups=40, bias=False)
      )
      (c1x1_c): BnActConv2d(
        (bn): BatchNorm2d(640, eps=0.001, momentum=0.1, affine=True, track_running_stats=True)
        (act): ReLU(inplace)
        (conv): Conv2d(640, 1056, kernel_size=(1, 1), stride=(1, 1), bias=False)
      )
    )
    (31): DualPathBlock(
      (c1x1_a): BnActConv2d(
        (bn): BatchNorm2d(1664, eps=0.001, momentum=0.1, affine=True, track_running_stats=True)
        (act): ReLU(inplace)
        (conv): Conv2d(1664, 640, kernel_size=(1, 1), stride=(1, 1), bias=False)
      )
      (c3x3_b): BnActConv2d(
        (bn): BatchNorm2d(640, eps=0.001, momentum=0.1, affine=True, track_running_stats=True)
        (act): ReLU(inplace)
        (conv): Conv2d(640, 640, kernel_size=(3, 3), stride=(1, 1), padding=(1, 1), groups=40, bias=False)
      )
      (c1x1_c): BnActConv2d(
        (bn): BatchNorm2d(640, eps=0.001, momentum=0.1, affine=True, track_running_stats=True)
        (act): ReLU(inplace)
        (conv): Conv2d(640, 1056, kernel_size=(1, 1), stride=(1, 1), bias=False)
      )
    )
    (32): DualPathBlock(
      (c1x1_a): BnActConv2d(
        (bn): BatchNorm2d(1696, eps=0.001, momentum=0.1, affine=True, track_running_stats=True)
        (act): ReLU(inplace)
        (conv): Conv2d(1696, 640, kernel_size=(1, 1), stride=(1, 1), bias=False)
      )
      (c3x3_b): BnActConv2d(
        (bn): BatchNorm2d(640, eps=0.001, momentum=0.1, affine=True, track_running_stats=True)
        (act): ReLU(inplace)
        (conv): Conv2d(640, 640, kernel_size=(3, 3), stride=(1, 1), padding=(1, 1), groups=40, bias=False)
      )
      (c1x1_c): BnActConv2d(
        (bn): BatchNorm2d(640, eps=0.001, momentum=0.1, affine=True, track_running_stats=True)
        (act): ReLU(inplace)
        (conv): Conv2d(640, 1056, kernel_size=(1, 1), stride=(1, 1), bias=False)
      )
    )
    (33): DualPathBlock(
      (c1x1_a): BnActConv2d(
        (bn): BatchNorm2d(1728, eps=0.001, momentum=0.1, affine=True, track_running_stats=True)
        (act): ReLU(inplace)
        (conv): Conv2d(1728, 640, kernel_size=(1, 1), stride=(1, 1), bias=False)
      )
      (c3x3_b): BnActConv2d(
        (bn): BatchNorm2d(640, eps=0.001, momentum=0.1, affine=True, track_running_stats=True)
        (act): ReLU(inplace)
        (conv): Conv2d(640, 640, kernel_size=(3, 3), stride=(1, 1), padding=(1, 1), groups=40, bias=False)
      )
      (c1x1_c): BnActConv2d(
        (bn): BatchNorm2d(640, eps=0.001, momentum=0.1, affine=True, track_running_stats=True)
        (act): ReLU(inplace)
        (conv): Conv2d(640, 1056, kernel_size=(1, 1), stride=(1, 1), bias=False)
      )
    )
    (34): DualPathBlock(
      (c1x1_a): BnActConv2d(
        (bn): BatchNorm2d(1760, eps=0.001, momentum=0.1, affine=True, track_running_stats=True)
        (act): ReLU(inplace)
        (conv): Conv2d(1760, 640, kernel_size=(1, 1), stride=(1, 1), bias=False)
      )
      (c3x3_b): BnActConv2d(
        (bn): BatchNorm2d(640, eps=0.001, momentum=0.1, affine=True, track_running_stats=True)
        (act): ReLU(inplace)
        (conv): Conv2d(640, 640, kernel_size=(3, 3), stride=(1, 1), padding=(1, 1), groups=40, bias=False)
      )
      (c1x1_c): BnActConv2d(
        (bn): BatchNorm2d(640, eps=0.001, momentum=0.1, affine=True, track_running_stats=True)
        (act): ReLU(inplace)
        (conv): Conv2d(640, 1056, kernel_size=(1, 1), stride=(1, 1), bias=False)
      )
    )
    (35): DualPathBlock(
      (c1x1_a): BnActConv2d(
        (bn): BatchNorm2d(1792, eps=0.001, momentum=0.1, affine=True, track_running_stats=True)
        (act): ReLU(inplace)
        (conv): Conv2d(1792, 640, kernel_size=(1, 1), stride=(1, 1), bias=False)
      )
      (c3x3_b): BnActConv2d(
        (bn): BatchNorm2d(640, eps=0.001, momentum=0.1, affine=True, track_running_stats=True)
        (act): ReLU(inplace)
        (conv): Conv2d(640, 640, kernel_size=(3, 3), stride=(1, 1), padding=(1, 1), groups=40, bias=False)
      )
      (c1x1_c): BnActConv2d(
        (bn): BatchNorm2d(640, eps=0.001, momentum=0.1, affine=True, track_running_stats=True)
        (act): ReLU(inplace)
        (conv): Conv2d(640, 1056, kernel_size=(1, 1), stride=(1, 1), bias=False)
      )
    )
    (36): DualPathBlock(
      (c1x1_a): BnActConv2d(
        (bn): BatchNorm2d(1824, eps=0.001, momentum=0.1, affine=True, track_running_stats=True)
        (act): ReLU(inplace)
        (conv): Conv2d(1824, 640, kernel_size=(1, 1), stride=(1, 1), bias=False)
      )
      (c3x3_b): BnActConv2d(
        (bn): BatchNorm2d(640, eps=0.001, momentum=0.1, affine=True, track_running_stats=True)
        (act): ReLU(inplace)
        (conv): Conv2d(640, 640, kernel_size=(3, 3), stride=(1, 1), padding=(1, 1), groups=40, bias=False)
      )
      (c1x1_c): BnActConv2d(
        (bn): BatchNorm2d(640, eps=0.001, momentum=0.1, affine=True, track_running_stats=True)
        (act): ReLU(inplace)
        (conv): Conv2d(640, 1056, kernel_size=(1, 1), stride=(1, 1), bias=False)
      )
    )
    (37): DualPathBlock(
      (c1x1_a): BnActConv2d(
        (bn): BatchNorm2d(1856, eps=0.001, momentum=0.1, affine=True, track_running_stats=True)
        (act): ReLU(inplace)
        (conv): Conv2d(1856, 640, kernel_size=(1, 1), stride=(1, 1), bias=False)
      )
      (c3x3_b): BnActConv2d(
        (bn): BatchNorm2d(640, eps=0.001, momentum=0.1, affine=True, track_running_stats=True)
        (act): ReLU(inplace)
        (conv): Conv2d(640, 640, kernel_size=(3, 3), stride=(1, 1), padding=(1, 1), groups=40, bias=False)
      )
      (c1x1_c): BnActConv2d(
        (bn): BatchNorm2d(640, eps=0.001, momentum=0.1, affine=True, track_running_stats=True)
        (act): ReLU(inplace)
        (conv): Conv2d(640, 1056, kernel_size=(1, 1), stride=(1, 1), bias=False)
      )
    )
    (38): DualPathBlock(
      (c1x1_a): BnActConv2d(
        (bn): BatchNorm2d(1888, eps=0.001, momentum=0.1, affine=True, track_running_stats=True)
        (act): ReLU(inplace)
        (conv): Conv2d(1888, 640, kernel_size=(1, 1), stride=(1, 1), bias=False)
      )
      (c3x3_b): BnActConv2d(
        (bn): BatchNorm2d(640, eps=0.001, momentum=0.1, affine=True, track_running_stats=True)
        (act): ReLU(inplace)
        (conv): Conv2d(640, 640, kernel_size=(3, 3), stride=(1, 1), padding=(1, 1), groups=40, bias=False)
      )
      (c1x1_c): BnActConv2d(
        (bn): BatchNorm2d(640, eps=0.001, momentum=0.1, affine=True, track_running_stats=True)
        (act): ReLU(inplace)
        (conv): Conv2d(640, 1056, kernel_size=(1, 1), stride=(1, 1), bias=False)
      )
    )
    (39): DualPathBlock(
      (c1x1_a): BnActConv2d(
        (bn): BatchNorm2d(1920, eps=0.001, momentum=0.1, affine=True, track_running_stats=True)
        (act): ReLU(inplace)
        (conv): Conv2d(1920, 640, kernel_size=(1, 1), stride=(1, 1), bias=False)
      )
      (c3x3_b): BnActConv2d(
        (bn): BatchNorm2d(640, eps=0.001, momentum=0.1, affine=True, track_running_stats=True)
        (act): ReLU(inplace)
        (conv): Conv2d(640, 640, kernel_size=(3, 3), stride=(1, 1), padding=(1, 1), groups=40, bias=False)
      )
      (c1x1_c): BnActConv2d(
        (bn): BatchNorm2d(640, eps=0.001, momentum=0.1, affine=True, track_running_stats=True)
        (act): ReLU(inplace)
        (conv): Conv2d(640, 1056, kernel_size=(1, 1), stride=(1, 1), bias=False)
      )
    )
    (40): DualPathBlock(
      (c1x1_a): BnActConv2d(
        (bn): BatchNorm2d(1952, eps=0.001, momentum=0.1, affine=True, track_running_stats=True)
        (act): ReLU(inplace)
        (conv): Conv2d(1952, 640, kernel_size=(1, 1), stride=(1, 1), bias=False)
      )
      (c3x3_b): BnActConv2d(
        (bn): BatchNorm2d(640, eps=0.001, momentum=0.1, affine=True, track_running_stats=True)
        (act): ReLU(inplace)
        (conv): Conv2d(640, 640, kernel_size=(3, 3), stride=(1, 1), padding=(1, 1), groups=40, bias=False)
      )
      (c1x1_c): BnActConv2d(
        (bn): BatchNorm2d(640, eps=0.001, momentum=0.1, affine=True, track_running_stats=True)
        (act): ReLU(inplace)
        (conv): Conv2d(640, 1056, kernel_size=(1, 1), stride=(1, 1), bias=False)
      )
    )
    (41): DualPathBlock(
      (c1x1_w_s2): BnActConv2d(
        (bn): BatchNorm2d(1984, eps=0.001, momentum=0.1, affine=True, track_running_stats=True)
        (act): ReLU(inplace)
        (conv): Conv2d(1984, 2304, kernel_size=(1, 1), stride=(2, 2), bias=False)
      )
      (c1x1_a): BnActConv2d(
        (bn): BatchNorm2d(1984, eps=0.001, momentum=0.1, affine=True, track_running_stats=True)
        (act): ReLU(inplace)
        (conv): Conv2d(1984, 1280, kernel_size=(1, 1), stride=(1, 1), bias=False)
      )
      (c3x3_b): BnActConv2d(
        (bn): BatchNorm2d(1280, eps=0.001, momentum=0.1, affine=True, track_running_stats=True)
        (act): ReLU(inplace)
        (conv): Conv2d(1280, 1280, kernel_size=(3, 3), stride=(2, 2), padding=(1, 1), groups=40, bias=False)
      )
      (c1x1_c): BnActConv2d(
        (bn): BatchNorm2d(1280, eps=0.001, momentum=0.1, affine=True, track_running_stats=True)
        (act): ReLU(inplace)
        (conv): Conv2d(1280, 2176, kernel_size=(1, 1), stride=(1, 1), bias=False)
      )
    )
    (42): DualPathBlock(
      (c1x1_a): BnActConv2d(
        (bn): BatchNorm2d(2432, eps=0.001, momentum=0.1, affine=True, track_running_stats=True)
        (act): ReLU(inplace)
        (conv): Conv2d(2432, 1280, kernel_size=(1, 1), stride=(1, 1), bias=False)
      )
      (c3x3_b): BnActConv2d(
        (bn): BatchNorm2d(1280, eps=0.001, momentum=0.1, affine=True, track_running_stats=True)
        (act): ReLU(inplace)
        (conv): Conv2d(1280, 1280, kernel_size=(3, 3), stride=(1, 1), padding=(1, 1), groups=40, bias=False)
      )
      (c1x1_c): BnActConv2d(
        (bn): BatchNorm2d(1280, eps=0.001, momentum=0.1, affine=True, track_running_stats=True)
        (act): ReLU(inplace)
        (conv): Conv2d(1280, 2176, kernel_size=(1, 1), stride=(1, 1), bias=False)
      )
    )
    (43): DualPathBlock(
      (c1x1_a): BnActConv2d(
        (bn): BatchNorm2d(2560, eps=0.001, momentum=0.1, affine=True, track_running_stats=True)
        (act): ReLU(inplace)
        (conv): Conv2d(2560, 1280, kernel_size=(1, 1), stride=(1, 1), bias=False)
      )
      (c3x3_b): BnActConv2d(
        (bn): BatchNorm2d(1280, eps=0.001, momentum=0.1, affine=True, track_running_stats=True)
        (act): ReLU(inplace)
        (conv): Conv2d(1280, 1280, kernel_size=(3, 3), stride=(1, 1), padding=(1, 1), groups=40, bias=False)
      )
      (c1x1_c): BnActConv2d(
        (bn): BatchNorm2d(1280, eps=0.001, momentum=0.1, affine=True, track_running_stats=True)
        (act): ReLU(inplace)
        (conv): Conv2d(1280, 2176, kernel_size=(1, 1), stride=(1, 1), bias=False)
      )
    )
    (44): CatBnAct(
      (bn): BatchNorm2d(2688, eps=0.001, momentum=0.1, affine=True, track_running_stats=True)
      (act): ReLU(inplace)
    )
  )
  (classifier): Conv2d(2688, 1000, kernel_size=(1, 1), stride=(1, 1))
)[0m
2020-07-09 17:35:18,512 [32mINFO[0m: loss
CrossEntropyLoss()[0m
2020-07-09 17:35:18,514 [32mINFO[0m: optimizer
SGD (
Parameter Group 0
    dampening: 0
    hold_grads: False
    lr: 0.1
    momentum: 0.9
    nesterov: False
    weight_decay: 0.0001
)[0m
2020-07-09 17:35:20,562 [32mINFO[0m: ==> begin trace[0m
2020-07-09 17:35:35,413 [32mINFO[0m: ==> tr_data dumped[0m
…
