…
        "weight_decay": 4e-05
      }
    },
    "lr_scheduler": {
      "warmup_epochs": 0,
      "type": "MultiStepLR",
      "kwargs": {
        "milestones": [
          30,
          60,
          90
        ],
        "gamma": 0.1
      }
    }
  },
  "saver": {
    "pretrian_model": null,
    "resume_model": null,
    "save_dir": "checkpoints/shuffle_v2"
  }
}[0m
2020-07-10 14:06:56,482 [32mINFO[0m: creating model 'shuffle_v2'[0m
2020-07-10 14:06:56,517 [32mINFO[0m: model
DistributedParrotsModel
ShuffleNetV2(
  (ParimaryModule): ParimaryModule(
    (ParimaryModule): Sequential(
      (0): Conv2d(3, 24, kernel_size=(3, 3), stride=(2, 2), padding=(1, 1))
      (1): BatchNorm2d(24, eps=1e-05, momentum=0.1, affine=True, track_running_stats=True)
      (2): MaxPool2d(kernel_size=3, stride=2, padding=1, dilation=1, ceil_mode=False)
    )
  )
  (Stage1): Sequential(
    (0): ShuffleNetV2Block(
      (Left): Sequential(
        (0): Conv2d(24, 24, kernel_size=(3, 3), stride=(2, 2), padding=(1, 1), groups=24)
        (1): BatchNorm2d(24, eps=1e-05, momentum=0.1, affine=True, track_running_stats=True)
        (2): Conv2d(24, 58, kernel_size=(1, 1), stride=(1, 1))
        (3): BatchNorm2d(58, eps=1e-05, momentum=0.1, affine=True, track_running_stats=True)
        (4): ReLU()
      )
      (Right): Sequential(
        (0): Conv2d(24, 24, kernel_size=(1, 1), stride=(1, 1))
        (1): BatchNorm2d(24, eps=1e-05, momentum=0.1, affine=True, track_running_stats=True)
        (2): ReLU()
        (3): Conv2d(24, 24, kernel_size=(3, 3), stride=(2, 2), padding=(1, 1), groups=24)
        (4): BatchNorm2d(24, eps=1e-05, momentum=0.1, affine=True, track_running_stats=True)
        (5): Conv2d(24, 58, kernel_size=(1, 1), stride=(1, 1))
        (6): BatchNorm2d(58, eps=1e-05, momentum=0.1, affine=True, track_running_stats=True)
        (7): ReLU()
      )
    )
    (1): ShuffleNetV2Block(
      (Right): Sequential(
        (0): Conv2d(58, 58, kernel_size=(1, 1), stride=(1, 1))
        (1): BatchNorm2d(58, eps=1e-05, momentum=0.1, affine=True, track_running_stats=True)
        (2): ReLU()
        (3): Conv2d(58, 58, kernel_size=(3, 3), stride=(1, 1), padding=(1, 1), groups=58)
        (4): BatchNorm2d(58, eps=1e-05, momentum=0.1, affine=True, track_running_stats=True)
        (5): Conv2d(58, 58, kernel_size=(1, 1), stride=(1, 1))
        (6): BatchNorm2d(58, eps=1e-05, momentum=0.1, affine=True, track_running_stats=True)
        (7): ReLU()
      )
    )
    (2): ShuffleNetV2Block(
      (Right): Sequential(
        (0): Conv2d(58, 58, kernel_size=(1, 1), stride=(1, 1))
        (1): BatchNorm2d(58, eps=1e-05, momentum=0.1, affine=True, track_running_stats=True)
        (2): ReLU()
        (3): Conv2d(58, 58, kernel_size=(3, 3), stride=(1, 1), padding=(1, 1), groups=58)
        (4): BatchNorm2d(58, eps=1e-05, momentum=0.1, affine=True, track_running_stats=True)
        (5): Conv2d(58, 58, kernel_size=(1, 1), stride=(1, 1))
        (6): BatchNorm2d(58, eps=1e-05, momentum=0.1, affine=True, track_running_stats=True)
        (7): ReLU()
      )
    )
    (3): ShuffleNetV2Block(
      (Right): Sequential(
        (0): Conv2d(58, 58, kernel_size=(1, 1), stride=(1, 1))
        (1): BatchNorm2d(58, eps=1e-05, momentum=0.1, affine=True, track_running_stats=True)
        (2): ReLU()
        (3): Conv2d(58, 58, kernel_size=(3, 3), stride=(1, 1), padding=(1, 1), groups=58)
        (4): BatchNorm2d(58, eps=1e-05, momentum=0.1, affine=True, track_running_stats=True)
        (5): Conv2d(58, 58, kernel_size=(1, 1), stride=(1, 1))
        (6): BatchNorm2d(58, eps=1e-05, momentum=0.1, affine=True, track_running_stats=True)
        (7): ReLU()
      )
    )
  )
  (Stage2): Sequential(
    (0): ShuffleNetV2Block(
      (Left): Sequential(
        (0): Conv2d(116, 116, kernel_size=(3, 3), stride=(2, 2), padding=(1, 1), groups=116)
        (1): BatchNorm2d(116, eps=1e-05, momentum=0.1, affine=True, track_running_stats=True)
        (2): Conv2d(116, 116, kernel_size=(1, 1), stride=(1, 1))
        (3): BatchNorm2d(116, eps=1e-05, momentum=0.1, affine=True, track_running_stats=True)
        (4): ReLU()
      )
      (Right): Sequential(
        (0): Conv2d(116, 116, kernel_size=(1, 1), stride=(1, 1))
        (1): BatchNorm2d(116, eps=1e-05, momentum=0.1, affine=True, track_running_stats=True)
        (2): ReLU()
        (3): Conv2d(116, 116, kernel_size=(3, 3), stride=(2, 2), padding=(1, 1), groups=116)
        (4): BatchNorm2d(116, eps=1e-05, momentum=0.1, affine=True, track_running_stats=True)
        (5): Conv2d(116, 116, kernel_size=(1, 1), stride=(1, 1))
        (6): BatchNorm2d(116, eps=1e-05, momentum=0.1, affine=True, track_running_stats=True)
        (7): ReLU()
      )
    )
    (1): ShuffleNetV2Block(
      (Right): Sequential(
        (0): Conv2d(116, 116, kernel_size=(1, 1), stride=(1, 1))
        (1): BatchNorm2d(116, eps=1e-05, momentum=0.1, affine=True, track_running_stats=True)
        (2): ReLU()
        (3): Conv2d(116, 116, kernel_size=(3, 3), stride=(1, 1), padding=(1, 1), groups=116)
        (4): BatchNorm2d(116, eps=1e-05, momentum=0.1, affine=True, track_running_stats=True)
        (5): Conv2d(116, 116, kernel_size=(1, 1), stride=(1, 1))
        (6): BatchNorm2d(116, eps=1e-05, momentum=0.1, affine=True, track_running_stats=True)
        (7): ReLU()
      )
    )
    (2): ShuffleNetV2Block(
      (Right): Sequential(
        (0): Conv2d(116, 116, kernel_size=(1, 1), stride=(1, 1))
        (1): BatchNorm2d(116, eps=1e-05, momentum=0.1, affine=True, track_running_stats=True)
        (2): ReLU()
        (3): Conv2d(116, 116, kernel_size=(3, 3), stride=(1, 1), padding=(1, 1), groups=116)
        (4): BatchNorm2d(116, eps=1e-05, momentum=0.1, affine=True, track_running_stats=True)
        (5): Conv2d(116, 116, kernel_size=(1, 1), stride=(1, 1))
        (6): BatchNorm2d(116, eps=1e-05, momentum=0.1, affine=True, track_running_stats=True)
        (7): ReLU()
      )
    )
    (3): ShuffleNetV2Block(
      (Right): Sequential(
        (0): Conv2d(116, 116, kernel_size=(1, 1), stride=(1, 1))
        (1): BatchNorm2d(116, eps=1e-05, momentum=0.1, affine=True, track_running_stats=True)
        (2): ReLU()
        (3): Conv2d(116, 116, kernel_size=(3, 3), stride=(1, 1), padding=(1, 1), groups=116)
        (4): BatchNorm2d(116, eps=1e-05, momentum=0.1, affine=True, track_running_stats=True)
        (5): Conv2d(116, 116, kernel_size=(1, 1), stride=(1, 1))
        (6): BatchNorm2d(116, eps=1e-05, momentum=0.1, affine=True, track_running_stats=True)
        (7): ReLU()
      )
    )
    (4): ShuffleNetV2Block(
      (Right): Sequential(
        (0): Conv2d(116, 116, kernel_size=(1, 1), stride=(1, 1))
        (1): BatchNorm2d(116, eps=1e-05, momentum=0.1, affine=True, track_running_stats=True)
        (2): ReLU()
        (3): Conv2d(116, 116, kernel_size=(3, 3), stride=(1, 1), padding=(1, 1), groups=116)
        (4): BatchNorm2d(116, eps=1e-05, momentum=0.1, affine=True, track_running_stats=True)
        (5): Conv2d(116, 116, kernel_size=(1, 1), stride=(1, 1))
        (6): BatchNorm2d(116, eps=1e-05, momentum=0.1, affine=True, track_running_stats=True)
        (7): ReLU()
      )
    )
    (5): ShuffleNetV2Block(
      (Right): Sequential(
        (0): Conv2d(116, 116, kernel_size=(1, 1), stride=(1, 1))
        (1): BatchNorm2d(116, eps=1e-05, momentum=0.1, affine=True, track_running_stats=True)
        (2): ReLU()
        (3): Conv2d(116, 116, kernel_size=(3, 3), stride=(1, 1), padding=(1, 1), groups=116)
        (4): BatchNorm2d(116, eps=1e-05, momentum=0.1, affine=True, track_running_stats=True)
        (5): Conv2d(116, 116, kernel_size=(1, 1), stride=(1, 1))
        (6): BatchNorm2d(116, eps=1e-05, momentum=0.1, affine=True, track_running_stats=True)
        (7): ReLU()
      )
    )
    (6): ShuffleNetV2Block(
      (Right): Sequential(
        (0): Conv2d(116, 116, kernel_size=(1, 1), stride=(1, 1))
        (1): BatchNorm2d(116, eps=1e-05, momentum=0.1, affine=True, track_running_stats=True)
        (2): ReLU()
        (3): Conv2d(116, 116, kernel_size=(3, 3), stride=(1, 1), padding=(1, 1), groups=116)
        (4): BatchNorm2d(116, eps=1e-05, momentum=0.1, affine=True, track_running_stats=True)
        (5): Conv2d(116, 116, kernel_size=(1, 1), stride=(1, 1))
        (6): BatchNorm2d(116, eps=1e-05, momentum=0.1, affine=True, track_running_stats=True)
        (7): ReLU()
      )
    )
    (7): ShuffleNetV2Block(
      (Right): Sequential(
        (0): Conv2d(116, 116, kernel_size=(1, 1), stride=(1, 1))
        (1): BatchNorm2d(116, eps=1e-05, momentum=0.1, affine=True, track_running_stats=True)
        (2): ReLU()
        (3): Conv2d(116, 116, kernel_size=(3, 3), stride=(1, 1), padding=(1, 1), groups=116)
        (4): BatchNorm2d(116, eps=1e-05, momentum=0.1, affine=True, track_running_stats=True)
        (5): Conv2d(116, 116, kernel_size=(1, 1), stride=(1, 1))
        (6): BatchNorm2d(116, eps=1e-05, momentum=0.1, affine=True, track_running_stats=True)
        (7): ReLU()
      )
    )
  )
  (Stage3): Sequential(
    (0): ShuffleNetV2Block(
      (Left): Sequential(
        (0): Conv2d(232, 232, kernel_size=(3, 3), stride=(2, 2), padding=(1, 1), groups=232)
        (1): BatchNorm2d(232, eps=1e-05, momentum=0.1, affine=True, track_running_stats=True)
        (2): Conv2d(232, 232, kernel_size=(1, 1), stride=(1, 1))
        (3): BatchNorm2d(232, eps=1e-05, momentum=0.1, affine=True, track_running_stats=True)
        (4): ReLU()
      )
      (Right): Sequential(
        (0): Conv2d(232, 232, kernel_size=(1, 1), stride=(1, 1))
        (1): BatchNorm2d(232, eps=1e-05, momentum=0.1, affine=True, track_running_stats=True)
        (2): ReLU()
        (3): Conv2d(232, 232, kernel_size=(3, 3), stride=(2, 2), padding=(1, 1), groups=232)
        (4): BatchNorm2d(232, eps=1e-05, momentum=0.1, affine=True, track_running_stats=True)
        (5): Conv2d(232, 232, kernel_size=(1, 1), stride=(1, 1))
        (6): BatchNorm2d(232, eps=1e-05, momentum=0.1, affine=True, track_running_stats=True)
        (7): ReLU()
      )
    )
    (1): ShuffleNetV2Block(
      (Right): Sequential(
        (0): Conv2d(232, 232, kernel_size=(1, 1), stride=(1, 1))
        (1): BatchNorm2d(232, eps=1e-05, momentum=0.1, affine=True, track_running_stats=True)
        (2): ReLU()
        (3): Conv2d(232, 232, kernel_size=(3, 3), stride=(1, 1), padding=(1, 1), groups=232)
        (4): BatchNorm2d(232, eps=1e-05, momentum=0.1, affine=True, track_running_stats=True)
        (5): Conv2d(232, 232, kernel_size=(1, 1), stride=(1, 1))
        (6): BatchNorm2d(232, eps=1e-05, momentum=0.1, affine=True, track_running_stats=True)
        (7): ReLU()
      )
    )
    (2): ShuffleNetV2Block(
      (Right): Sequential(
        (0): Conv2d(232, 232, kernel_size=(1, 1), stride=(1, 1))
        (1): BatchNorm2d(232, eps=1e-05, momentum=0.1, affine=True, track_running_stats=True)
        (2): ReLU()
        (3): Conv2d(232, 232, kernel_size=(3, 3), stride=(1, 1), padding=(1, 1), groups=232)
        (4): BatchNorm2d(232, eps=1e-05, momentum=0.1, affine=True, track_running_stats=True)
        (5): Conv2d(232, 232, kernel_size=(1, 1), stride=(1, 1))
        (6): BatchNorm2d(232, eps=1e-05, momentum=0.1, affine=True, track_running_stats=True)
        (7): ReLU()
      )
    )
    (3): ShuffleNetV2Block(
      (Right): Sequential(
        (0): Conv2d(232, 232, kernel_size=(1, 1), stride=(1, 1))
        (1): BatchNorm2d(232, eps=1e-05, momentum=0.1, affine=True, track_running_stats=True)
        (2): ReLU()
        (3): Conv2d(232, 232, kernel_size=(3, 3), stride=(1, 1), padding=(1, 1), groups=232)
        (4): BatchNorm2d(232, eps=1e-05, momentum=0.1, affine=True, track_running_stats=True)
        (5): Conv2d(232, 232, kernel_size=(1, 1), stride=(1, 1))
        (6): BatchNorm2d(232, eps=1e-05, momentum=0.1, affine=True, track_running_stats=True)
        (7): ReLU()
      )
    )
  )
  (FinalModule): FinalModule(
    (avgpool): AvgPool2d(kernel_size=7, stride=1, padding=0)
    (fc): Linear(in_features=1024, out_features=1000, bias=True)
    (FinalConv): Sequential(
      (0): Conv2d(464, 1024, kernel_size=(1, 1), stride=(1, 1))
      (1): BatchNorm2d(1024, eps=1e-05, momentum=0.1, affine=True, track_running_stats=True)
      (2): ReLU()
    )
  )
)[0m
2020-07-10 14:06:56,518 [32mINFO[0m: loss
CrossEntropyLoss()[0m
2020-07-10 14:06:56,518 [32mINFO[0m: optimizer
SGD (
Parameter Group 0
    dampening: 0
    hold_grads: False
    lr: 0.12
    momentum: 0.9
    nesterov: False
    weight_decay: 4e-05
)[0m
2020-07-10 14:06:56,520 [32mINFO[0m: create checkpoint folder checkpoints/shuffle_v2[0m
…
