…
        "lr": 0.1,
        "momentum": 0.9,
        "weight_decay": 0.0001
      }
    },
    "lr_scheduler": {
      "warmup_epochs": 0,
      "type": "MultiStepLR",
      "kwargs": {
        "milestones": [
          30,
          60,
          90
        ],
        "gamma": 0.1
      }
    }
  },
  "saver": {
    "pretrian_model": null,
    "resume_model": null,
    "save_dir": "checkpoints/dpn92"
  }
}[0m
2020-07-09 17:33:28,304 [32mINFO[0m: creating model 'dpn68b'[0m
2020-07-09 17:33:28,411 [32mINFO[0m: model
DistributedParrotsModel
DPN(
  (features): Sequential(
    (0): InputBlock(
      (conv): Conv2d(3, 10, kernel_size=(3, 3), stride=(2, 2), padding=(1, 1), bias=False)
      (bn): BatchNorm2d(10, eps=0.001, momentum=0.1, affine=True, track_running_stats=True)
      (act): ReLU(inplace)
      (pool): MaxPool2d(kernel_size=3, stride=2, padding=1, dilation=1, ceil_mode=False)
    )
    (1): DualPathBlock(
      (c1x1_w_s1): BnActConv2d(
        (bn): BatchNorm2d(10, eps=0.001, momentum=0.1, affine=True, track_running_stats=True)
        (act): ReLU(inplace)
        (conv): Conv2d(10, 96, kernel_size=(1, 1), stride=(1, 1), bias=False)
      )
      (c1x1_a): BnActConv2d(
        (bn): BatchNorm2d(10, eps=0.001, momentum=0.1, affine=True, track_running_stats=True)
        (act): ReLU(inplace)
        (conv): Conv2d(10, 128, kernel_size=(1, 1), stride=(1, 1), bias=False)
      )
      (c3x3_b): BnActConv2d(
        (bn): BatchNorm2d(128, eps=0.001, momentum=0.1, affine=True, track_running_stats=True)
        (act): ReLU(inplace)
        (conv): Conv2d(128, 128, kernel_size=(3, 3), stride=(1, 1), padding=(1, 1), groups=32, bias=False)
      )
      (c1x1_c): CatBnAct(
        (bn): BatchNorm2d(128, eps=0.001, momentum=0.1, affine=True, track_running_stats=True)
        (act): ReLU(inplace)
      )
      (c1x1_c1): Conv2d(128, 64, kernel_size=(1, 1), stride=(1, 1), bias=False)
      (c1x1_c2): Conv2d(128, 16, kernel_size=(1, 1), stride=(1, 1), bias=False)
    )
    (2): DualPathBlock(
      (c1x1_a): BnActConv2d(
        (bn): BatchNorm2d(112, eps=0.001, momentum=0.1, affine=True, track_running_stats=True)
        (act): ReLU(inplace)
        (conv): Conv2d(112, 128, kernel_size=(1, 1), stride=(1, 1), bias=False)
      )
      (c3x3_b): BnActConv2d(
        (bn): BatchNorm2d(128, eps=0.001, momentum=0.1, affine=True, track_running_stats=True)
        (act): ReLU(inplace)
        (conv): Conv2d(128, 128, kernel_size=(3, 3), stride=(1, 1), padding=(1, 1), groups=32, bias=False)
      )
      (c1x1_c): CatBnAct(
        (bn): BatchNorm2d(128, eps=0.001, momentum=0.1, affine=True, track_running_stats=True)
        (act): ReLU(inplace)
      )
      (c1x1_c1): Conv2d(128, 64, kernel_size=(1, 1), stride=(1, 1), bias=False)
      (c1x1_c2): Conv2d(128, 16, kernel_size=(1, 1), stride=(1, 1), bias=False)
    )
    (3): DualPathBlock(
      (c1x1_a): BnActConv2d(
        (bn): BatchNorm2d(128, eps=0.001, momentum=0.1, affine=True, track_running_stats=True)
        (act): ReLU(inplace)
        (conv): Conv2d(128, 128, kernel_size=(1, 1), stride=(1, 1), bias=False)
      )
      (c3x3_b): BnActConv2d(
        (bn): BatchNorm2d(128, eps=0.001, momentum=0.1, affine=True, track_running_stats=True)
        (act): ReLU(inplace)
        (conv): Conv2d(128, 128, kernel_size=(3, 3), stride=(1, 1), padding=(1, 1), groups=32, bias=False)
      )
      (c1x1_c): CatBnAct(
        (bn): BatchNorm2d(128, eps=0.001, momentum=0.1, affine=True, track_running_stats=True)
        (act): ReLU(inplace)
      )
      (c1x1_c1): Conv2d(128, 64, kernel_size=(1, 1), stride=(1, 1), bias=False)
      (c1x1_c2): Conv2d(128, 16, kernel_size=(1, 1), stride=(1, 1), bias=False)
    )
    (4): DualPathBlock(
      (c1x1_w_s2): BnActConv2d(
        (bn): BatchNorm2d(144, eps=0.001, momentum=0.1, affine=True, track_running_stats=True)
        (act): ReLU(inplace)
        (conv): Conv2d(144, 192, kernel_size=(1, 1), stride=(2, 2), bias=False)
      )
      (c1x1_a): BnActConv2d(
        (bn): BatchNorm2d(144, eps=0.001, momentum=0.1, affine=True, track_running_stats=True)
        (act): ReLU(inplace)
        (conv): Conv2d(144, 256, kernel_size=(1, 1), stride=(1, 1), bias=False)
      )
      (c3x3_b): BnActConv2d(
        (bn): BatchNorm2d(256, eps=0.001, momentum=0.1, affine=True, track_running_stats=True)
        (act): ReLU(inplace)
        (conv): Conv2d(256, 256, kernel_size=(3, 3), stride=(2, 2), padding=(1, 1), groups=32, bias=False)
      )
      (c1x1_c): CatBnAct(
        (bn): BatchNorm2d(256, eps=0.001, momentum=0.1, affine=True, track_running_stats=True)
        (act): ReLU(inplace)
      )
      (c1x1_c1): Conv2d(256, 128, kernel_size=(1, 1), stride=(1, 1), bias=False)
      (c1x1_c2): Conv2d(256, 32, kernel_size=(1, 1), stride=(1, 1), bias=False)
    )
    (5): DualPathBlock(
      (c1x1_a): BnActConv2d(
        (bn): BatchNorm2d(224, eps=0.001, momentum=0.1, affine=True, track_running_stats=True)
        (act): ReLU(inplace)
        (conv): Conv2d(224, 256, kernel_size=(1, 1), stride=(1, 1), bias=False)
      )
      (c3x3_b): BnActConv2d(
        (bn): BatchNorm2d(256, eps=0.001, momentum=0.1, affine=True, track_running_stats=True)
        (act): ReLU(inplace)
        (conv): Conv2d(256, 256, kernel_size=(3, 3), stride=(1, 1), padding=(1, 1), groups=32, bias=False)
      )
      (c1x1_c): CatBnAct(
        (bn): BatchNorm2d(256, eps=0.001, momentum=0.1, affine=True, track_running_stats=True)
        (act): ReLU(inplace)
      )
      (c1x1_c1): Conv2d(256, 128, kernel_size=(1, 1), stride=(1, 1), bias=False)
      (c1x1_c2): Conv2d(256, 32, kernel_size=(1, 1), stride=(1, 1), bias=False)
    )
    (6): DualPathBlock(
      (c1x1_a): BnActConv2d(
        (bn): BatchNorm2d(256, eps=0.001, momentum=0.1, affine=True, track_running_stats=True)
        (act): ReLU(inplace)
        (conv): Conv2d(256, 256, kernel_size=(1, 1), stride=(1, 1), bias=False)
      )
      (c3x3_b): BnActConv2d(
        (bn): BatchNorm2d(256, eps=0.001, momentum=0.1, affine=True, track_running_stats=True)
        (act): ReLU(inplace)
        (conv): Conv2d(256, 256, kernel_size=(3, 3), stride=(1, 1), padding=(1, 1), groups=32, bias=False)
      )
      (c1x1_c): CatBnAct(
        (bn): BatchNorm2d(256, eps=0.001, momentum=0.1, affine=True, track_running_stats=True)
        (act): ReLU(inplace)
      )
      (c1x1_c1): Conv2d(256, 128, kernel_size=(1, 1), stride=(1, 1), bias=False)
      (c1x1_c2): Conv2d(256, 32, kernel_size=(1, 1), stride=(1, 1), bias=False)
    )
    (7): DualPathBlock(
      (c1x1_a): BnActConv2d(
        (bn): BatchNorm2d(288, eps=0.001, momentum=0.1, affine=True, track_running_stats=True)
        (act): ReLU(inplace)
        (conv): Conv2d(288, 256, kernel_size=(1, 1), stride=(1, 1), bias=False)
      )
      (c3x3_b): BnActConv2d(
        (bn): BatchNorm2d(256, eps=0.001, momentum=0.1, affine=True, track_running_stats=True)
        (act): ReLU(inplace)
        (conv): Conv2d(256, 256, kernel_size=(3, 3), stride=(1, 1), padding=(1, 1), groups=32, bias=False)
      )
      (c1x1_c): CatBnAct(
        (bn): BatchNorm2d(256, eps=0.001, momentum=0.1, affine=True, track_running_stats=True)
        (act): ReLU(inplace)
      )
      (c1x1_c1): Conv2d(256, 128, kernel_size=(1, 1), stride=(1, 1), bias=False)
      (c1x1_c2): Conv2d(256, 32, kernel_size=(1, 1), stride=(1, 1), bias=False)
    )
    (8): DualPathBlock(
      (c1x1_w_s2): BnActConv2d(
        (bn): BatchNorm2d(320, eps=0.001, momentum=0.1, affine=True, track_running_stats=True)
        (act): ReLU(inplace)
        (conv): Conv2d(320, 320, kernel_size=(1, 1), stride=(2, 2), bias=False)
      )
      (c1x1_a): BnActConv2d(
        (bn): BatchNorm2d(320, eps=0.001, momentum=0.1, affine=True, track_running_stats=True)
        (act): ReLU(inplace)
        (conv): Conv2d(320, 512, kernel_size=(1, 1), stride=(1, 1), bias=False)
      )
      (c3x3_b): BnActConv2d(
        (bn): BatchNorm2d(512, eps=0.001, momentum=0.1, affine=True, track_running_stats=True)
        (act): ReLU(inplace)
        (conv): Conv2d(512, 512, kernel_size=(3, 3), stride=(2, 2), padding=(1, 1), groups=32, bias=False)
      )
      (c1x1_c): CatBnAct(
        (bn): BatchNorm2d(512, eps=0.001, momentum=0.1, affine=True, track_running_stats=True)
        (act): ReLU(inplace)
      )
      (c1x1_c1): Conv2d(512, 256, kernel_size=(1, 1), stride=(1, 1), bias=False)
      (c1x1_c2): Conv2d(512, 32, kernel_size=(1, 1), stride=(1, 1), bias=False)
    )
    (9): DualPathBlock(
      (c1x1_a): BnActConv2d(
        (bn): BatchNorm2d(352, eps=0.001, momentum=0.1, affine=True, track_running_stats=True)
        (act): ReLU(inplace)
        (conv): Conv2d(352, 512, kernel_size=(1, 1), stride=(1, 1), bias=False)
      )
      (c3x3_b): BnActConv2d(
        (bn): BatchNorm2d(512, eps=0.001, momentum=0.1, affine=True, track_running_stats=True)
        (act): ReLU(inplace)
        (conv): Conv2d(512, 512, kernel_size=(3, 3), stride=(1, 1), padding=(1, 1), groups=32, bias=False)
      )
      (c1x1_c): CatBnAct(
        (bn): BatchNorm2d(512, eps=0.001, momentum=0.1, affine=True, track_running_stats=True)
        (act): ReLU(inplace)
      )
      (c1x1_c1): Conv2d(512, 256, kernel_size=(1, 1), stride=(1, 1), bias=False)
      (c1x1_c2): Conv2d(512, 32, kernel_size=(1, 1), stride=(1, 1), bias=False)
    )
    (10): DualPathBlock(
      (c1x1_a): BnActConv2d(
        (bn): BatchNorm2d(384, eps=0.001, momentum=0.1, affine=True, track_running_stats=True)
        (act): ReLU(inplace)
        (conv): Conv2d(384, 512, kernel_size=(1, 1), stride=(1, 1), bias=False)
      )
      (c3x3_b): BnActConv2d(
        (bn): BatchNorm2d(512, eps=0.001, momentum=0.1, affine=True, track_running_stats=True)
        (act): ReLU(inplace)
        (conv): Conv2d(512, 512, kernel_size=(3, 3), stride=(1, 1), padding=(1, 1), groups=32, bias=False)
      )
      (c1x1_c): CatBnAct(
        (bn): BatchNorm2d(512, eps=0.001, momentum=0.1, affine=True, track_running_stats=True)
        (act): ReLU(inplace)
      )
      (c1x1_c1): Conv2d(512, 256, kernel_size=(1, 1), stride=(1, 1), bias=False)
      (c1x1_c2): Conv2d(512, 32, kernel_size=(1, 1), stride=(1, 1), bias=False)
    )
    (11): DualPathBlock(
      (c1x1_a): BnActConv2d(
        (bn): BatchNorm2d(416, eps=0.001, momentum=0.1, affine=True, track_running_stats=True)
        (act): ReLU(inplace)
        (conv): Conv2d(416, 512, kernel_size=(1, 1), stride=(1, 1), bias=False)
      )
      (c3x3_b): BnActConv2d(
        (bn): BatchNorm2d(512, eps=0.001, momentum=0.1, affine=True, track_running_stats=True)
        (act): ReLU(inplace)
        (conv): Conv2d(512, 512, kernel_size=(3, 3), stride=(1, 1), padding=(1, 1), groups=32, bias=False)
      )
      (c1x1_c): CatBnAct(
        (bn): BatchNorm2d(512, eps=0.001, momentum=0.1, affine=True, track_running_stats=True)
        (act): ReLU(inplace)
      )
      (c1x1_c1): Conv2d(512, 256, kernel_size=(1, 1), stride=(1, 1), bias=False)
      (c1x1_c2): Conv2d(512, 32, kernel_size=(1, 1), stride=(1, 1), bias=False)
    )
    (12): DualPathBlock(
      (c1x1_a): BnActConv2d(
        (bn): BatchNorm2d(448, eps=0.001, momentum=0.1, affine=True, track_running_stats=True)
        (act): ReLU(inplace)
        (conv): Conv2d(448, 512, kernel_size=(1, 1), stride=(1, 1), bias=False)
      )
      (c3x3_b): BnActConv2d(
        (bn): BatchNorm2d(512, eps=0.001, momentum=0.1, affine=True, track_running_stats=True)
        (act): ReLU(inplace)
        (conv): Conv2d(512, 512, kernel_size=(3, 3), stride=(1, 1), padding=(1, 1), groups=32, bias=False)
      )
      (c1x1_c): CatBnAct(
        (bn): BatchNorm2d(512, eps=0.001, momentum=0.1, affine=True, track_running_stats=True)
        (act): ReLU(inplace)
      )
      (c1x1_c1): Conv2d(512, 256, kernel_size=(1, 1), stride=(1, 1), bias=False)
      (c1x1_c2): Conv2d(512, 32, kernel_size=(1, 1), stride=(1, 1), bias=False)
    )
    (13): DualPathBlock(
      (c1x1_a): BnActConv2d(
        (bn): BatchNorm2d(480, eps=0.001, momentum=0.1, affine=True, track_running_stats=True)
        (act): ReLU(inplace)
        (conv): Conv2d(480, 512, kernel_size=(1, 1), stride=(1, 1), bias=False)
      )
      (c3x3_b): BnActConv2d(
        (bn): BatchNorm2d(512, eps=0.001, momentum=0.1, affine=True, track_running_stats=True)
        (act): ReLU(inplace)
        (conv): Conv2d(512, 512, kernel_size=(3, 3), stride=(1, 1), padding=(1, 1), groups=32, bias=False)
      )
      (c1x1_c): CatBnAct(
        (bn): BatchNorm2d(512, eps=0.001, momentum=0.1, affine=True, track_running_stats=True)
        (act): ReLU(inplace)
      )
      (c1x1_c1): Conv2d(512, 256, kernel_size=(1, 1), stride=(1, 1), bias=False)
      (c1x1_c2): Conv2d(512, 32, kernel_size=(1, 1), stride=(1, 1), bias=False)
    )
    (14): DualPathBlock(
      (c1x1_a): BnActConv2d(
        (bn): BatchNorm2d(512, eps=0.001, momentum=0.1, affine=True, track_running_stats=True)
        (act): ReLU(inplace)
        (conv): Conv2d(512, 512, kernel_size=(1, 1), stride=(1, 1), bias=False)
      )
      (c3x3_b): BnActConv2d(
        (bn): BatchNorm2d(512, eps=0.001, momentum=0.1, affine=True, track_running_stats=True)
        (act): ReLU(inplace)
        (conv): Conv2d(512, 512, kernel_size=(3, 3), stride=(1, 1), padding=(1, 1), groups=32, bias=False)
      )
      (c1x1_c): CatBnAct(
        (bn): BatchNorm2d(512, eps=0.001, momentum=0.1, affine=True, track_running_stats=True)
        (act): ReLU(inplace)
      )
      (c1x1_c1): Conv2d(512, 256, kernel_size=(1, 1), stride=(1, 1), bias=False)
      (c1x1_c2): Conv2d(512, 32, kernel_size=(1, 1), stride=(1, 1), bias=False)
    )
    (15): DualPathBlock(
      (c1x1_a): BnActConv2d(
        (bn): BatchNorm2d(544, eps=0.001, momentum=0.1, affine=True, track_running_stats=True)
        (act): ReLU(inplace)
        (conv): Conv2d(544, 512, kernel_size=(1, 1), stride=(1, 1), bias=False)
      )
      (c3x3_b): BnActConv2d(
        (bn): BatchNorm2d(512, eps=0.001, momentum=0.1, affine=True, track_running_stats=True)
        (act): ReLU(inplace)
        (conv): Conv2d(512, 512, kernel_size=(3, 3), stride=(1, 1), padding=(1, 1), groups=32, bias=False)
      )
      (c1x1_c): CatBnAct(
        (bn): BatchNorm2d(512, eps=0.001, momentum=0.1, affine=True, track_running_stats=True)
        (act): ReLU(inplace)
      )
      (c1x1_c1): Conv2d(512, 256, kernel_size=(1, 1), stride=(1, 1), bias=False)
      (c1x1_c2): Conv2d(512, 32, kernel_size=(1, 1), stride=(1, 1), bias=False)
    )
    (16): DualPathBlock(
      (c1x1_a): BnActConv2d(
        (bn): BatchNorm2d(576, eps=0.001, momentum=0.1, affine=True, track_running_stats=True)
        (act): ReLU(inplace)
        (conv): Conv2d(576, 512, kernel_size=(1, 1), stride=(1, 1), bias=False)
      )
      (c3x3_b): BnActConv2d(
        (bn): BatchNorm2d(512, eps=0.001, momentum=0.1, affine=True, track_running_stats=True)
        (act): ReLU(inplace)
        (conv): Conv2d(512, 512, kernel_size=(3, 3), stride=(1, 1), padding=(1, 1), groups=32, bias=False)
      )
      (c1x1_c): CatBnAct(
        (bn): BatchNorm2d(512, eps=0.001, momentum=0.1, affine=True, track_running_stats=True)
        (act): ReLU(inplace)
      )
      (c1x1_c1): Conv2d(512, 256, kernel_size=(1, 1), stride=(1, 1), bias=False)
      (c1x1_c2): Conv2d(512, 32, kernel_size=(1, 1), stride=(1, 1), bias=False)
    )
    (17): DualPathBlock(
      (c1x1_a): BnActConv2d(
        (bn): BatchNorm2d(608, eps=0.001, momentum=0.1, affine=True, track_running_stats=True)
        (act): ReLU(inplace)
        (conv): Conv2d(608, 512, kernel_size=(1, 1), stride=(1, 1), bias=False)
      )
      (c3x3_b): BnActConv2d(
        (bn): BatchNorm2d(512, eps=0.001, momentum=0.1, affine=True, track_running_stats=True)
        (act): ReLU(inplace)
        (conv): Conv2d(512, 512, kernel_size=(3, 3), stride=(1, 1), padding=(1, 1), groups=32, bias=False)
      )
      (c1x1_c): CatBnAct(
        (bn): BatchNorm2d(512, eps=0.001, momentum=0.1, affine=True, track_running_stats=True)
        (act): ReLU(inplace)
      )
      (c1x1_c1): Conv2d(512, 256, kernel_size=(1, 1), stride=(1, 1), bias=False)
      (c1x1_c2): Conv2d(512, 32, kernel_size=(1, 1), stride=(1, 1), bias=False)
    )
    (18): DualPathBlock(
      (c1x1_a): BnActConv2d(
        (bn): BatchNorm2d(640, eps=0.001, momentum=0.1, affine=True, track_running_stats=True)
        (act): ReLU(inplace)
        (conv): Conv2d(640, 512, kernel_size=(1, 1), stride=(1, 1), bias=False)
      )
      (c3x3_b): BnActConv2d(
        (bn): BatchNorm2d(512, eps=0.001, momentum=0.1, affine=True, track_running_stats=True)
        (act): ReLU(inplace)
        (conv): Conv2d(512, 512, kernel_size=(3, 3), stride=(1, 1), padding=(1, 1), groups=32, bias=False)
      )
      (c1x1_c): CatBnAct(
        (bn): BatchNorm2d(512, eps=0.001, momentum=0.1, affine=True, track_running_stats=True)
        (act): ReLU(inplace)
      )
      (c1x1_c1): Conv2d(512, 256, kernel_size=(1, 1), stride=(1, 1), bias=False)
      (c1x1_c2): Conv2d(512, 32, kernel_size=(1, 1), stride=(1, 1), bias=False)
    )
    (19): DualPathBlock(
      (c1x1_a): BnActConv2d(
        (bn): BatchNorm2d(672, eps=0.001, momentum=0.1, affine=True, track_running_stats=True)
        (act): ReLU(inplace)
        (conv): Conv2d(672, 512, kernel_size=(1, 1), stride=(1, 1), bias=False)
      )
      (c3x3_b): BnActConv2d(
        (bn): BatchNorm2d(512, eps=0.001, momentum=0.1, affine=True, track_running_stats=True)
        (act): ReLU(inplace)
        (conv): Conv2d(512, 512, kernel_size=(3, 3), stride=(1, 1), padding=(1, 1), groups=32, bias=False)
      )
      (c1x1_c): CatBnAct(
        (bn): BatchNorm2d(512, eps=0.001, momentum=0.1, affine=True, track_running_stats=True)
        (act): ReLU(inplace)
      )
      (c1x1_c1): Conv2d(512, 256, kernel_size=(1, 1), stride=(1, 1), bias=False)
      (c1x1_c2): Conv2d(512, 32, kernel_size=(1, 1), stride=(1, 1), bias=False)
    )
    (20): DualPathBlock(
      (c1x1_w_s2): BnActConv2d(
        (bn): BatchNorm2d(704, eps=0.001, momentum=0.1, affine=True, track_running_stats=True)
        (act): ReLU(inplace)
        (conv): Conv2d(704, 640, kernel_size=(1, 1), stride=(2, 2), bias=False)
      )
      (c1x1_a): BnActConv2d(
        (bn): BatchNorm2d(704, eps=0.001, momentum=0.1, affine=True, track_running_stats=True)
        (act): ReLU(inplace)
        (conv): Conv2d(704, 1024, kernel_size=(1, 1), stride=(1, 1), bias=False)
      )
      (c3x3_b): BnActConv2d(
        (bn): BatchNorm2d(1024, eps=0.001, momentum=0.1, affine=True, track_running_stats=True)
        (act): ReLU(inplace)
        (conv): Conv2d(1024, 1024, kernel_size=(3, 3), stride=(2, 2), padding=(1, 1), groups=32, bias=False)
      )
      (c1x1_c): CatBnAct(
        (bn): BatchNorm2d(1024, eps=0.001, momentum=0.1, affine=True, track_running_stats=True)
        (act): ReLU(inplace)
      )
      (c1x1_c1): Conv2d(1024, 512, kernel_size=(1, 1), stride=(1, 1), bias=False)
      (c1x1_c2): Conv2d(1024, 64, kernel_size=(1, 1), stride=(1, 1), bias=False)
    )
    (21): DualPathBlock(
      (c1x1_a): BnActConv2d(
        (bn): BatchNorm2d(704, eps=0.001, momentum=0.1, affine=True, track_running_stats=True)
        (act): ReLU(inplace)
        (conv): Conv2d(704, 1024, kernel_size=(1, 1), stride=(1, 1), bias=False)
      )
      (c3x3_b): BnActConv2d(
        (bn): BatchNorm2d(1024, eps=0.001, momentum=0.1, affine=True, track_running_stats=True)
        (act): ReLU(inplace)
        (conv): Conv2d(1024, 1024, kernel_size=(3, 3), stride=(1, 1), padding=(1, 1), groups=32, bias=False)
      )
      (c1x1_c): CatBnAct(
        (bn): BatchNorm2d(1024, eps=0.001, momentum=0.1, affine=True, track_running_stats=True)
        (act): ReLU(inplace)
      )
      (c1x1_c1): Conv2d(1024, 512, kernel_size=(1, 1), stride=(1, 1), bias=False)
      (c1x1_c2): Conv2d(1024, 64, kernel_size=(1, 1), stride=(1, 1), bias=False)
    )
    (22): DualPathBlock(
      (c1x1_a): BnActConv2d(
        (bn): BatchNorm2d(768, eps=0.001, momentum=0.1, affine=True, track_running_stats=True)
        (act): ReLU(inplace)
        (conv): Conv2d(768, 1024, kernel_size=(1, 1), stride=(1, 1), bias=False)
      )
      (c3x3_b): BnActConv2d(
        (bn): BatchNorm2d(1024, eps=0.001, momentum=0.1, affine=True, track_running_stats=True)
        (act): ReLU(inplace)
        (conv): Conv2d(1024, 1024, kernel_size=(3, 3), stride=(1, 1), padding=(1, 1), groups=32, bias=False)
      )
      (c1x1_c): CatBnAct(
        (bn): BatchNorm2d(1024, eps=0.001, momentum=0.1, affine=True, track_running_stats=True)
        (act): ReLU(inplace)
      )
      (c1x1_c1): Conv2d(1024, 512, kernel_size=(1, 1), stride=(1, 1), bias=False)
      (c1x1_c2): Conv2d(1024, 64, kernel_size=(1, 1), stride=(1, 1), bias=False)
    )
    (23): CatBnAct(
      (bn): BatchNorm2d(832, eps=0.001, momentum=0.1, affine=True, track_running_stats=True)
      (act): ReLU(inplace)
    )
  )
  (classifier): Conv2d(832, 1000, kernel_size=(1, 1), stride=(1, 1))
)[0m
2020-07-09 17:33:28,411 [32mINFO[0m: loss
CrossEntropyLoss()[0m
2020-07-09 17:33:28,413 [32mINFO[0m: optimizer
SGD (
Parameter Group 0
    dampening: 0
    hold_grads: False
    lr: 0.1
    momentum: 0.9
    nesterov: False
    weight_decay: 0.0001
)[0m
2020-07-09 17:33:29,572 [32mINFO[0m: ==> begin trace[0m
2020-07-09 17:33:37,736 [32mINFO[0m: ==> tr_data dumped[0m
…
