…
        "lr": 0.1,
        "momentum": 0.9,
        "weight_decay": 0.0001
      }
    },
    "lr_scheduler": {
      "warmup_epochs": 0,
      "type": "MultiStepLR",
      "kwargs": {
        "milestones": [
          30,
          60,
          90
        ],
        "gamma": 0.1
      }
    }
  },
  "saver": {
    "pretrian_model": null,
    "resume_model": null,
    "save_dir": "checkpoints/dpn92"
  }
}[0m
2020-07-09 17:49:41,815 [32mINFO[0m: creating model 'dpn107'[0m
2020-07-09 17:49:42,618 [32mINFO[0m: model
DistributedParrotsModel
DPN(
  (features): Sequential(
    (0): InputBlock(
      (conv): Conv2d(3, 128, kernel_size=(7, 7), stride=(2, 2), padding=(3, 3), bias=False)
      (bn): BatchNorm2d(128, eps=0.001, momentum=0.1, affine=True, track_running_stats=True)
      (act): ReLU(inplace)
      (pool): MaxPool2d(kernel_size=3, stride=2, padding=1, dilation=1, ceil_mode=False)
    )
    (1): DualPathBlock(
      (c1x1_w_s1): BnActConv2d(
        (bn): BatchNorm2d(128, eps=0.001, momentum=0.1, affine=True, track_running_stats=True)
        (act): ReLU(inplace)
        (conv): Conv2d(128, 296, kernel_size=(1, 1), stride=(1, 1), bias=False)
      )
      (c1x1_a): BnActConv2d(
        (bn): BatchNorm2d(128, eps=0.001, momentum=0.1, affine=True, track_running_stats=True)
        (act): ReLU(inplace)
        (conv): Conv2d(128, 200, kernel_size=(1, 1), stride=(1, 1), bias=False)
      )
      (c3x3_b): BnActConv2d(
        (bn): BatchNorm2d(200, eps=0.001, momentum=0.1, affine=True, track_running_stats=True)
        (act): ReLU(inplace)
        (conv): Conv2d(200, 200, kernel_size=(3, 3), stride=(1, 1), padding=(1, 1), groups=50, bias=False)
      )
      (c1x1_c): BnActConv2d(
        (bn): BatchNorm2d(200, eps=0.001, momentum=0.1, affine=True, track_running_stats=True)
        (act): ReLU(inplace)
        (conv): Conv2d(200, 276, kernel_size=(1, 1), stride=(1, 1), bias=False)
      )
    )
    (2): DualPathBlock(
      (c1x1_a): BnActConv2d(
        (bn): BatchNorm2d(316, eps=0.001, momentum=0.1, affine=True, track_running_stats=True)
        (act): ReLU(inplace)
        (conv): Conv2d(316, 200, kernel_size=(1, 1), stride=(1, 1), bias=False)
      )
      (c3x3_b): BnActConv2d(
        (bn): BatchNorm2d(200, eps=0.001, momentum=0.1, affine=True, track_running_stats=True)
        (act): ReLU(inplace)
        (conv): Conv2d(200, 200, kernel_size=(3, 3), stride=(1, 1), padding=(1, 1), groups=50, bias=False)
      )
      (c1x1_c): BnActConv2d(
        (bn): BatchNorm2d(200, eps=0.001, momentum=0.1, affine=True, track_running_stats=True)
        (act): ReLU(inplace)
        (conv): Conv2d(200, 276, kernel_size=(1, 1), stride=(1, 1), bias=False)
      )
    )
    (3): DualPathBlock(
      (c1x1_a): BnActConv2d(
        (bn): BatchNorm2d(336, eps=0.001, momentum=0.1, affine=True, track_running_stats=True)
        (act): ReLU(inplace)
        (conv): Conv2d(336, 200, kernel_size=(1, 1), stride=(1, 1), bias=False)
      )
      (c3x3_b): BnActConv2d(
        (bn): BatchNorm2d(200, eps=0.001, momentum=0.1, affine=True, track_running_stats=True)
        (act): ReLU(inplace)
        (conv): Conv2d(200, 200, kernel_size=(3, 3), stride=(1, 1), padding=(1, 1), groups=50, bias=False)
      )
      (c1x1_c): BnActConv2d(
        (bn): BatchNorm2d(200, eps=0.001, momentum=0.1, affine=True, track_running_stats=True)
        (act): ReLU(inplace)
        (conv): Conv2d(200, 276, kernel_size=(1, 1), stride=(1, 1), bias=False)
      )
    )
    (4): DualPathBlock(
      (c1x1_a): BnActConv2d(
        (bn): BatchNorm2d(356, eps=0.001, momentum=0.1, affine=True, track_running_stats=True)
        (act): ReLU(inplace)
        (conv): Conv2d(356, 200, kernel_size=(1, 1), stride=(1, 1), bias=False)
      )
      (c3x3_b): BnActConv2d(
        (bn): BatchNorm2d(200, eps=0.001, momentum=0.1, affine=True, track_running_stats=True)
        (act): ReLU(inplace)
        (conv): Conv2d(200, 200, kernel_size=(3, 3), stride=(1, 1), padding=(1, 1), groups=50, bias=False)
      )
      (c1x1_c): BnActConv2d(
        (bn): BatchNorm2d(200, eps=0.001, momentum=0.1, affine=True, track_running_stats=True)
        (act): ReLU(inplace)
        (conv): Conv2d(200, 276, kernel_size=(1, 1), stride=(1, 1), bias=False)
      )
    )
    (5): DualPathBlock(
      (c1x1_w_s2): BnActConv2d(
        (bn): BatchNorm2d(376, eps=0.001, momentum=0.1, affine=True, track_running_stats=True)
        (act): ReLU(inplace)
        (conv): Conv2d(376, 640, kernel_size=(1, 1), stride=(2, 2), bias=False)
      )
      (c1x1_a): BnActConv2d(
        (bn): BatchNorm2d(376, eps=0.001, momentum=0.1, affine=True, track_running_stats=True)
        (act): ReLU(inplace)
        (conv): Conv2d(376, 400, kernel_size=(1, 1), stride=(1, 1), bias=False)
      )
      (c3x3_b): BnActConv2d(
        (bn): BatchNorm2d(400, eps=0.001, momentum=0.1, affine=True, track_running_stats=True)
        (act): ReLU(inplace)
        (conv): Conv2d(400, 400, kernel_size=(3, 3), stride=(2, 2), padding=(1, 1), groups=50, bias=False)
      )
      (c1x1_c): BnActConv2d(
        (bn): BatchNorm2d(400, eps=0.001, momentum=0.1, affine=True, track_running_stats=True)
        (act): ReLU(inplace)
        (conv): Conv2d(400, 576, kernel_size=(1, 1), stride=(1, 1), bias=False)
      )
    )
    (6): DualPathBlock(
      (c1x1_a): BnActConv2d(
        (bn): BatchNorm2d(704, eps=0.001, momentum=0.1, affine=True, track_running_stats=True)
        (act): ReLU(inplace)
        (conv): Conv2d(704, 400, kernel_size=(1, 1), stride=(1, 1), bias=False)
      )
      (c3x3_b): BnActConv2d(
        (bn): BatchNorm2d(400, eps=0.001, momentum=0.1, affine=True, track_running_stats=True)
        (act): ReLU(inplace)
        (conv): Conv2d(400, 400, kernel_size=(3, 3), stride=(1, 1), padding=(1, 1), groups=50, bias=False)
      )
      (c1x1_c): BnActConv2d(
        (bn): BatchNorm2d(400, eps=0.001, momentum=0.1, affine=True, track_running_stats=True)
        (act): ReLU(inplace)
        (conv): Conv2d(400, 576, kernel_size=(1, 1), stride=(1, 1), bias=False)
      )
    )
    (7): DualPathBlock(
      (c1x1_a): BnActConv2d(
        (bn): BatchNorm2d(768, eps=0.001, momentum=0.1, affine=True, track_running_stats=True)
        (act): ReLU(inplace)
        (conv): Conv2d(768, 400, kernel_size=(1, 1), stride=(1, 1), bias=False)
      )
      (c3x3_b): BnActConv2d(
        (bn): BatchNorm2d(400, eps=0.001, momentum=0.1, affine=True, track_running_stats=True)
        (act): ReLU(inplace)
        (conv): Conv2d(400, 400, kernel_size=(3, 3), stride=(1, 1), padding=(1, 1), groups=50, bias=False)
      )
      (c1x1_c): BnActConv2d(
        (bn): BatchNorm2d(400, eps=0.001, momentum=0.1, affine=True, track_running_stats=True)
        (act): ReLU(inplace)
        (conv): Conv2d(400, 576, kernel_size=(1, 1), stride=(1, 1), bias=False)
      )
    )
    (8): DualPathBlock(
      (c1x1_a): BnActConv2d(
        (bn): BatchNorm2d(832, eps=0.001, momentum=0.1, affine=True, track_running_stats=True)
        (act): ReLU(inplace)
        (conv): Conv2d(832, 400, kernel_size=(1, 1), stride=(1, 1), bias=False)
      )
      (c3x3_b): BnActConv2d(
        (bn): BatchNorm2d(400, eps=0.001, momentum=0.1, affine=True, track_running_stats=True)
        (act): ReLU(inplace)
        (conv): Conv2d(400, 400, kernel_size=(3, 3), stride=(1, 1), padding=(1, 1), groups=50, bias=False)
      )
      (c1x1_c): BnActConv2d(
        (bn): BatchNorm2d(400, eps=0.001, momentum=0.1, affine=True, track_running_stats=True)
        (act): ReLU(inplace)
        (conv): Conv2d(400, 576, kernel_size=(1, 1), stride=(1, 1), bias=False)
      )
    )
    (9): DualPathBlock(
      (c1x1_a): BnActConv2d(
        (bn): BatchNorm2d(896, eps=0.001, momentum=0.1, affine=True, track_running_stats=True)
        (act): ReLU(inplace)
        (conv): Conv2d(896, 400, kernel_size=(1, 1), stride=(1, 1), bias=False)
      )
      (c3x3_b): BnActConv2d(
        (bn): BatchNorm2d(400, eps=0.001, momentum=0.1, affine=True, track_running_stats=True)
        (act): ReLU(inplace)
        (conv): Conv2d(400, 400, kernel_size=(3, 3), stride=(1, 1), padding=(1, 1), groups=50, bias=False)
      )
      (c1x1_c): BnActConv2d(
        (bn): BatchNorm2d(400, eps=0.001, momentum=0.1, affine=True, track_running_stats=True)
        (act): ReLU(inplace)
        (conv): Conv2d(400, 576, kernel_size=(1, 1), stride=(1, 1), bias=False)
      )
    )
    (10): DualPathBlock(
      (c1x1_a): BnActConv2d(
        (bn): BatchNorm2d(960, eps=0.001, momentum=0.1, affine=True, track_running_stats=True)
        (act): ReLU(inplace)
        (conv): Conv2d(960, 400, kernel_size=(1, 1), stride=(1, 1), bias=False)
      )
      (c3x3_b): BnActConv2d(
        (bn): BatchNorm2d(400, eps=0.001, momentum=0.1, affine=True, track_running_stats=True)
        (act): ReLU(inplace)
        (conv): Conv2d(400, 400, kernel_size=(3, 3), stride=(1, 1), padding=(1, 1), groups=50, bias=False)
      )
      (c1x1_c): BnActConv2d(
        (bn): BatchNorm2d(400, eps=0.001, momentum=0.1, affine=True, track_running_stats=True)
        (act): ReLU(inplace)
        (conv): Conv2d(400, 576, kernel_size=(1, 1), stride=(1, 1), bias=False)
      )
    )
    (11): DualPathBlock(
      (c1x1_a): BnActConv2d(
        (bn): BatchNorm2d(1024, eps=0.001, momentum=0.1, affine=True, track_running_stats=True)
        (act): ReLU(inplace)
        (conv): Conv2d(1024, 400, kernel_size=(1, 1), stride=(1, 1), bias=False)
      )
      (c3x3_b): BnActConv2d(
        (bn): BatchNorm2d(400, eps=0.001, momentum=0.1, affine=True, track_running_stats=True)
        (act): ReLU(inplace)
        (conv): Conv2d(400, 400, kernel_size=(3, 3), stride=(1, 1), padding=(1, 1), groups=50, bias=False)
      )
      (c1x1_c): BnActConv2d(
        (bn): BatchNorm2d(400, eps=0.001, momentum=0.1, affine=True, track_running_stats=True)
        (act): ReLU(inplace)
        (conv): Conv2d(400, 576, kernel_size=(1, 1), stride=(1, 1), bias=False)
      )
    )
    (12): DualPathBlock(
      (c1x1_a): BnActConv2d(
        (bn): BatchNorm2d(1088, eps=0.001, momentum=0.1, affine=True, track_running_stats=True)
        (act): ReLU(inplace)
        (conv): Conv2d(1088, 400, kernel_size=(1, 1), stride=(1, 1), bias=False)
      )
      (c3x3_b): BnActConv2d(
        (bn): BatchNorm2d(400, eps=0.001, momentum=0.1, affine=True, track_running_stats=True)
        (act): ReLU(inplace)
        (conv): Conv2d(400, 400, kernel_size=(3, 3), stride=(1, 1), padding=(1, 1), groups=50, bias=False)
      )
      (c1x1_c): BnActConv2d(
        (bn): BatchNorm2d(400, eps=0.001, momentum=0.1, affine=True, track_running_stats=True)
        (act): ReLU(inplace)
        (conv): Conv2d(400, 576, kernel_size=(1, 1), stride=(1, 1), bias=False)
      )
    )
    (13): DualPathBlock(
      (c1x1_w_s2): BnActConv2d(
        (bn): BatchNorm2d(1152, eps=0.001, momentum=0.1, affine=True, track_running_stats=True)
        (act): ReLU(inplace)
        (conv): Conv2d(1152, 1152, kernel_size=(1, 1), stride=(2, 2), bias=False)
      )
      (c1x1_a): BnActConv2d(
        (bn): BatchNorm2d(1152, eps=0.001, momentum=0.1, affine=True, track_running_stats=True)
        (act): ReLU(inplace)
        (conv): Conv2d(1152, 800, kernel_size=(1, 1), stride=(1, 1), bias=False)
      )
      (c3x3_b): BnActConv2d(
        (bn): BatchNorm2d(800, eps=0.001, momentum=0.1, affine=True, track_running_stats=True)
        (act): ReLU(inplace)
        (conv): Conv2d(800, 800, kernel_size=(3, 3), stride=(2, 2), padding=(1, 1), groups=50, bias=False)
      )
      (c1x1_c): BnActConv2d(
        (bn): BatchNorm2d(800, eps=0.001, momentum=0.1, affine=True, track_running_stats=True)
        (act): ReLU(inplace)
        (conv): Conv2d(800, 1088, kernel_size=(1, 1), stride=(1, 1), bias=False)
      )
    )
    (14): DualPathBlock(
      (c1x1_a): BnActConv2d(
        (bn): BatchNorm2d(1216, eps=0.001, momentum=0.1, affine=True, track_running_stats=True)
        (act): ReLU(inplace)
        (conv): Conv2d(1216, 800, kernel_size=(1, 1), stride=(1, 1), bias=False)
      )
      (c3x3_b): BnActConv2d(
        (bn): BatchNorm2d(800, eps=0.001, momentum=0.1, affine=True, track_running_stats=True)
        (act): ReLU(inplace)
        (conv): Conv2d(800, 800, kernel_size=(3, 3), stride=(1, 1), padding=(1, 1), groups=50, bias=False)
      )
      (c1x1_c): BnActConv2d(
        (bn): BatchNorm2d(800, eps=0.001, momentum=0.1, affine=True, track_running_stats=True)
        (act): ReLU(inplace)
        (conv): Conv2d(800, 1088, kernel_size=(1, 1), stride=(1, 1), bias=False)
      )
    )
    (15): DualPathBlock(
      (c1x1_a): BnActConv2d(
        (bn): BatchNorm2d(1280, eps=0.001, momentum=0.1, affine=True, track_running_stats=True)
        (act): ReLU(inplace)
        (conv): Conv2d(1280, 800, kernel_size=(1, 1), stride=(1, 1), bias=False)
      )
      (c3x3_b): BnActConv2d(
        (bn): BatchNorm2d(800, eps=0.001, momentum=0.1, affine=True, track_running_stats=True)
        (act): ReLU(inplace)
        (conv): Conv2d(800, 800, kernel_size=(3, 3), stride=(1, 1), padding=(1, 1), groups=50, bias=False)
      )
      (c1x1_c): BnActConv2d(
        (bn): BatchNorm2d(800, eps=0.001, momentum=0.1, affine=True, track_running_stats=True)
        (act): ReLU(inplace)
        (conv): Conv2d(800, 1088, kernel_size=(1, 1), stride=(1, 1), bias=False)
      )
    )
    (16): DualPathBlock(
      (c1x1_a): BnActConv2d(
        (bn): BatchNorm2d(1344, eps=0.001, momentum=0.1, affine=True, track_running_stats=True)
        (act): ReLU(inplace)
        (conv): Conv2d(1344, 800, kernel_size=(1, 1), stride=(1, 1), bias=False)
      )
      (c3x3_b): BnActConv2d(
        (bn): BatchNorm2d(800, eps=0.001, momentum=0.1, affine=True, track_running_stats=True)
        (act): ReLU(inplace)
        (conv): Conv2d(800, 800, kernel_size=(3, 3), stride=(1, 1), padding=(1, 1), groups=50, bias=False)
      )
      (c1x1_c): BnActConv2d(
        (bn): BatchNorm2d(800, eps=0.001, momentum=0.1, affine=True, track_running_stats=True)
        (act): ReLU(inplace)
        (conv): Conv2d(800, 1088, kernel_size=(1, 1), stride=(1, 1), bias=False)
      )
    )
    (17): DualPathBlock(
      (c1x1_a): BnActConv2d(
        (bn): BatchNorm2d(1408, eps=0.001, momentum=0.1, affine=True, track_running_stats=True)
        (act): ReLU(inplace)
        (conv): Conv2d(1408, 800, kernel_size=(1, 1), stride=(1, 1), bias=False)
      )
      (c3x3_b): BnActConv2d(
        (bn): BatchNorm2d(800, eps=0.001, momentum=0.1, affine=True, track_running_stats=True)
        (act): ReLU(inplace)
        (conv): Conv2d(800, 800, kernel_size=(3, 3), stride=(1, 1), padding=(1, 1), groups=50, bias=False)
      )
      (c1x1_c): BnActConv2d(
        (bn): BatchNorm2d(800, eps=0.001, momentum=0.1, affine=True, track_running_stats=True)
        (act): ReLU(inplace)
        (conv): Conv2d(800, 1088, kernel_size=(1, 1), stride=(1, 1), bias=False)
      )
    )
    (18): DualPathBlock(
      (c1x1_a): BnActConv2d(
        (bn): BatchNorm2d(1472, eps=0.001, momentum=0.1, affine=True, track_running_stats=True)
        (act): ReLU(inplace)
        (conv): Conv2d(1472, 800, kernel_size=(1, 1), stride=(1, 1), bias=False)
      )
      (c3x3_b): BnActConv2d(
        (bn): BatchNorm2d(800, eps=0.001, momentum=0.1, affine=True, track_running_stats=True)
        (act): ReLU(inplace)
        (conv): Conv2d(800, 800, kernel_size=(3, 3), stride=(1, 1), padding=(1, 1), groups=50, bias=False)
      )
      (c1x1_c): BnActConv2d(
        (bn): BatchNorm2d(800, eps=0.001, momentum=0.1, affine=True, track_running_stats=True)
        (act): ReLU(inplace)
        (conv): Conv2d(800, 1088, kernel_size=(1, 1), stride=(1, 1), bias=False)
      )
    )
    (19): DualPathBlock(
      (c1x1_a): BnActConv2d(
        (bn): BatchNorm2d(1536, eps=0.001, momentum=0.1, affine=True, track_running_stats=True)
        (act): ReLU(inplace)
        (conv): Conv2d(1536, 800, kernel_size=(1, 1), stride=(1, 1), bias=False)
      )
      (c3x3_b): BnActConv2d(
        (bn): BatchNorm2d(800, eps=0.001, momentum=0.1, affine=True, track_running_stats=True)
        (act): ReLU(inplace)
        (conv): Conv2d(800, 800, kernel_size=(3, 3), stride=(1, 1), padding=(1, 1), groups=50, bias=False)
      )
      (c1x1_c): BnActConv2d(
        (bn): BatchNorm2d(800, eps=0.001, momentum=0.1, affine=True, track_running_stats=True)
        (act): ReLU(inplace)
        (conv): Conv2d(800, 1088, kernel_size=(1, 1), stride=(1, 1), bias=False)
      )
    )
    (20): DualPathBlock(
      (c1x1_a): BnActConv2d(
        (bn): BatchNorm2d(1600, eps=0.001, momentum=0.1, affine=True, track_running_stats=True)
        (act): ReLU(inplace)
        (conv): Conv2d(1600, 800, kernel_size=(1, 1), stride=(1, 1), bias=False)
      )
      (c3x3_b): BnActConv2d(
        (bn): BatchNorm2d(800, eps=0.001, momentum=0.1, affine=True, track_running_stats=True)
        (act): ReLU(inplace)
        (conv): Conv2d(800, 800, kernel_size=(3, 3), stride=(1, 1), padding=(1, 1), groups=50, bias=False)
      )
      (c1x1_c): BnActConv2d(
        (bn): BatchNorm2d(800, eps=0.001, momentum=0.1, affine=True, track_running_stats=True)
        (act): ReLU(inplace)
        (conv): Conv2d(800, 1088, kernel_size=(1, 1), stride=(1, 1), bias=False)
      )
    )
    (21): DualPathBlock(
      (c1x1_a): BnActConv2d(
        (bn): BatchNorm2d(1664, eps=0.001, momentum=0.1, affine=True, track_running_stats=True)
        (act): ReLU(inplace)
        (conv): Conv2d(1664, 800, kernel_size=(1, 1), stride=(1, 1), bias=False)
      )
      (c3x3_b): BnActConv2d(
        (bn): BatchNorm2d(800, eps=0.001, momentum=0.1, affine=True, track_running_stats=True)
        (act): ReLU(inplace)
        (conv): Conv2d(800, 800, kernel_size=(3, 3), stride=(1, 1), padding=(1, 1), groups=50, bias=False)
      )
      (c1x1_c): BnActConv2d(
        (bn): BatchNorm2d(800, eps=0.001, momentum=0.1, affine=True, track_running_stats=True)
        (act): ReLU(inplace)
        (conv): Conv2d(800, 1088, kernel_size=(1, 1), stride=(1, 1), bias=False)
      )
    )
    (22): DualPathBlock(
      (c1x1_a): BnActConv2d(
        (bn): BatchNorm2d(1728, eps=0.001, momentum=0.1, affine=True, track_running_stats=True)
        (act): ReLU(inplace)
        (conv): Conv2d(1728, 800, kernel_size=(1, 1), stride=(1, 1), bias=False)
      )
      (c3x3_b): BnActConv2d(
        (bn): BatchNorm2d(800, eps=0.001, momentum=0.1, affine=True, track_running_stats=True)
        (act): ReLU(inplace)
        (conv): Conv2d(800, 800, kernel_size=(3, 3), stride=(1, 1), padding=(1, 1), groups=50, bias=False)
      )
      (c1x1_c): BnActConv2d(
        (bn): BatchNorm2d(800, eps=0.001, momentum=0.1, affine=True, track_running_stats=True)
        (act): ReLU(inplace)
        (conv): Conv2d(800, 1088, kernel_size=(1, 1), stride=(1, 1), bias=False)
      )
    )
    (23): DualPathBlock(
      (c1x1_a): BnActConv2d(
        (bn): BatchNorm2d(1792, eps=0.001, momentum=0.1, affine=True, track_running_stats=True)
        (act): ReLU(inplace)
        (conv): Conv2d(1792, 800, kernel_size=(1, 1), stride=(1, 1), bias=False)
      )
      (c3x3_b): BnActConv2d(
        (bn): BatchNorm2d(800, eps=0.001, momentum=0.1, affine=True, track_running_stats=True)
        (act): ReLU(inplace)
        (conv): Conv2d(800, 800, kernel_size=(3, 3), stride=(1, 1), padding=(1, 1), groups=50, bias=False)
      )
      (c1x1_c): BnActConv2d(
        (bn): BatchNorm2d(800, eps=0.001, momentum=0.1, affine=True, track_running_stats=True)
        (act): ReLU(inplace)
        (conv): Conv2d(800, 1088, kernel_size=(1, 1), stride=(1, 1), bias=False)
      )
    )
    (24): DualPathBlock(
      (c1x1_a): BnActConv2d(
        (bn): BatchNorm2d(1856, eps=0.001, momentum=0.1, affine=True, track_running_stats=True)
        (act): ReLU(inplace)
        (conv): Conv2d(1856, 800, kernel_size=(1, 1), stride=(1, 1), bias=False)
      )
      (c3x3_b): BnActConv2d(
        (bn): BatchNorm2d(800, eps=0.001, momentum=0.1, affine=True, track_running_stats=True)
        (act): ReLU(inplace)
        (conv): Conv2d(800, 800, kernel_size=(3, 3), stride=(1, 1), padding=(1, 1), groups=50, bias=False)
      )
      (c1x1_c): BnActConv2d(
        (bn): BatchNorm2d(800, eps=0.001, momentum=0.1, affine=True, track_running_stats=True)
        (act): ReLU(inplace)
        (conv): Conv2d(800, 1088, kernel_size=(1, 1), stride=(1, 1), bias=False)
      )
    )
    (25): DualPathBlock(
      (c1x1_a): BnActConv2d(
        (bn): BatchNorm2d(1920, eps=0.001, momentum=0.1, affine=True, track_running_stats=True)
        (act): ReLU(inplace)
        (conv): Conv2d(1920, 800, kernel_size=(1, 1), stride=(1, 1), bias=False)
      )
      (c3x3_b): BnActConv2d(
        (bn): BatchNorm2d(800, eps=0.001, momentum=0.1, affine=True, track_running_stats=True)
        (act): ReLU(inplace)
        (conv): Conv2d(800, 800, kernel_size=(3, 3), stride=(1, 1), padding=(1, 1), groups=50, bias=False)
      )
      (c1x1_c): BnActConv2d(
        (bn): BatchNorm2d(800, eps=0.001, momentum=0.1, affine=True, track_running_stats=True)
        (act): ReLU(inplace)
        (conv): Conv2d(800, 1088, kernel_size=(1, 1), stride=(1, 1), bias=False)
      )
    )
    (26): DualPathBlock(
      (c1x1_a): BnActConv2d(
        (bn): BatchNorm2d(1984, eps=0.001, momentum=0.1, affine=True, track_running_stats=True)
        (act): ReLU(inplace)
        (conv): Conv2d(1984, 800, kernel_size=(1, 1), stride=(1, 1), bias=False)
      )
      (c3x3_b): BnActConv2d(
        (bn): BatchNorm2d(800, eps=0.001, momentum=0.1, affine=True, track_running_stats=True)
        (act): ReLU(inplace)
        (conv): Conv2d(800, 800, kernel_size=(3, 3), stride=(1, 1), padding=(1, 1), groups=50, bias=False)
      )
      (c1x1_c): BnActConv2d(
        (bn): BatchNorm2d(800, eps=0.001, momentum=0.1, affine=True, track_running_stats=True)
        (act): ReLU(inplace)
        (conv): Conv2d(800, 1088, kernel_size=(1, 1), stride=(1, 1), bias=False)
      )
    )
    (27): DualPathBlock(
      (c1x1_a): BnActConv2d(
        (bn): BatchNorm2d(2048, eps=0.001, momentum=0.1, affine=True, track_running_stats=True)
        (act): ReLU(inplace)
        (conv): Conv2d(2048, 800, kernel_size=(1, 1), stride=(1, 1), bias=False)
      )
      (c3x3_b): BnActConv2d(
        (bn): BatchNorm2d(800, eps=0.001, momentum=0.1, affine=True, track_running_stats=True)
        (act): ReLU(inplace)
        (conv): Conv2d(800, 800, kernel_size=(3, 3), stride=(1, 1), padding=(1, 1), groups=50, bias=False)
      )
      (c1x1_c): BnActConv2d(
        (bn): BatchNorm2d(800, eps=0.001, momentum=0.1, affine=True, track_running_stats=True)
        (act): ReLU(inplace)
        (conv): Conv2d(800, 1088, kernel_size=(1, 1), stride=(1, 1), bias=False)
      )
    )
    (28): DualPathBlock(
      (c1x1_a): BnActConv2d(
        (bn): BatchNorm2d(2112, eps=0.001, momentum=0.1, affine=True, track_running_stats=True)
        (act): ReLU(inplace)
        (conv): Conv2d(2112, 800, kernel_size=(1, 1), stride=(1, 1), bias=False)
      )
      (c3x3_b): BnActConv2d(
        (bn): BatchNorm2d(800, eps=0.001, momentum=0.1, affine=True, track_running_stats=True)
        (act): ReLU(inplace)
        (conv): Conv2d(800, 800, kernel_size=(3, 3), stride=(1, 1), padding=(1, 1), groups=50, bias=False)
      )
      (c1x1_c): BnActConv2d(
        (bn): BatchNorm2d(800, eps=0.001, momentum=0.1, affine=True, track_running_stats=True)
        (act): ReLU(inplace)
        (conv): Conv2d(800, 1088, kernel_size=(1, 1), stride=(1, 1), bias=False)
      )
    )
    (29): DualPathBlock(
      (c1x1_a): BnActConv2d(
        (bn): BatchNorm2d(2176, eps=0.001, momentum=0.1, affine=True, track_running_stats=True)
        (act): ReLU(inplace)
        (conv): Conv2d(2176, 800, kernel_size=(1, 1), stride=(1, 1), bias=False)
      )
      (c3x3_b): BnActConv2d(
        (bn): BatchNorm2d(800, eps=0.001, momentum=0.1, affine=True, track_running_stats=True)
        (act): ReLU(inplace)
        (conv): Conv2d(800, 800, kernel_size=(3, 3), stride=(1, 1), padding=(1, 1), groups=50, bias=False)
      )
      (c1x1_c): BnActConv2d(
        (bn): BatchNorm2d(800, eps=0.001, momentum=0.1, affine=True, track_running_stats=True)
        (act): ReLU(inplace)
        (conv): Conv2d(800, 1088, kernel_size=(1, 1), stride=(1, 1), bias=False)
      )
    )
    (30): DualPathBlock(
      (c1x1_a): BnActConv2d(
        (bn): BatchNorm2d(2240, eps=0.001, momentum=0.1, affine=True, track_running_stats=True)
        (act): ReLU(inplace)
        (conv): Conv2d(2240, 800, kernel_size=(1, 1), stride=(1, 1), bias=False)
      )
      (c3x3_b): BnActConv2d(
        (bn): BatchNorm2d(800, eps=0.001, momentum=0.1, affine=True, track_running_stats=True)
        (act): ReLU(inplace)
        (conv): Conv2d(800, 800, kernel_size=(3, 3), stride=(1, 1), padding=(1, 1), groups=50, bias=False)
      )
      (c1x1_c): BnActConv2d(
        (bn): BatchNorm2d(800, eps=0.001, momentum=0.1, affine=True, track_running_stats=True)
        (act): ReLU(inplace)
        (conv): Conv2d(800, 1088, kernel_size=(1, 1), stride=(1, 1), bias=False)
      )
    )
    (31): DualPathBlock(
      (c1x1_a): BnActConv2d(
        (bn): BatchNorm2d(2304, eps=0.001, momentum=0.1, affine=True, track_running_stats=True)
        (act): ReLU(inplace)
        (conv): Conv2d(2304, 800, kernel_size=(1, 1), stride=(1, 1), bias=False)
      )
      (c3x3_b): BnActConv2d(
        (bn): BatchNorm2d(800, eps=0.001, momentum=0.1, affine=True, track_running_stats=True)
        (act): ReLU(inplace)
        (conv): Conv2d(800, 800, kernel_size=(3, 3), stride=(1, 1), padding=(1, 1), groups=50, bias=False)
      )
      (c1x1_c): BnActConv2d(
        (bn): BatchNorm2d(800, eps=0.001, momentum=0.1, affine=True, track_running_stats=True)
        (act): ReLU(inplace)
        (conv): Conv2d(800, 1088, kernel_size=(1, 1), stride=(1, 1), bias=False)
      )
    )
    (32): DualPathBlock(
      (c1x1_a): BnActConv2d(
        (bn): BatchNorm2d(2368, eps=0.001, momentum=0.1, affine=True, track_running_stats=True)
        (act): ReLU(inplace)
        (conv): Conv2d(2368, 800, kernel_size=(1, 1), stride=(1, 1), bias=False)
      )
      (c3x3_b): BnActConv2d(
        (bn): BatchNorm2d(800, eps=0.001, momentum=0.1, affine=True, track_running_stats=True)
        (act): ReLU(inplace)
        (conv): Conv2d(800, 800, kernel_size=(3, 3), stride=(1, 1), padding=(1, 1), groups=50, bias=False)
      )
      (c1x1_c): BnActConv2d(
        (bn): BatchNorm2d(800, eps=0.001, momentum=0.1, affine=True, track_running_stats=True)
        (act): ReLU(inplace)
        (conv): Conv2d(800, 1088, kernel_size=(1, 1), stride=(1, 1), bias=False)
      )
    )
    (33): DualPathBlock(
      (c1x1_w_s2): BnActConv2d(
        (bn): BatchNorm2d(2432, eps=0.001, momentum=0.1, affine=True, track_running_stats=True)
        (act): ReLU(inplace)
        (conv): Conv2d(2432, 2304, kernel_size=(1, 1), stride=(2, 2), bias=False)
      )
      (c1x1_a): BnActConv2d(
        (bn): BatchNorm2d(2432, eps=0.001, momentum=0.1, affine=True, track_running_stats=True)
        (act): ReLU(inplace)
        (conv): Conv2d(2432, 1600, kernel_size=(1, 1), stride=(1, 1), bias=False)
      )
      (c3x3_b): BnActConv2d(
        (bn): BatchNorm2d(1600, eps=0.001, momentum=0.1, affine=True, track_running_stats=True)
        (act): ReLU(inplace)
        (conv): Conv2d(1600, 1600, kernel_size=(3, 3), stride=(2, 2), padding=(1, 1), groups=50, bias=False)
      )
      (c1x1_c): BnActConv2d(
        (bn): BatchNorm2d(1600, eps=0.001, momentum=0.1, affine=True, track_running_stats=True)
        (act): ReLU(inplace)
        (conv): Conv2d(1600, 2176, kernel_size=(1, 1), stride=(1, 1), bias=False)
      )
    )
    (34): DualPathBlock(
      (c1x1_a): BnActConv2d(
        (bn): BatchNorm2d(2432, eps=0.001, momentum=0.1, affine=True, track_running_stats=True)
        (act): ReLU(inplace)
        (conv): Conv2d(2432, 1600, kernel_size=(1, 1), stride=(1, 1), bias=False)
      )
      (c3x3_b): BnActConv2d(
        (bn): BatchNorm2d(1600, eps=0.001, momentum=0.1, affine=True, track_running_stats=True)
        (act): ReLU(inplace)
        (conv): Conv2d(1600, 1600, kernel_size=(3, 3), stride=(1, 1), padding=(1, 1), groups=50, bias=False)
      )
      (c1x1_c): BnActConv2d(
        (bn): BatchNorm2d(1600, eps=0.001, momentum=0.1, affine=True, track_running_stats=True)
        (act): ReLU(inplace)
        (conv): Conv2d(1600, 2176, kernel_size=(1, 1), stride=(1, 1), bias=False)
      )
    )
    (35): DualPathBlock(
      (c1x1_a): BnActConv2d(
        (bn): BatchNorm2d(2560, eps=0.001, momentum=0.1, affine=True, track_running_stats=True)
        (act): ReLU(inplace)
        (conv): Conv2d(2560, 1600, kernel_size=(1, 1), stride=(1, 1), bias=False)
      )
      (c3x3_b): BnActConv2d(
        (bn): BatchNorm2d(1600, eps=0.001, momentum=0.1, affine=True, track_running_stats=True)
        (act): ReLU(inplace)
        (conv): Conv2d(1600, 1600, kernel_size=(3, 3), stride=(1, 1), padding=(1, 1), groups=50, bias=False)
      )
      (c1x1_c): BnActConv2d(
        (bn): BatchNorm2d(1600, eps=0.001, momentum=0.1, affine=True, track_running_stats=True)
        (act): ReLU(inplace)
        (conv): Conv2d(1600, 2176, kernel_size=(1, 1), stride=(1, 1), bias=False)
      )
    )
    (36): CatBnAct(
      (bn): BatchNorm2d(2688, eps=0.001, momentum=0.1, affine=True, track_running_stats=True)
      (act): ReLU(inplace)
    )
  )
  (classifier): Conv2d(2688, 1000, kernel_size=(1, 1), stride=(1, 1))
)[0m
2020-07-09 17:49:42,619 [32mINFO[0m: loss
CrossEntropyLoss()[0m
2020-07-09 17:49:42,621 [32mINFO[0m: optimizer
SGD (
Parameter Group 0
    dampening: 0
    hold_grads: False
    lr: 0.1
    momentum: 0.9
    nesterov: False
    weight_decay: 0.0001
)[0m
2020-07-09 17:49:44,440 [32mINFO[0m: ==> begin trace[0m
2020-07-09 17:50:02,936 [32mINFO[0m: ==> tr_data dumped[0m
…
