…
        "weight_decay": 0.0001
      }
    },
    "lr_scheduler": {
      "warmup_epochs": 0,
      "type": "MultiStepLR",
      "kwargs": {
        "milestones": [
          30,
          60,
          90
        ],
        "gamma": 0.1
      }
    }
  },
  "saver": {
    "pretrain_model": null,
    "resume_model": null,
    "save_dir": "checkpoints/efficientnet_b0"
  }
}[0m
2020-07-09 20:39:07,172 [32mINFO[0m: creating model 'efficientnet_b1'[0m
2020-07-09 20:39:07,386 [32mINFO[0m: model
DistributedParrotsModel
EfficientNet(
  (blocks): ModuleList(
    (0): MBConvBlock(
      (in_conv): Sequential(
        (0): Conv2d(32, 32, kernel_size=(3, 3), stride=[1, 1], padding=(1, 1), groups=32, bias=False)
        (1): BatchNorm2d(32, eps=1e-05, momentum=0.1, affine=True, track_running_stats=True)
        (2): swish()
      )
      (se_block): Sequential(
        (conv1): Conv2d(32, 8, kernel_size=(1, 1), stride=(1, 1))
        (act1): swish()
        (conv2): Conv2d(8, 32, kernel_size=(1, 1), stride=(1, 1))
        (act2): Sigmoid()
      )
      (out_conv): Sequential(
        (0): Conv2d(32, 16, kernel_size=(1, 1), stride=(1, 1), bias=False)
        (1): BatchNorm2d(16, eps=1e-05, momentum=0.1, affine=True, track_running_stats=True)
      )
    )
    (1): MBConvBlock(
      (in_conv): Sequential(
        (0): Conv2d(16, 16, kernel_size=(3, 3), stride=[1, 1], padding=(1, 1), groups=16, bias=False)
        (1): BatchNorm2d(16, eps=1e-05, momentum=0.1, affine=True, track_running_stats=True)
        (2): swish()
      )
      (se_block): Sequential(
        (conv1): Conv2d(16, 4, kernel_size=(1, 1), stride=(1, 1))
        (act1): swish()
        (conv2): Conv2d(4, 16, kernel_size=(1, 1), stride=(1, 1))
        (act2): Sigmoid()
      )
      (out_conv): Sequential(
        (0): Conv2d(16, 16, kernel_size=(1, 1), stride=(1, 1), bias=False)
        (1): BatchNorm2d(16, eps=1e-05, momentum=0.1, affine=True, track_running_stats=True)
      )
    )
    (2): MBConvBlock(
      (in_conv): Sequential(
        (0): Conv2d(16, 96, kernel_size=(1, 1), stride=(1, 1), bias=False)
        (1): BatchNorm2d(96, eps=1e-05, momentum=0.1, affine=True, track_running_stats=True)
        (2): swish()
        (3): Conv2d(96, 96, kernel_size=(3, 3), stride=[2, 2], padding=(1, 1), groups=96, bias=False)
        (4): BatchNorm2d(96, eps=1e-05, momentum=0.1, affine=True, track_running_stats=True)
        (5): swish()
      )
      (se_block): Sequential(
        (conv1): Conv2d(96, 4, kernel_size=(1, 1), stride=(1, 1))
        (act1): swish()
        (conv2): Conv2d(4, 96, kernel_size=(1, 1), stride=(1, 1))
        (act2): Sigmoid()
      )
      (out_conv): Sequential(
        (0): Conv2d(96, 24, kernel_size=(1, 1), stride=(1, 1), bias=False)
        (1): BatchNorm2d(24, eps=1e-05, momentum=0.1, affine=True, track_running_stats=True)
      )
    )
    (3): MBConvBlock(
      (in_conv): Sequential(
        (0): Conv2d(24, 144, kernel_size=(1, 1), stride=(1, 1), bias=False)
        (1): BatchNorm2d(144, eps=1e-05, momentum=0.1, affine=True, track_running_stats=True)
        (2): swish()
        (3): Conv2d(144, 144, kernel_size=(3, 3), stride=[1, 1], padding=(1, 1), groups=144, bias=False)
        (4): BatchNorm2d(144, eps=1e-05, momentum=0.1, affine=True, track_running_stats=True)
        (5): swish()
      )
      (se_block): Sequential(
        (conv1): Conv2d(144, 6, kernel_size=(1, 1), stride=(1, 1))
        (act1): swish()
        (conv2): Conv2d(6, 144, kernel_size=(1, 1), stride=(1, 1))
        (act2): Sigmoid()
      )
      (out_conv): Sequential(
        (0): Conv2d(144, 24, kernel_size=(1, 1), stride=(1, 1), bias=False)
        (1): BatchNorm2d(24, eps=1e-05, momentum=0.1, affine=True, track_running_stats=True)
      )
    )
    (4): MBConvBlock(
      (in_conv): Sequential(
        (0): Conv2d(24, 144, kernel_size=(1, 1), stride=(1, 1), bias=False)
        (1): BatchNorm2d(144, eps=1e-05, momentum=0.1, affine=True, track_running_stats=True)
        (2): swish()
        (3): Conv2d(144, 144, kernel_size=(3, 3), stride=[1, 1], padding=(1, 1), groups=144, bias=False)
        (4): BatchNorm2d(144, eps=1e-05, momentum=0.1, affine=True, track_running_stats=True)
        (5): swish()
      )
      (se_block): Sequential(
        (conv1): Conv2d(144, 6, kernel_size=(1, 1), stride=(1, 1))
        (act1): swish()
        (conv2): Conv2d(6, 144, kernel_size=(1, 1), stride=(1, 1))
        (act2): Sigmoid()
      )
      (out_conv): Sequential(
        (0): Conv2d(144, 24, kernel_size=(1, 1), stride=(1, 1), bias=False)
        (1): BatchNorm2d(24, eps=1e-05, momentum=0.1, affine=True, track_running_stats=True)
      )
    )
    (5): MBConvBlock(
      (in_conv): Sequential(
        (0): Conv2d(24, 144, kernel_size=(1, 1), stride=(1, 1), bias=False)
        (1): BatchNorm2d(144, eps=1e-05, momentum=0.1, affine=True, track_running_stats=True)
        (2): swish()
        (3): Conv2d(144, 144, kernel_size=(5, 5), stride=[2, 2], padding=(2, 2), groups=144, bias=False)
        (4): BatchNorm2d(144, eps=1e-05, momentum=0.1, affine=True, track_running_stats=True)
        (5): swish()
      )
      (se_block): Sequential(
        (conv1): Conv2d(144, 6, kernel_size=(1, 1), stride=(1, 1))
        (act1): swish()
        (conv2): Conv2d(6, 144, kernel_size=(1, 1), stride=(1, 1))
        (act2): Sigmoid()
      )
      (out_conv): Sequential(
        (0): Conv2d(144, 40, kernel_size=(1, 1), stride=(1, 1), bias=False)
        (1): BatchNorm2d(40, eps=1e-05, momentum=0.1, affine=True, track_running_stats=True)
      )
    )
    (6): MBConvBlock(
      (in_conv): Sequential(
        (0): Conv2d(40, 240, kernel_size=(1, 1), stride=(1, 1), bias=False)
        (1): BatchNorm2d(240, eps=1e-05, momentum=0.1, affine=True, track_running_stats=True)
        (2): swish()
        (3): Conv2d(240, 240, kernel_size=(5, 5), stride=[1, 1], padding=(2, 2), groups=240, bias=False)
        (4): BatchNorm2d(240, eps=1e-05, momentum=0.1, affine=True, track_running_stats=True)
        (5): swish()
      )
      (se_block): Sequential(
        (conv1): Conv2d(240, 10, kernel_size=(1, 1), stride=(1, 1))
        (act1): swish()
        (conv2): Conv2d(10, 240, kernel_size=(1, 1), stride=(1, 1))
        (act2): Sigmoid()
      )
      (out_conv): Sequential(
        (0): Conv2d(240, 40, kernel_size=(1, 1), stride=(1, 1), bias=False)
        (1): BatchNorm2d(40, eps=1e-05, momentum=0.1, affine=True, track_running_stats=True)
      )
    )
    (7): MBConvBlock(
      (in_conv): Sequential(
        (0): Conv2d(40, 240, kernel_size=(1, 1), stride=(1, 1), bias=False)
        (1): BatchNorm2d(240, eps=1e-05, momentum=0.1, affine=True, track_running_stats=True)
        (2): swish()
        (3): Conv2d(240, 240, kernel_size=(5, 5), stride=[1, 1], padding=(2, 2), groups=240, bias=False)
        (4): BatchNorm2d(240, eps=1e-05, momentum=0.1, affine=True, track_running_stats=True)
        (5): swish()
      )
      (se_block): Sequential(
        (conv1): Conv2d(240, 10, kernel_size=(1, 1), stride=(1, 1))
        (act1): swish()
        (conv2): Conv2d(10, 240, kernel_size=(1, 1), stride=(1, 1))
        (act2): Sigmoid()
      )
      (out_conv): Sequential(
        (0): Conv2d(240, 40, kernel_size=(1, 1), stride=(1, 1), bias=False)
        (1): BatchNorm2d(40, eps=1e-05, momentum=0.1, affine=True, track_running_stats=True)
      )
    )
    (8): MBConvBlock(
      (in_conv): Sequential(
        (0): Conv2d(40, 240, kernel_size=(1, 1), stride=(1, 1), bias=False)
        (1): BatchNorm2d(240, eps=1e-05, momentum=0.1, affine=True, track_running_stats=True)
        (2): swish()
        (3): Conv2d(240, 240, kernel_size=(3, 3), stride=[2, 2], padding=(1, 1), groups=240, bias=False)
        (4): BatchNorm2d(240, eps=1e-05, momentum=0.1, affine=True, track_running_stats=True)
        (5): swish()
      )
      (se_block): Sequential(
        (conv1): Conv2d(240, 10, kernel_size=(1, 1), stride=(1, 1))
        (act1): swish()
        (conv2): Conv2d(10, 240, kernel_size=(1, 1), stride=(1, 1))
        (act2): Sigmoid()
      )
      (out_conv): Sequential(
        (0): Conv2d(240, 80, kernel_size=(1, 1), stride=(1, 1), bias=False)
        (1): BatchNorm2d(80, eps=1e-05, momentum=0.1, affine=True, track_running_stats=True)
      )
    )
    (9): MBConvBlock(
      (in_conv): Sequential(
        (0): Conv2d(80, 480, kernel_size=(1, 1), stride=(1, 1), bias=False)
        (1): BatchNorm2d(480, eps=1e-05, momentum=0.1, affine=True, track_running_stats=True)
        (2): swish()
        (3): Conv2d(480, 480, kernel_size=(3, 3), stride=[1, 1], padding=(1, 1), groups=480, bias=False)
        (4): BatchNorm2d(480, eps=1e-05, momentum=0.1, affine=True, track_running_stats=True)
        (5): swish()
      )
      (se_block): Sequential(
        (conv1): Conv2d(480, 20, kernel_size=(1, 1), stride=(1, 1))
        (act1): swish()
        (conv2): Conv2d(20, 480, kernel_size=(1, 1), stride=(1, 1))
        (act2): Sigmoid()
      )
      (out_conv): Sequential(
        (0): Conv2d(480, 80, kernel_size=(1, 1), stride=(1, 1), bias=False)
        (1): BatchNorm2d(80, eps=1e-05, momentum=0.1, affine=True, track_running_stats=True)
      )
    )
    (10): MBConvBlock(
      (in_conv): Sequential(
        (0): Conv2d(80, 480, kernel_size=(1, 1), stride=(1, 1), bias=False)
        (1): BatchNorm2d(480, eps=1e-05, momentum=0.1, affine=True, track_running_stats=True)
        (2): swish()
        (3): Conv2d(480, 480, kernel_size=(3, 3), stride=[1, 1], padding=(1, 1), groups=480, bias=False)
        (4): BatchNorm2d(480, eps=1e-05, momentum=0.1, affine=True, track_running_stats=True)
        (5): swish()
      )
      (se_block): Sequential(
        (conv1): Conv2d(480, 20, kernel_size=(1, 1), stride=(1, 1))
        (act1): swish()
        (conv2): Conv2d(20, 480, kernel_size=(1, 1), stride=(1, 1))
        (act2): Sigmoid()
      )
      (out_conv): Sequential(
        (0): Conv2d(480, 80, kernel_size=(1, 1), stride=(1, 1), bias=False)
        (1): BatchNorm2d(80, eps=1e-05, momentum=0.1, affine=True, track_running_stats=True)
      )
    )
    (11): MBConvBlock(
      (in_conv): Sequential(
        (0): Conv2d(80, 480, kernel_size=(1, 1), stride=(1, 1), bias=False)
        (1): BatchNorm2d(480, eps=1e-05, momentum=0.1, affine=True, track_running_stats=True)
        (2): swish()
        (3): Conv2d(480, 480, kernel_size=(3, 3), stride=[1, 1], padding=(1, 1), groups=480, bias=False)
        (4): BatchNorm2d(480, eps=1e-05, momentum=0.1, affine=True, track_running_stats=True)
        (5): swish()
      )
      (se_block): Sequential(
        (conv1): Conv2d(480, 20, kernel_size=(1, 1), stride=(1, 1))
        (act1): swish()
        (conv2): Conv2d(20, 480, kernel_size=(1, 1), stride=(1, 1))
        (act2): Sigmoid()
      )
      (out_conv): Sequential(
        (0): Conv2d(480, 80, kernel_size=(1, 1), stride=(1, 1), bias=False)
        (1): BatchNorm2d(80, eps=1e-05, momentum=0.1, affine=True, track_running_stats=True)
      )
    )
    (12): MBConvBlock(
      (in_conv): Sequential(
        (0): Conv2d(80, 480, kernel_size=(1, 1), stride=(1, 1), bias=False)
        (1): BatchNorm2d(480, eps=1e-05, momentum=0.1, affine=True, track_running_stats=True)
        (2): swish()
        (3): Conv2d(480, 480, kernel_size=(5, 5), stride=[1, 1], padding=(2, 2), groups=480, bias=False)
        (4): BatchNorm2d(480, eps=1e-05, momentum=0.1, affine=True, track_running_stats=True)
        (5): swish()
      )
      (se_block): Sequential(
        (conv1): Conv2d(480, 20, kernel_size=(1, 1), stride=(1, 1))
        (act1): swish()
        (conv2): Conv2d(20, 480, kernel_size=(1, 1), stride=(1, 1))
        (act2): Sigmoid()
      )
      (out_conv): Sequential(
        (0): Conv2d(480, 112, kernel_size=(1, 1), stride=(1, 1), bias=False)
        (1): BatchNorm2d(112, eps=1e-05, momentum=0.1, affine=True, track_running_stats=True)
      )
    )
    (13): MBConvBlock(
      (in_conv): Sequential(
        (0): Conv2d(112, 672, kernel_size=(1, 1), stride=(1, 1), bias=False)
        (1): BatchNorm2d(672, eps=1e-05, momentum=0.1, affine=True, track_running_stats=True)
        (2): swish()
        (3): Conv2d(672, 672, kernel_size=(5, 5), stride=[1, 1], padding=(2, 2), groups=672, bias=False)
        (4): BatchNorm2d(672, eps=1e-05, momentum=0.1, affine=True, track_running_stats=True)
        (5): swish()
      )
      (se_block): Sequential(
        (conv1): Conv2d(672, 28, kernel_size=(1, 1), stride=(1, 1))
        (act1): swish()
        (conv2): Conv2d(28, 672, kernel_size=(1, 1), stride=(1, 1))
        (act2): Sigmoid()
      )
      (out_conv): Sequential(
        (0): Conv2d(672, 112, kernel_size=(1, 1), stride=(1, 1), bias=False)
        (1): BatchNorm2d(112, eps=1e-05, momentum=0.1, affine=True, track_running_stats=True)
      )
    )
    (14): MBConvBlock(
      (in_conv): Sequential(
        (0): Conv2d(112, 672, kernel_size=(1, 1), stride=(1, 1), bias=False)
        (1): BatchNorm2d(672, eps=1e-05, momentum=0.1, affine=True, track_running_stats=True)
        (2): swish()
        (3): Conv2d(672, 672, kernel_size=(5, 5), stride=[1, 1], padding=(2, 2), groups=672, bias=False)
        (4): BatchNorm2d(672, eps=1e-05, momentum=0.1, affine=True, track_running_stats=True)
        (5): swish()
      )
      (se_block): Sequential(
        (conv1): Conv2d(672, 28, kernel_size=(1, 1), stride=(1, 1))
        (act1): swish()
        (conv2): Conv2d(28, 672, kernel_size=(1, 1), stride=(1, 1))
        (act2): Sigmoid()
      )
      (out_conv): Sequential(
        (0): Conv2d(672, 112, kernel_size=(1, 1), stride=(1, 1), bias=False)
        (1): BatchNorm2d(112, eps=1e-05, momentum=0.1, affine=True, track_running_stats=True)
      )
    )
    (15): MBConvBlock(
      (in_conv): Sequential(
        (0): Conv2d(112, 672, kernel_size=(1, 1), stride=(1, 1), bias=False)
        (1): BatchNorm2d(672, eps=1e-05, momentum=0.1, affine=True, track_running_stats=True)
        (2): swish()
        (3): Conv2d(672, 672, kernel_size=(5, 5), stride=[1, 1], padding=(2, 2), groups=672, bias=False)
        (4): BatchNorm2d(672, eps=1e-05, momentum=0.1, affine=True, track_running_stats=True)
        (5): swish()
      )
      (se_block): Sequential(
        (conv1): Conv2d(672, 28, kernel_size=(1, 1), stride=(1, 1))
        (act1): swish()
        (conv2): Conv2d(28, 672, kernel_size=(1, 1), stride=(1, 1))
        (act2): Sigmoid()
      )
      (out_conv): Sequential(
        (0): Conv2d(672, 112, kernel_size=(1, 1), stride=(1, 1), bias=False)
        (1): BatchNorm2d(112, eps=1e-05, momentum=0.1, affine=True, track_running_stats=True)
      )
    )
    (16): MBConvBlock(
      (in_conv): Sequential(
        (0): Conv2d(112, 672, kernel_size=(1, 1), stride=(1, 1), bias=False)
        (1): BatchNorm2d(672, eps=1e-05, momentum=0.1, affine=True, track_running_stats=True)
        (2): swish()
        (3): Conv2d(672, 672, kernel_size=(5, 5), stride=[2, 2], padding=(2, 2), groups=672, bias=False)
        (4): BatchNorm2d(672, eps=1e-05, momentum=0.1, affine=True, track_running_stats=True)
        (5): swish()
      )
      (se_block): Sequential(
        (conv1): Conv2d(672, 28, kernel_size=(1, 1), stride=(1, 1))
        (act1): swish()
        (conv2): Conv2d(28, 672, kernel_size=(1, 1), stride=(1, 1))
        (act2): Sigmoid()
      )
      (out_conv): Sequential(
        (0): Conv2d(672, 192, kernel_size=(1, 1), stride=(1, 1), bias=False)
        (1): BatchNorm2d(192, eps=1e-05, momentum=0.1, affine=True, track_running_stats=True)
      )
    )
    (17): MBConvBlock(
      (in_conv): Sequential(
        (0): Conv2d(192, 1152, kernel_size=(1, 1), stride=(1, 1), bias=False)
        (1): BatchNorm2d(1152, eps=1e-05, momentum=0.1, affine=True, track_running_stats=True)
        (2): swish()
        (3): Conv2d(1152, 1152, kernel_size=(5, 5), stride=[1, 1], padding=(2, 2), groups=1152, bias=False)
        (4): BatchNorm2d(1152, eps=1e-05, momentum=0.1, affine=True, track_running_stats=True)
        (5): swish()
      )
      (se_block): Sequential(
        (conv1): Conv2d(1152, 48, kernel_size=(1, 1), stride=(1, 1))
        (act1): swish()
        (conv2): Conv2d(48, 1152, kernel_size=(1, 1), stride=(1, 1))
        (act2): Sigmoid()
      )
      (out_conv): Sequential(
        (0): Conv2d(1152, 192, kernel_size=(1, 1), stride=(1, 1), bias=False)
        (1): BatchNorm2d(192, eps=1e-05, momentum=0.1, affine=True, track_running_stats=True)
      )
    )
    (18): MBConvBlock(
      (in_conv): Sequential(
        (0): Conv2d(192, 1152, kernel_size=(1, 1), stride=(1, 1), bias=False)
        (1): BatchNorm2d(1152, eps=1e-05, momentum=0.1, affine=True, track_running_stats=True)
        (2): swish()
        (3): Conv2d(1152, 1152, kernel_size=(5, 5), stride=[1, 1], padding=(2, 2), groups=1152, bias=False)
        (4): BatchNorm2d(1152, eps=1e-05, momentum=0.1, affine=True, track_running_stats=True)
        (5): swish()
      )
      (se_block): Sequential(
        (conv1): Conv2d(1152, 48, kernel_size=(1, 1), stride=(1, 1))
        (act1): swish()
        (conv2): Conv2d(48, 1152, kernel_size=(1, 1), stride=(1, 1))
        (act2): Sigmoid()
      )
      (out_conv): Sequential(
        (0): Conv2d(1152, 192, kernel_size=(1, 1), stride=(1, 1), bias=False)
        (1): BatchNorm2d(192, eps=1e-05, momentum=0.1, affine=True, track_running_stats=True)
      )
    )
    (19): MBConvBlock(
      (in_conv): Sequential(
        (0): Conv2d(192, 1152, kernel_size=(1, 1), stride=(1, 1), bias=False)
        (1): BatchNorm2d(1152, eps=1e-05, momentum=0.1, affine=True, track_running_stats=True)
        (2): swish()
        (3): Conv2d(1152, 1152, kernel_size=(5, 5), stride=[1, 1], padding=(2, 2), groups=1152, bias=False)
        (4): BatchNorm2d(1152, eps=1e-05, momentum=0.1, affine=True, track_running_stats=True)
        (5): swish()
      )
      (se_block): Sequential(
        (conv1): Conv2d(1152, 48, kernel_size=(1, 1), stride=(1, 1))
        (act1): swish()
        (conv2): Conv2d(48, 1152, kernel_size=(1, 1), stride=(1, 1))
        (act2): Sigmoid()
      )
      (out_conv): Sequential(
        (0): Conv2d(1152, 192, kernel_size=(1, 1), stride=(1, 1), bias=False)
        (1): BatchNorm2d(192, eps=1e-05, momentum=0.1, affine=True, track_running_stats=True)
      )
    )
    (20): MBConvBlock(
      (in_conv): Sequential(
        (0): Conv2d(192, 1152, kernel_size=(1, 1), stride=(1, 1), bias=False)
        (1): BatchNorm2d(1152, eps=1e-05, momentum=0.1, affine=True, track_running_stats=True)
        (2): swish()
        (3): Conv2d(1152, 1152, kernel_size=(5, 5), stride=[1, 1], padding=(2, 2), groups=1152, bias=False)
        (4): BatchNorm2d(1152, eps=1e-05, momentum=0.1, affine=True, track_running_stats=True)
        (5): swish()
      )
      (se_block): Sequential(
        (conv1): Conv2d(1152, 48, kernel_size=(1, 1), stride=(1, 1))
        (act1): swish()
        (conv2): Conv2d(48, 1152, kernel_size=(1, 1), stride=(1, 1))
        (act2): Sigmoid()
      )
      (out_conv): Sequential(
        (0): Conv2d(1152, 192, kernel_size=(1, 1), stride=(1, 1), bias=False)
        (1): BatchNorm2d(192, eps=1e-05, momentum=0.1, affine=True, track_running_stats=True)
      )
    )
    (21): MBConvBlock(
      (in_conv): Sequential(
        (0): Conv2d(192, 1152, kernel_size=(1, 1), stride=(1, 1), bias=False)
        (1): BatchNorm2d(1152, eps=1e-05, momentum=0.1, affine=True, track_running_stats=True)
        (2): swish()
        (3): Conv2d(1152, 1152, kernel_size=(3, 3), stride=[1, 1], padding=(1, 1), groups=1152, bias=False)
        (4): BatchNorm2d(1152, eps=1e-05, momentum=0.1, affine=True, track_running_stats=True)
        (5): swish()
      )
      (se_block): Sequential(
        (conv1): Conv2d(1152, 48, kernel_size=(1, 1), stride=(1, 1))
        (act1): swish()
        (conv2): Conv2d(48, 1152, kernel_size=(1, 1), stride=(1, 1))
        (act2): Sigmoid()
      )
      (out_conv): Sequential(
        (0): Conv2d(1152, 320, kernel_size=(1, 1), stride=(1, 1), bias=False)
        (1): BatchNorm2d(320, eps=1e-05, momentum=0.1, affine=True, track_running_stats=True)
      )
    )
    (22): MBConvBlock(
      (in_conv): Sequential(
        (0): Conv2d(320, 1920, kernel_size=(1, 1), stride=(1, 1), bias=False)
        (1): BatchNorm2d(1920, eps=1e-05, momentum=0.1, affine=True, track_running_stats=True)
        (2): swish()
        (3): Conv2d(1920, 1920, kernel_size=(3, 3), stride=[1, 1], padding=(1, 1), groups=1920, bias=False)
        (4): BatchNorm2d(1920, eps=1e-05, momentum=0.1, affine=True, track_running_stats=True)
        (5): swish()
      )
      (se_block): Sequential(
        (conv1): Conv2d(1920, 80, kernel_size=(1, 1), stride=(1, 1))
        (act1): swish()
        (conv2): Conv2d(80, 1920, kernel_size=(1, 1), stride=(1, 1))
        (act2): Sigmoid()
      )
      (out_conv): Sequential(
        (0): Conv2d(1920, 320, kernel_size=(1, 1), stride=(1, 1), bias=False)
        (1): BatchNorm2d(320, eps=1e-05, momentum=0.1, affine=True, track_running_stats=True)
      )
    )
  )
  (stem): Sequential(
    (0): Conv2d(3, 32, kernel_size=(3, 3), stride=(2, 2), padding=(1, 1), bias=False)
    (1): BatchNorm2d(32, eps=1e-05, momentum=0.1, affine=True, track_running_stats=True)
    (2): swish()
  )
  (head): Sequential(
    (0): Conv2d(320, 1280, kernel_size=(1, 1), stride=(1, 1), bias=False)
    (1): BatchNorm2d(1280, eps=1e-05, momentum=0.1, affine=True, track_running_stats=True)
    (2): swish()
  )
  (avgpool): AdaptiveAvgPool2d()
  (fc): Linear(in_features=1280, out_features=1000, bias=True)
  (dropout): Dropout2d(p=0.2, inplace)
)[0m
2020-07-09 20:39:07,386 [32mINFO[0m: loss
CrossEntropyLoss()[0m
2020-07-09 20:39:07,388 [32mINFO[0m: optimizer
SGD (
Parameter Group 0
    dampening: 0
    hold_grads: False
    lr: 0.1
    momentum: 0.9
    nesterov: False
    weight_decay: 0.0001
)[0m
2020-07-09 20:39:09,388 [32mINFO[0m: ==> begin trace[0m
…
