…
        "weight_decay": 4e-05
      }
    },
    "lr_scheduler": {
      "warmup_epochs": 0,
      "type": "MultiStepLR",
      "kwargs": {
        "milestones": [
          30,
          60,
          90
        ],
        "gamma": 0.1
      }
    }
  },
  "saver": {
    "pretrian_model": null,
    "resume_model": null,
    "save_dir": "checkpoints/inception_resnet_v1"
  }
}[0m
2020-07-09 20:13:50,617 [32mINFO[0m: creating model 'inception_resnet_v1'[0m
2020-07-09 20:13:50,973 [32mINFO[0m: model
DistributedParrotsModel
InceptionResNet(
  (stem_head): Sequential(
    (0): BasicConv2d(
      (conv): Conv2d(3, 32, kernel_size=(3, 3), stride=(2, 2), bias=False)
      (bn): BatchNorm2d(32, eps=0.001, momentum=0.1, affine=True, track_running_stats=True)
      (relu): ReLU()
    )
    (1): BasicConv2d(
      (conv): Conv2d(32, 32, kernel_size=(3, 3), stride=(1, 1), bias=False)
      (bn): BatchNorm2d(32, eps=0.001, momentum=0.1, affine=True, track_running_stats=True)
      (relu): ReLU()
    )
    (2): BasicConv2d(
      (conv): Conv2d(32, 64, kernel_size=(3, 3), stride=(1, 1), padding=(1, 1), bias=False)
      (bn): BatchNorm2d(64, eps=0.001, momentum=0.1, affine=True, track_running_stats=True)
      (relu): ReLU()
    )
  )
  (stem_tail): Stem_tail_v1(
    (maxpool): MaxPool2d(kernel_size=3, stride=2, padding=0, dilation=1, ceil_mode=False)
    (conv2d_3b): BasicConv2d(
      (conv): Conv2d(64, 80, kernel_size=(1, 1), stride=(1, 1), bias=False)
      (bn): BatchNorm2d(80, eps=0.001, momentum=0.1, affine=True, track_running_stats=True)
      (relu): ReLU()
    )
    (conv2d_4a): BasicConv2d(
      (conv): Conv2d(80, 192, kernel_size=(3, 3), stride=(1, 1), bias=False)
      (bn): BatchNorm2d(192, eps=0.001, momentum=0.1, affine=True, track_running_stats=True)
      (relu): ReLU()
    )
    (conv2d_4b): BasicConv2d(
      (conv): Conv2d(192, 256, kernel_size=(3, 3), stride=(2, 2), bias=False)
      (bn): BatchNorm2d(256, eps=0.001, momentum=0.1, affine=True, track_running_stats=True)
      (relu): ReLU()
    )
  )
  (repeat0): Sequential(
    (0): Block35(
      (branch0): BasicConv2d(
        (conv): Conv2d(256, 32, kernel_size=(1, 1), stride=(1, 1), bias=False)
        (bn): BatchNorm2d(32, eps=0.001, momentum=0.1, affine=True, track_running_stats=True)
        (relu): ReLU()
      )
      (branch1): Sequential(
        (0): BasicConv2d(
          (conv): Conv2d(256, 32, kernel_size=(1, 1), stride=(1, 1), bias=False)
          (bn): BatchNorm2d(32, eps=0.001, momentum=0.1, affine=True, track_running_stats=True)
          (relu): ReLU()
        )
        (1): BasicConv2d(
          (conv): Conv2d(32, 32, kernel_size=(3, 3), stride=(1, 1), padding=(1, 1), bias=False)
          (bn): BatchNorm2d(32, eps=0.001, momentum=0.1, affine=True, track_running_stats=True)
          (relu): ReLU()
        )
      )
      (branch2): Sequential(
        (0): BasicConv2d(
          (conv): Conv2d(256, 32, kernel_size=(1, 1), stride=(1, 1), bias=False)
          (bn): BatchNorm2d(32, eps=0.001, momentum=0.1, affine=True, track_running_stats=True)
          (relu): ReLU()
        )
        (1): BasicConv2d(
          (conv): Conv2d(32, 32, kernel_size=(3, 3), stride=(1, 1), padding=(1, 1), bias=False)
          (bn): BatchNorm2d(32, eps=0.001, momentum=0.1, affine=True, track_running_stats=True)
          (relu): ReLU()
        )
        (2): BasicConv2d(
          (conv): Conv2d(32, 32, kernel_size=(3, 3), stride=(1, 1), padding=(1, 1), bias=False)
          (bn): BatchNorm2d(32, eps=0.001, momentum=0.1, affine=True, track_running_stats=True)
          (relu): ReLU()
        )
      )
      (conv2d): Conv2d(96, 256, kernel_size=(1, 1), stride=(1, 1))
      (relu): ReLU()
    )
    (1): Block35(
      (branch0): BasicConv2d(
        (conv): Conv2d(256, 32, kernel_size=(1, 1), stride=(1, 1), bias=False)
        (bn): BatchNorm2d(32, eps=0.001, momentum=0.1, affine=True, track_running_stats=True)
        (relu): ReLU()
      )
      (branch1): Sequential(
        (0): BasicConv2d(
          (conv): Conv2d(256, 32, kernel_size=(1, 1), stride=(1, 1), bias=False)
          (bn): BatchNorm2d(32, eps=0.001, momentum=0.1, affine=True, track_running_stats=True)
          (relu): ReLU()
        )
        (1): BasicConv2d(
          (conv): Conv2d(32, 32, kernel_size=(3, 3), stride=(1, 1), padding=(1, 1), bias=False)
          (bn): BatchNorm2d(32, eps=0.001, momentum=0.1, affine=True, track_running_stats=True)
          (relu): ReLU()
        )
      )
      (branch2): Sequential(
        (0): BasicConv2d(
          (conv): Conv2d(256, 32, kernel_size=(1, 1), stride=(1, 1), bias=False)
          (bn): BatchNorm2d(32, eps=0.001, momentum=0.1, affine=True, track_running_stats=True)
          (relu): ReLU()
        )
        (1): BasicConv2d(
          (conv): Conv2d(32, 32, kernel_size=(3, 3), stride=(1, 1), padding=(1, 1), bias=False)
          (bn): BatchNorm2d(32, eps=0.001, momentum=0.1, affine=True, track_running_stats=True)
          (relu): ReLU()
        )
        (2): BasicConv2d(
          (conv): Conv2d(32, 32, kernel_size=(3, 3), stride=(1, 1), padding=(1, 1), bias=False)
          (bn): BatchNorm2d(32, eps=0.001, momentum=0.1, affine=True, track_running_stats=True)
          (relu): ReLU()
        )
      )
      (conv2d): Conv2d(96, 256, kernel_size=(1, 1), stride=(1, 1))
      (relu): ReLU()
    )
    (2): Block35(
      (branch0): BasicConv2d(
        (conv): Conv2d(256, 32, kernel_size=(1, 1), stride=(1, 1), bias=False)
        (bn): BatchNorm2d(32, eps=0.001, momentum=0.1, affine=True, track_running_stats=True)
        (relu): ReLU()
      )
      (branch1): Sequential(
        (0): BasicConv2d(
          (conv): Conv2d(256, 32, kernel_size=(1, 1), stride=(1, 1), bias=False)
          (bn): BatchNorm2d(32, eps=0.001, momentum=0.1, affine=True, track_running_stats=True)
          (relu): ReLU()
        )
        (1): BasicConv2d(
          (conv): Conv2d(32, 32, kernel_size=(3, 3), stride=(1, 1), padding=(1, 1), bias=False)
          (bn): BatchNorm2d(32, eps=0.001, momentum=0.1, affine=True, track_running_stats=True)
          (relu): ReLU()
        )
      )
      (branch2): Sequential(
        (0): BasicConv2d(
          (conv): Conv2d(256, 32, kernel_size=(1, 1), stride=(1, 1), bias=False)
          (bn): BatchNorm2d(32, eps=0.001, momentum=0.1, affine=True, track_running_stats=True)
          (relu): ReLU()
        )
        (1): BasicConv2d(
          (conv): Conv2d(32, 32, kernel_size=(3, 3), stride=(1, 1), padding=(1, 1), bias=False)
          (bn): BatchNorm2d(32, eps=0.001, momentum=0.1, affine=True, track_running_stats=True)
          (relu): ReLU()
        )
        (2): BasicConv2d(
          (conv): Conv2d(32, 32, kernel_size=(3, 3), stride=(1, 1), padding=(1, 1), bias=False)
          (bn): BatchNorm2d(32, eps=0.001, momentum=0.1, affine=True, track_running_stats=True)
          (relu): ReLU()
        )
      )
      (conv2d): Conv2d(96, 256, kernel_size=(1, 1), stride=(1, 1))
      (relu): ReLU()
    )
    (3): Block35(
      (branch0): BasicConv2d(
        (conv): Conv2d(256, 32, kernel_size=(1, 1), stride=(1, 1), bias=False)
        (bn): BatchNorm2d(32, eps=0.001, momentum=0.1, affine=True, track_running_stats=True)
        (relu): ReLU()
      )
      (branch1): Sequential(
        (0): BasicConv2d(
          (conv): Conv2d(256, 32, kernel_size=(1, 1), stride=(1, 1), bias=False)
          (bn): BatchNorm2d(32, eps=0.001, momentum=0.1, affine=True, track_running_stats=True)
          (relu): ReLU()
        )
        (1): BasicConv2d(
          (conv): Conv2d(32, 32, kernel_size=(3, 3), stride=(1, 1), padding=(1, 1), bias=False)
          (bn): BatchNorm2d(32, eps=0.001, momentum=0.1, affine=True, track_running_stats=True)
          (relu): ReLU()
        )
      )
      (branch2): Sequential(
        (0): BasicConv2d(
          (conv): Conv2d(256, 32, kernel_size=(1, 1), stride=(1, 1), bias=False)
          (bn): BatchNorm2d(32, eps=0.001, momentum=0.1, affine=True, track_running_stats=True)
          (relu): ReLU()
        )
        (1): BasicConv2d(
          (conv): Conv2d(32, 32, kernel_size=(3, 3), stride=(1, 1), padding=(1, 1), bias=False)
          (bn): BatchNorm2d(32, eps=0.001, momentum=0.1, affine=True, track_running_stats=True)
          (relu): ReLU()
        )
        (2): BasicConv2d(
          (conv): Conv2d(32, 32, kernel_size=(3, 3), stride=(1, 1), padding=(1, 1), bias=False)
          (bn): BatchNorm2d(32, eps=0.001, momentum=0.1, affine=True, track_running_stats=True)
          (relu): ReLU()
        )
      )
      (conv2d): Conv2d(96, 256, kernel_size=(1, 1), stride=(1, 1))
      (relu): ReLU()
    )
    (4): Block35(
      (branch0): BasicConv2d(
        (conv): Conv2d(256, 32, kernel_size=(1, 1), stride=(1, 1), bias=False)
        (bn): BatchNorm2d(32, eps=0.001, momentum=0.1, affine=True, track_running_stats=True)
        (relu): ReLU()
      )
      (branch1): Sequential(
        (0): BasicConv2d(
          (conv): Conv2d(256, 32, kernel_size=(1, 1), stride=(1, 1), bias=False)
          (bn): BatchNorm2d(32, eps=0.001, momentum=0.1, affine=True, track_running_stats=True)
          (relu): ReLU()
        )
        (1): BasicConv2d(
          (conv): Conv2d(32, 32, kernel_size=(3, 3), stride=(1, 1), padding=(1, 1), bias=False)
          (bn): BatchNorm2d(32, eps=0.001, momentum=0.1, affine=True, track_running_stats=True)
          (relu): ReLU()
        )
      )
      (branch2): Sequential(
        (0): BasicConv2d(
          (conv): Conv2d(256, 32, kernel_size=(1, 1), stride=(1, 1), bias=False)
          (bn): BatchNorm2d(32, eps=0.001, momentum=0.1, affine=True, track_running_stats=True)
          (relu): ReLU()
        )
        (1): BasicConv2d(
          (conv): Conv2d(32, 32, kernel_size=(3, 3), stride=(1, 1), padding=(1, 1), bias=False)
          (bn): BatchNorm2d(32, eps=0.001, momentum=0.1, affine=True, track_running_stats=True)
          (relu): ReLU()
        )
        (2): BasicConv2d(
          (conv): Conv2d(32, 32, kernel_size=(3, 3), stride=(1, 1), padding=(1, 1), bias=False)
          (bn): BatchNorm2d(32, eps=0.001, momentum=0.1, affine=True, track_running_stats=True)
          (relu): ReLU()
        )
      )
      (conv2d): Conv2d(96, 256, kernel_size=(1, 1), stride=(1, 1))
      (relu): ReLU()
    )
    (5): Block35(
      (branch0): BasicConv2d(
        (conv): Conv2d(256, 32, kernel_size=(1, 1), stride=(1, 1), bias=False)
        (bn): BatchNorm2d(32, eps=0.001, momentum=0.1, affine=True, track_running_stats=True)
        (relu): ReLU()
      )
      (branch1): Sequential(
        (0): BasicConv2d(
          (conv): Conv2d(256, 32, kernel_size=(1, 1), stride=(1, 1), bias=False)
          (bn): BatchNorm2d(32, eps=0.001, momentum=0.1, affine=True, track_running_stats=True)
          (relu): ReLU()
        )
        (1): BasicConv2d(
          (conv): Conv2d(32, 32, kernel_size=(3, 3), stride=(1, 1), padding=(1, 1), bias=False)
          (bn): BatchNorm2d(32, eps=0.001, momentum=0.1, affine=True, track_running_stats=True)
          (relu): ReLU()
        )
      )
      (branch2): Sequential(
        (0): BasicConv2d(
          (conv): Conv2d(256, 32, kernel_size=(1, 1), stride=(1, 1), bias=False)
          (bn): BatchNorm2d(32, eps=0.001, momentum=0.1, affine=True, track_running_stats=True)
          (relu): ReLU()
        )
        (1): BasicConv2d(
          (conv): Conv2d(32, 32, kernel_size=(3, 3), stride=(1, 1), padding=(1, 1), bias=False)
          (bn): BatchNorm2d(32, eps=0.001, momentum=0.1, affine=True, track_running_stats=True)
          (relu): ReLU()
        )
        (2): BasicConv2d(
          (conv): Conv2d(32, 32, kernel_size=(3, 3), stride=(1, 1), padding=(1, 1), bias=False)
          (bn): BatchNorm2d(32, eps=0.001, momentum=0.1, affine=True, track_running_stats=True)
          (relu): ReLU()
        )
      )
      (conv2d): Conv2d(96, 256, kernel_size=(1, 1), stride=(1, 1))
      (relu): ReLU()
    )
    (6): Block35(
      (branch0): BasicConv2d(
        (conv): Conv2d(256, 32, kernel_size=(1, 1), stride=(1, 1), bias=False)
        (bn): BatchNorm2d(32, eps=0.001, momentum=0.1, affine=True, track_running_stats=True)
        (relu): ReLU()
      )
      (branch1): Sequential(
        (0): BasicConv2d(
          (conv): Conv2d(256, 32, kernel_size=(1, 1), stride=(1, 1), bias=False)
          (bn): BatchNorm2d(32, eps=0.001, momentum=0.1, affine=True, track_running_stats=True)
          (relu): ReLU()
        )
        (1): BasicConv2d(
          (conv): Conv2d(32, 32, kernel_size=(3, 3), stride=(1, 1), padding=(1, 1), bias=False)
          (bn): BatchNorm2d(32, eps=0.001, momentum=0.1, affine=True, track_running_stats=True)
          (relu): ReLU()
        )
      )
      (branch2): Sequential(
        (0): BasicConv2d(
          (conv): Conv2d(256, 32, kernel_size=(1, 1), stride=(1, 1), bias=False)
          (bn): BatchNorm2d(32, eps=0.001, momentum=0.1, affine=True, track_running_stats=True)
          (relu): ReLU()
        )
        (1): BasicConv2d(
          (conv): Conv2d(32, 32, kernel_size=(3, 3), stride=(1, 1), padding=(1, 1), bias=False)
          (bn): BatchNorm2d(32, eps=0.001, momentum=0.1, affine=True, track_running_stats=True)
          (relu): ReLU()
        )
        (2): BasicConv2d(
          (conv): Conv2d(32, 32, kernel_size=(3, 3), stride=(1, 1), padding=(1, 1), bias=False)
          (bn): BatchNorm2d(32, eps=0.001, momentum=0.1, affine=True, track_running_stats=True)
          (relu): ReLU()
        )
      )
      (conv2d): Conv2d(96, 256, kernel_size=(1, 1), stride=(1, 1))
      (relu): ReLU()
    )
    (7): Block35(
      (branch0): BasicConv2d(
        (conv): Conv2d(256, 32, kernel_size=(1, 1), stride=(1, 1), bias=False)
        (bn): BatchNorm2d(32, eps=0.001, momentum=0.1, affine=True, track_running_stats=True)
        (relu): ReLU()
      )
      (branch1): Sequential(
        (0): BasicConv2d(
          (conv): Conv2d(256, 32, kernel_size=(1, 1), stride=(1, 1), bias=False)
          (bn): BatchNorm2d(32, eps=0.001, momentum=0.1, affine=True, track_running_stats=True)
          (relu): ReLU()
        )
        (1): BasicConv2d(
          (conv): Conv2d(32, 32, kernel_size=(3, 3), stride=(1, 1), padding=(1, 1), bias=False)
          (bn): BatchNorm2d(32, eps=0.001, momentum=0.1, affine=True, track_running_stats=True)
          (relu): ReLU()
        )
      )
      (branch2): Sequential(
        (0): BasicConv2d(
          (conv): Conv2d(256, 32, kernel_size=(1, 1), stride=(1, 1), bias=False)
          (bn): BatchNorm2d(32, eps=0.001, momentum=0.1, affine=True, track_running_stats=True)
          (relu): ReLU()
        )
        (1): BasicConv2d(
          (conv): Conv2d(32, 32, kernel_size=(3, 3), stride=(1, 1), padding=(1, 1), bias=False)
          (bn): BatchNorm2d(32, eps=0.001, momentum=0.1, affine=True, track_running_stats=True)
          (relu): ReLU()
        )
        (2): BasicConv2d(
          (conv): Conv2d(32, 32, kernel_size=(3, 3), stride=(1, 1), padding=(1, 1), bias=False)
          (bn): BatchNorm2d(32, eps=0.001, momentum=0.1, affine=True, track_running_stats=True)
          (relu): ReLU()
        )
      )
      (conv2d): Conv2d(96, 256, kernel_size=(1, 1), stride=(1, 1))
      (relu): ReLU()
    )
    (8): Block35(
      (branch0): BasicConv2d(
        (conv): Conv2d(256, 32, kernel_size=(1, 1), stride=(1, 1), bias=False)
        (bn): BatchNorm2d(32, eps=0.001, momentum=0.1, affine=True, track_running_stats=True)
        (relu): ReLU()
      )
      (branch1): Sequential(
        (0): BasicConv2d(
          (conv): Conv2d(256, 32, kernel_size=(1, 1), stride=(1, 1), bias=False)
          (bn): BatchNorm2d(32, eps=0.001, momentum=0.1, affine=True, track_running_stats=True)
          (relu): ReLU()
        )
        (1): BasicConv2d(
          (conv): Conv2d(32, 32, kernel_size=(3, 3), stride=(1, 1), padding=(1, 1), bias=False)
          (bn): BatchNorm2d(32, eps=0.001, momentum=0.1, affine=True, track_running_stats=True)
          (relu): ReLU()
        )
      )
      (branch2): Sequential(
        (0): BasicConv2d(
          (conv): Conv2d(256, 32, kernel_size=(1, 1), stride=(1, 1), bias=False)
          (bn): BatchNorm2d(32, eps=0.001, momentum=0.1, affine=True, track_running_stats=True)
          (relu): ReLU()
        )
        (1): BasicConv2d(
          (conv): Conv2d(32, 32, kernel_size=(3, 3), stride=(1, 1), padding=(1, 1), bias=False)
          (bn): BatchNorm2d(32, eps=0.001, momentum=0.1, affine=True, track_running_stats=True)
          (relu): ReLU()
        )
        (2): BasicConv2d(
          (conv): Conv2d(32, 32, kernel_size=(3, 3), stride=(1, 1), padding=(1, 1), bias=False)
          (bn): BatchNorm2d(32, eps=0.001, momentum=0.1, affine=True, track_running_stats=True)
          (relu): ReLU()
        )
      )
      (conv2d): Conv2d(96, 256, kernel_size=(1, 1), stride=(1, 1))
      (relu): ReLU()
    )
    (9): Block35(
      (branch0): BasicConv2d(
        (conv): Conv2d(256, 32, kernel_size=(1, 1), stride=(1, 1), bias=False)
        (bn): BatchNorm2d(32, eps=0.001, momentum=0.1, affine=True, track_running_stats=True)
        (relu): ReLU()
      )
      (branch1): Sequential(
        (0): BasicConv2d(
          (conv): Conv2d(256, 32, kernel_size=(1, 1), stride=(1, 1), bias=False)
          (bn): BatchNorm2d(32, eps=0.001, momentum=0.1, affine=True, track_running_stats=True)
          (relu): ReLU()
        )
        (1): BasicConv2d(
          (conv): Conv2d(32, 32, kernel_size=(3, 3), stride=(1, 1), padding=(1, 1), bias=False)
          (bn): BatchNorm2d(32, eps=0.001, momentum=0.1, affine=True, track_running_stats=True)
          (relu): ReLU()
        )
      )
      (branch2): Sequential(
        (0): BasicConv2d(
          (conv): Conv2d(256, 32, kernel_size=(1, 1), stride=(1, 1), bias=False)
          (bn): BatchNorm2d(32, eps=0.001, momentum=0.1, affine=True, track_running_stats=True)
          (relu): ReLU()
        )
        (1): BasicConv2d(
          (conv): Conv2d(32, 32, kernel_size=(3, 3), stride=(1, 1), padding=(1, 1), bias=False)
          (bn): BatchNorm2d(32, eps=0.001, momentum=0.1, affine=True, track_running_stats=True)
          (relu): ReLU()
        )
        (2): BasicConv2d(
          (conv): Conv2d(32, 32, kernel_size=(3, 3), stride=(1, 1), padding=(1, 1), bias=False)
          (bn): BatchNorm2d(32, eps=0.001, momentum=0.1, affine=True, track_running_stats=True)
          (relu): ReLU()
        )
      )
      (conv2d): Conv2d(96, 256, kernel_size=(1, 1), stride=(1, 1))
      (relu): ReLU()
    )
  )
  (mixed_6a): Mixed_6a(
    (branch0): BasicConv2d(
      (conv): Conv2d(256, 384, kernel_size=(3, 3), stride=(2, 2), bias=False)
      (bn): BatchNorm2d(384, eps=0.001, momentum=0.1, affine=True, track_running_stats=True)
      (relu): ReLU()
    )
    (branch1): Sequential(
      (0): BasicConv2d(
        (conv): Conv2d(256, 192, kernel_size=(1, 1), stride=(1, 1), bias=False)
        (bn): BatchNorm2d(192, eps=0.001, momentum=0.1, affine=True, track_running_stats=True)
        (relu): ReLU()
      )
      (1): BasicConv2d(
        (conv): Conv2d(192, 192, kernel_size=(3, 3), stride=(1, 1), padding=(1, 1), bias=False)
        (bn): BatchNorm2d(192, eps=0.001, momentum=0.1, affine=True, track_running_stats=True)
        (relu): ReLU()
      )
      (2): BasicConv2d(
        (conv): Conv2d(192, 256, kernel_size=(3, 3), stride=(2, 2), bias=False)
        (bn): BatchNorm2d(256, eps=0.001, momentum=0.1, affine=True, track_running_stats=True)
        (relu): ReLU()
      )
    )
    (branch2): MaxPool2d(kernel_size=3, stride=2, padding=0, dilation=1, ceil_mode=False)
  )
  (repeat1): Sequential(
    (0): Block17(
      (branch0): BasicConv2d(
        (conv): Conv2d(896, 128, kernel_size=(1, 1), stride=(1, 1), bias=False)
        (bn): BatchNorm2d(128, eps=0.001, momentum=0.1, affine=True, track_running_stats=True)
        (relu): ReLU()
      )
      (branch1): Sequential(
        (0): BasicConv2d(
          (conv): Conv2d(896, 128, kernel_size=(1, 1), stride=(1, 1), bias=False)
          (bn): BatchNorm2d(128, eps=0.001, momentum=0.1, affine=True, track_running_stats=True)
          (relu): ReLU()
        )
        (1): BasicConv2d(
          (conv): Conv2d(128, 128, kernel_size=(1, 7), stride=(1, 1), padding=(0, 3), bias=False)
          (bn): BatchNorm2d(128, eps=0.001, momentum=0.1, affine=True, track_running_stats=True)
          (relu): ReLU()
        )
        (2): BasicConv2d(
          (conv): Conv2d(128, 128, kernel_size=(7, 1), stride=(1, 1), padding=(3, 0), bias=False)
          (bn): BatchNorm2d(128, eps=0.001, momentum=0.1, affine=True, track_running_stats=True)
          (relu): ReLU()
        )
      )
      (conv2d): Conv2d(256, 896, kernel_size=(1, 1), stride=(1, 1))
      (relu): ReLU()
    )
    (1): Block17(
      (branch0): BasicConv2d(
        (conv): Conv2d(896, 128, kernel_size=(1, 1), stride=(1, 1), bias=False)
        (bn): BatchNorm2d(128, eps=0.001, momentum=0.1, affine=True, track_running_stats=True)
        (relu): ReLU()
      )
      (branch1): Sequential(
        (0): BasicConv2d(
          (conv): Conv2d(896, 128, kernel_size=(1, 1), stride=(1, 1), bias=False)
          (bn): BatchNorm2d(128, eps=0.001, momentum=0.1, affine=True, track_running_stats=True)
          (relu): ReLU()
        )
        (1): BasicConv2d(
          (conv): Conv2d(128, 128, kernel_size=(1, 7), stride=(1, 1), padding=(0, 3), bias=False)
          (bn): BatchNorm2d(128, eps=0.001, momentum=0.1, affine=True, track_running_stats=True)
          (relu): ReLU()
        )
        (2): BasicConv2d(
          (conv): Conv2d(128, 128, kernel_size=(7, 1), stride=(1, 1), padding=(3, 0), bias=False)
          (bn): BatchNorm2d(128, eps=0.001, momentum=0.1, affine=True, track_running_stats=True)
          (relu): ReLU()
        )
      )
      (conv2d): Conv2d(256, 896, kernel_size=(1, 1), stride=(1, 1))
      (relu): ReLU()
    )
    (2): Block17(
      (branch0): BasicConv2d(
        (conv): Conv2d(896, 128, kernel_size=(1, 1), stride=(1, 1), bias=False)
        (bn): BatchNorm2d(128, eps=0.001, momentum=0.1, affine=True, track_running_stats=True)
        (relu): ReLU()
      )
      (branch1): Sequential(
        (0): BasicConv2d(
          (conv): Conv2d(896, 128, kernel_size=(1, 1), stride=(1, 1), bias=False)
          (bn): BatchNorm2d(128, eps=0.001, momentum=0.1, affine=True, track_running_stats=True)
          (relu): ReLU()
        )
        (1): BasicConv2d(
          (conv): Conv2d(128, 128, kernel_size=(1, 7), stride=(1, 1), padding=(0, 3), bias=False)
          (bn): BatchNorm2d(128, eps=0.001, momentum=0.1, affine=True, track_running_stats=True)
          (relu): ReLU()
        )
        (2): BasicConv2d(
          (conv): Conv2d(128, 128, kernel_size=(7, 1), stride=(1, 1), padding=(3, 0), bias=False)
          (bn): BatchNorm2d(128, eps=0.001, momentum=0.1, affine=True, track_running_stats=True)
          (relu): ReLU()
        )
      )
      (conv2d): Conv2d(256, 896, kernel_size=(1, 1), stride=(1, 1))
      (relu): ReLU()
    )
    (3): Block17(
      (branch0): BasicConv2d(
        (conv): Conv2d(896, 128, kernel_size=(1, 1), stride=(1, 1), bias=False)
        (bn): BatchNorm2d(128, eps=0.001, momentum=0.1, affine=True, track_running_stats=True)
        (relu): ReLU()
      )
      (branch1): Sequential(
        (0): BasicConv2d(
          (conv): Conv2d(896, 128, kernel_size=(1, 1), stride=(1, 1), bias=False)
          (bn): BatchNorm2d(128, eps=0.001, momentum=0.1, affine=True, track_running_stats=True)
          (relu): ReLU()
        )
        (1): BasicConv2d(
          (conv): Conv2d(128, 128, kernel_size=(1, 7), stride=(1, 1), padding=(0, 3), bias=False)
          (bn): BatchNorm2d(128, eps=0.001, momentum=0.1, affine=True, track_running_stats=True)
          (relu): ReLU()
        )
        (2): BasicConv2d(
          (conv): Conv2d(128, 128, kernel_size=(7, 1), stride=(1, 1), padding=(3, 0), bias=False)
          (bn): BatchNorm2d(128, eps=0.001, momentum=0.1, affine=True, track_running_stats=True)
          (relu): ReLU()
        )
      )
      (conv2d): Conv2d(256, 896, kernel_size=(1, 1), stride=(1, 1))
      (relu): ReLU()
    )
    (4): Block17(
      (branch0): BasicConv2d(
        (conv): Conv2d(896, 128, kernel_size=(1, 1), stride=(1, 1), bias=False)
        (bn): BatchNorm2d(128, eps=0.001, momentum=0.1, affine=True, track_running_stats=True)
        (relu): ReLU()
      )
      (branch1): Sequential(
        (0): BasicConv2d(
          (conv): Conv2d(896, 128, kernel_size=(1, 1), stride=(1, 1), bias=False)
          (bn): BatchNorm2d(128, eps=0.001, momentum=0.1, affine=True, track_running_stats=True)
          (relu): ReLU()
        )
        (1): BasicConv2d(
          (conv): Conv2d(128, 128, kernel_size=(1, 7), stride=(1, 1), padding=(0, 3), bias=False)
          (bn): BatchNorm2d(128, eps=0.001, momentum=0.1, affine=True, track_running_stats=True)
          (relu): ReLU()
        )
        (2): BasicConv2d(
          (conv): Conv2d(128, 128, kernel_size=(7, 1), stride=(1, 1), padding=(3, 0), bias=False)
          (bn): BatchNorm2d(128, eps=0.001, momentum=0.1, affine=True, track_running_stats=True)
          (relu): ReLU()
        )
      )
      (conv2d): Conv2d(256, 896, kernel_size=(1, 1), stride=(1, 1))
      (relu): ReLU()
    )
    (5): Block17(
      (branch0): BasicConv2d(
        (conv): Conv2d(896, 128, kernel_size=(1, 1), stride=(1, 1), bias=False)
        (bn): BatchNorm2d(128, eps=0.001, momentum=0.1, affine=True, track_running_stats=True)
        (relu): ReLU()
      )
      (branch1): Sequential(
        (0): BasicConv2d(
          (conv): Conv2d(896, 128, kernel_size=(1, 1), stride=(1, 1), bias=False)
          (bn): BatchNorm2d(128, eps=0.001, momentum=0.1, affine=True, track_running_stats=True)
          (relu): ReLU()
        )
        (1): BasicConv2d(
          (conv): Conv2d(128, 128, kernel_size=(1, 7), stride=(1, 1), padding=(0, 3), bias=False)
          (bn): BatchNorm2d(128, eps=0.001, momentum=0.1, affine=True, track_running_stats=True)
          (relu): ReLU()
        )
        (2): BasicConv2d(
          (conv): Conv2d(128, 128, kernel_size=(7, 1), stride=(1, 1), padding=(3, 0), bias=False)
          (bn): BatchNorm2d(128, eps=0.001, momentum=0.1, affine=True, track_running_stats=True)
          (relu): ReLU()
        )
      )
      (conv2d): Conv2d(256, 896, kernel_size=(1, 1), stride=(1, 1))
      (relu): ReLU()
    )
    (6): Block17(
      (branch0): BasicConv2d(
        (conv): Conv2d(896, 128, kernel_size=(1, 1), stride=(1, 1), bias=False)
        (bn): BatchNorm2d(128, eps=0.001, momentum=0.1, affine=True, track_running_stats=True)
        (relu): ReLU()
      )
      (branch1): Sequential(
        (0): BasicConv2d(
          (conv): Conv2d(896, 128, kernel_size=(1, 1), stride=(1, 1), bias=False)
          (bn): BatchNorm2d(128, eps=0.001, momentum=0.1, affine=True, track_running_stats=True)
          (relu): ReLU()
        )
        (1): BasicConv2d(
          (conv): Conv2d(128, 128, kernel_size=(1, 7), stride=(1, 1), padding=(0, 3), bias=False)
          (bn): BatchNorm2d(128, eps=0.001, momentum=0.1, affine=True, track_running_stats=True)
          (relu): ReLU()
        )
        (2): BasicConv2d(
          (conv): Conv2d(128, 128, kernel_size=(7, 1), stride=(1, 1), padding=(3, 0), bias=False)
          (bn): BatchNorm2d(128, eps=0.001, momentum=0.1, affine=True, track_running_stats=True)
          (relu): ReLU()
        )
      )
      (conv2d): Conv2d(256, 896, kernel_size=(1, 1), stride=(1, 1))
      (relu): ReLU()
    )
    (7): Block17(
      (branch0): BasicConv2d(
        (conv): Conv2d(896, 128, kernel_size=(1, 1), stride=(1, 1), bias=False)
        (bn): BatchNorm2d(128, eps=0.001, momentum=0.1, affine=True, track_running_stats=True)
        (relu): ReLU()
      )
      (branch1): Sequential(
        (0): BasicConv2d(
          (conv): Conv2d(896, 128, kernel_size=(1, 1), stride=(1, 1), bias=False)
          (bn): BatchNorm2d(128, eps=0.001, momentum=0.1, affine=True, track_running_stats=True)
          (relu): ReLU()
        )
        (1): BasicConv2d(
          (conv): Conv2d(128, 128, kernel_size=(1, 7), stride=(1, 1), padding=(0, 3), bias=False)
          (bn): BatchNorm2d(128, eps=0.001, momentum=0.1, affine=True, track_running_stats=True)
          (relu): ReLU()
        )
        (2): BasicConv2d(
          (conv): Conv2d(128, 128, kernel_size=(7, 1), stride=(1, 1), padding=(3, 0), bias=False)
          (bn): BatchNorm2d(128, eps=0.001, momentum=0.1, affine=True, track_running_stats=True)
          (relu): ReLU()
        )
      )
      (conv2d): Conv2d(256, 896, kernel_size=(1, 1), stride=(1, 1))
      (relu): ReLU()
    )
    (8): Block17(
      (branch0): BasicConv2d(
        (conv): Conv2d(896, 128, kernel_size=(1, 1), stride=(1, 1), bias=False)
        (bn): BatchNorm2d(128, eps=0.001, momentum=0.1, affine=True, track_running_stats=True)
        (relu): ReLU()
      )
      (branch1): Sequential(
        (0): BasicConv2d(
          (conv): Conv2d(896, 128, kernel_size=(1, 1), stride=(1, 1), bias=False)
          (bn): BatchNorm2d(128, eps=0.001, momentum=0.1, affine=True, track_running_stats=True)
          (relu): ReLU()
        )
        (1): BasicConv2d(
          (conv): Conv2d(128, 128, kernel_size=(1, 7), stride=(1, 1), padding=(0, 3), bias=False)
          (bn): BatchNorm2d(128, eps=0.001, momentum=0.1, affine=True, track_running_stats=True)
          (relu): ReLU()
        )
        (2): BasicConv2d(
          (conv): Conv2d(128, 128, kernel_size=(7, 1), stride=(1, 1), padding=(3, 0), bias=False)
          (bn): BatchNorm2d(128, eps=0.001, momentum=0.1, affine=True, track_running_stats=True)
          (relu): ReLU()
        )
      )
      (conv2d): Conv2d(256, 896, kernel_size=(1, 1), stride=(1, 1))
      (relu): ReLU()
    )
    (9): Block17(
      (branch0): BasicConv2d(
        (conv): Conv2d(896, 128, kernel_size=(1, 1), stride=(1, 1), bias=False)
        (bn): BatchNorm2d(128, eps=0.001, momentum=0.1, affine=True, track_running_stats=True)
        (relu): ReLU()
      )
      (branch1): Sequential(
        (0): BasicConv2d(
          (conv): Conv2d(896, 128, kernel_size=(1, 1), stride=(1, 1), bias=False)
          (bn): BatchNorm2d(128, eps=0.001, momentum=0.1, affine=True, track_running_stats=True)
          (relu): ReLU()
        )
        (1): BasicConv2d(
          (conv): Conv2d(128, 128, kernel_size=(1, 7), stride=(1, 1), padding=(0, 3), bias=False)
          (bn): BatchNorm2d(128, eps=0.001, momentum=0.1, affine=True, track_running_stats=True)
          (relu): ReLU()
        )
        (2): BasicConv2d(
          (conv): Conv2d(128, 128, kernel_size=(7, 1), stride=(1, 1), padding=(3, 0), bias=False)
          (bn): BatchNorm2d(128, eps=0.001, momentum=0.1, affine=True, track_running_stats=True)
          (relu): ReLU()
        )
      )
      (conv2d): Conv2d(256, 896, kernel_size=(1, 1), stride=(1, 1))
      (relu): ReLU()
    )
    (10): Block17(
      (branch0): BasicConv2d(
        (conv): Conv2d(896, 128, kernel_size=(1, 1), stride=(1, 1), bias=False)
        (bn): BatchNorm2d(128, eps=0.001, momentum=0.1, affine=True, track_running_stats=True)
        (relu): ReLU()
      )
      (branch1): Sequential(
        (0): BasicConv2d(
          (conv): Conv2d(896, 128, kernel_size=(1, 1), stride=(1, 1), bias=False)
          (bn): BatchNorm2d(128, eps=0.001, momentum=0.1, affine=True, track_running_stats=True)
          (relu): ReLU()
        )
        (1): BasicConv2d(
          (conv): Conv2d(128, 128, kernel_size=(1, 7), stride=(1, 1), padding=(0, 3), bias=False)
          (bn): BatchNorm2d(128, eps=0.001, momentum=0.1, affine=True, track_running_stats=True)
          (relu): ReLU()
        )
        (2): BasicConv2d(
          (conv): Conv2d(128, 128, kernel_size=(7, 1), stride=(1, 1), padding=(3, 0), bias=False)
          (bn): BatchNorm2d(128, eps=0.001, momentum=0.1, affine=True, track_running_stats=True)
          (relu): ReLU()
        )
      )
      (conv2d): Conv2d(256, 896, kernel_size=(1, 1), stride=(1, 1))
      (relu): ReLU()
    )
    (11): Block17(
      (branch0): BasicConv2d(
        (conv): Conv2d(896, 128, kernel_size=(1, 1), stride=(1, 1), bias=False)
        (bn): BatchNorm2d(128, eps=0.001, momentum=0.1, affine=True, track_running_stats=True)
        (relu): ReLU()
      )
      (branch1): Sequential(
        (0): BasicConv2d(
          (conv): Conv2d(896, 128, kernel_size=(1, 1), stride=(1, 1), bias=False)
          (bn): BatchNorm2d(128, eps=0.001, momentum=0.1, affine=True, track_running_stats=True)
          (relu): ReLU()
        )
        (1): BasicConv2d(
          (conv): Conv2d(128, 128, kernel_size=(1, 7), stride=(1, 1), padding=(0, 3), bias=False)
          (bn): BatchNorm2d(128, eps=0.001, momentum=0.1, affine=True, track_running_stats=True)
          (relu): ReLU()
        )
        (2): BasicConv2d(
          (conv): Conv2d(128, 128, kernel_size=(7, 1), stride=(1, 1), padding=(3, 0), bias=False)
          (bn): BatchNorm2d(128, eps=0.001, momentum=0.1, affine=True, track_running_stats=True)
          (relu): ReLU()
        )
      )
      (conv2d): Conv2d(256, 896, kernel_size=(1, 1), stride=(1, 1))
      (relu): ReLU()
    )
    (12): Block17(
      (branch0): BasicConv2d(
        (conv): Conv2d(896, 128, kernel_size=(1, 1), stride=(1, 1), bias=False)
        (bn): BatchNorm2d(128, eps=0.001, momentum=0.1, affine=True, track_running_stats=True)
        (relu): ReLU()
      )
      (branch1): Sequential(
        (0): BasicConv2d(
          (conv): Conv2d(896, 128, kernel_size=(1, 1), stride=(1, 1), bias=False)
          (bn): BatchNorm2d(128, eps=0.001, momentum=0.1, affine=True, track_running_stats=True)
          (relu): ReLU()
        )
        (1): BasicConv2d(
          (conv): Conv2d(128, 128, kernel_size=(1, 7), stride=(1, 1), padding=(0, 3), bias=False)
          (bn): BatchNorm2d(128, eps=0.001, momentum=0.1, affine=True, track_running_stats=True)
          (relu): ReLU()
        )
        (2): BasicConv2d(
          (conv): Conv2d(128, 128, kernel_size=(7, 1), stride=(1, 1), padding=(3, 0), bias=False)
          (bn): BatchNorm2d(128, eps=0.001, momentum=0.1, affine=True, track_running_stats=True)
          (relu): ReLU()
        )
      )
      (conv2d): Conv2d(256, 896, kernel_size=(1, 1), stride=(1, 1))
      (relu): ReLU()
    )
    (13): Block17(
      (branch0): BasicConv2d(
        (conv): Conv2d(896, 128, kernel_size=(1, 1), stride=(1, 1), bias=False)
        (bn): BatchNorm2d(128, eps=0.001, momentum=0.1, affine=True, track_running_stats=True)
        (relu): ReLU()
      )
      (branch1): Sequential(
        (0): BasicConv2d(
          (conv): Conv2d(896, 128, kernel_size=(1, 1), stride=(1, 1), bias=False)
          (bn): BatchNorm2d(128, eps=0.001, momentum=0.1, affine=True, track_running_stats=True)
          (relu): ReLU()
        )
        (1): BasicConv2d(
          (conv): Conv2d(128, 128, kernel_size=(1, 7), stride=(1, 1), padding=(0, 3), bias=False)
          (bn): BatchNorm2d(128, eps=0.001, momentum=0.1, affine=True, track_running_stats=True)
          (relu): ReLU()
        )
        (2): BasicConv2d(
          (conv): Conv2d(128, 128, kernel_size=(7, 1), stride=(1, 1), padding=(3, 0), bias=False)
          (bn): BatchNorm2d(128, eps=0.001, momentum=0.1, affine=True, track_running_stats=True)
          (relu): ReLU()
        )
      )
      (conv2d): Conv2d(256, 896, kernel_size=(1, 1), stride=(1, 1))
      (relu): ReLU()
    )
    (14): Block17(
      (branch0): BasicConv2d(
        (conv): Conv2d(896, 128, kernel_size=(1, 1), stride=(1, 1), bias=False)
        (bn): BatchNorm2d(128, eps=0.001, momentum=0.1, affine=True, track_running_stats=True)
        (relu): ReLU()
      )
      (branch1): Sequential(
        (0): BasicConv2d(
          (conv): Conv2d(896, 128, kernel_size=(1, 1), stride=(1, 1), bias=False)
          (bn): BatchNorm2d(128, eps=0.001, momentum=0.1, affine=True, track_running_stats=True)
          (relu): ReLU()
        )
        (1): BasicConv2d(
          (conv): Conv2d(128, 128, kernel_size=(1, 7), stride=(1, 1), padding=(0, 3), bias=False)
          (bn): BatchNorm2d(128, eps=0.001, momentum=0.1, affine=True, track_running_stats=True)
          (relu): ReLU()
        )
        (2): BasicConv2d(
          (conv): Conv2d(128, 128, kernel_size=(7, 1), stride=(1, 1), padding=(3, 0), bias=False)
          (bn): BatchNorm2d(128, eps=0.001, momentum=0.1, affine=True, track_running_stats=True)
          (relu): ReLU()
        )
      )
      (conv2d): Conv2d(256, 896, kernel_size=(1, 1), stride=(1, 1))
      (relu): ReLU()
    )
    (15): Block17(
      (branch0): BasicConv2d(
        (conv): Conv2d(896, 128, kernel_size=(1, 1), stride=(1, 1), bias=False)
        (bn): BatchNorm2d(128, eps=0.001, momentum=0.1, affine=True, track_running_stats=True)
        (relu): ReLU()
      )
      (branch1): Sequential(
        (0): BasicConv2d(
          (conv): Conv2d(896, 128, kernel_size=(1, 1), stride=(1, 1), bias=False)
          (bn): BatchNorm2d(128, eps=0.001, momentum=0.1, affine=True, track_running_stats=True)
          (relu): ReLU()
        )
        (1): BasicConv2d(
          (conv): Conv2d(128, 128, kernel_size=(1, 7), stride=(1, 1), padding=(0, 3), bias=False)
          (bn): BatchNorm2d(128, eps=0.001, momentum=0.1, affine=True, track_running_stats=True)
          (relu): ReLU()
        )
        (2): BasicConv2d(
          (conv): Conv2d(128, 128, kernel_size=(7, 1), stride=(1, 1), padding=(3, 0), bias=False)
          (bn): BatchNorm2d(128, eps=0.001, momentum=0.1, affine=True, track_running_stats=True)
          (relu): ReLU()
        )
      )
      (conv2d): Conv2d(256, 896, kernel_size=(1, 1), stride=(1, 1))
      (relu): ReLU()
    )
    (16): Block17(
      (branch0): BasicConv2d(
        (conv): Conv2d(896, 128, kernel_size=(1, 1), stride=(1, 1), bias=False)
        (bn): BatchNorm2d(128, eps=0.001, momentum=0.1, affine=True, track_running_stats=True)
        (relu): ReLU()
      )
      (branch1): Sequential(
        (0): BasicConv2d(
          (conv): Conv2d(896, 128, kernel_size=(1, 1), stride=(1, 1), bias=False)
          (bn): BatchNorm2d(128, eps=0.001, momentum=0.1, affine=True, track_running_stats=True)
          (relu): ReLU()
        )
        (1): BasicConv2d(
          (conv): Conv2d(128, 128, kernel_size=(1, 7), stride=(1, 1), padding=(0, 3), bias=False)
          (bn): BatchNorm2d(128, eps=0.001, momentum=0.1, affine=True, track_running_stats=True)
          (relu): ReLU()
        )
        (2): BasicConv2d(
          (conv): Conv2d(128, 128, kernel_size=(7, 1), stride=(1, 1), padding=(3, 0), bias=False)
          (bn): BatchNorm2d(128, eps=0.001, momentum=0.1, affine=True, track_running_stats=True)
          (relu): ReLU()
        )
      )
      (conv2d): Conv2d(256, 896, kernel_size=(1, 1), stride=(1, 1))
      (relu): ReLU()
    )
    (17): Block17(
      (branch0): BasicConv2d(
        (conv): Conv2d(896, 128, kernel_size=(1, 1), stride=(1, 1), bias=False)
        (bn): BatchNorm2d(128, eps=0.001, momentum=0.1, affine=True, track_running_stats=True)
        (relu): ReLU()
      )
      (branch1): Sequential(
        (0): BasicConv2d(
          (conv): Conv2d(896, 128, kernel_size=(1, 1), stride=(1, 1), bias=False)
          (bn): BatchNorm2d(128, eps=0.001, momentum=0.1, affine=True, track_running_stats=True)
          (relu): ReLU()
        )
        (1): BasicConv2d(
          (conv): Conv2d(128, 128, kernel_size=(1, 7), stride=(1, 1), padding=(0, 3), bias=False)
          (bn): BatchNorm2d(128, eps=0.001, momentum=0.1, affine=True, track_running_stats=True)
          (relu): ReLU()
        )
        (2): BasicConv2d(
          (conv): Conv2d(128, 128, kernel_size=(7, 1), stride=(1, 1), padding=(3, 0), bias=False)
          (bn): BatchNorm2d(128, eps=0.001, momentum=0.1, affine=True, track_running_stats=True)
          (relu): ReLU()
        )
      )
      (conv2d): Conv2d(256, 896, kernel_size=(1, 1), stride=(1, 1))
      (relu): ReLU()
    )
    (18): Block17(
      (branch0): BasicConv2d(
        (conv): Conv2d(896, 128, kernel_size=(1, 1), stride=(1, 1), bias=False)
        (bn): BatchNorm2d(128, eps=0.001, momentum=0.1, affine=True, track_running_stats=True)
        (relu): ReLU()
      )
      (branch1): Sequential(
        (0): BasicConv2d(
          (conv): Conv2d(896, 128, kernel_size=(1, 1), stride=(1, 1), bias=False)
          (bn): BatchNorm2d(128, eps=0.001, momentum=0.1, affine=True, track_running_stats=True)
          (relu): ReLU()
        )
        (1): BasicConv2d(
          (conv): Conv2d(128, 128, kernel_size=(1, 7), stride=(1, 1), padding=(0, 3), bias=False)
          (bn): BatchNorm2d(128, eps=0.001, momentum=0.1, affine=True, track_running_stats=True)
          (relu): ReLU()
        )
        (2): BasicConv2d(
          (conv): Conv2d(128, 128, kernel_size=(7, 1), stride=(1, 1), padding=(3, 0), bias=False)
          (bn): BatchNorm2d(128, eps=0.001, momentum=0.1, affine=True, track_running_stats=True)
          (relu): ReLU()
        )
      )
      (conv2d): Conv2d(256, 896, kernel_size=(1, 1), stride=(1, 1))
      (relu): ReLU()
    )
    (19): Block17(
      (branch0): BasicConv2d(
        (conv): Conv2d(896, 128, kernel_size=(1, 1), stride=(1, 1), bias=False)
        (bn): BatchNorm2d(128, eps=0.001, momentum=0.1, affine=True, track_running_stats=True)
        (relu): ReLU()
      )
      (branch1): Sequential(
        (0): BasicConv2d(
          (conv): Conv2d(896, 128, kernel_size=(1, 1), stride=(1, 1), bias=False)
          (bn): BatchNorm2d(128, eps=0.001, momentum=0.1, affine=True, track_running_stats=True)
          (relu): ReLU()
        )
        (1): BasicConv2d(
          (conv): Conv2d(128, 128, kernel_size=(1, 7), stride=(1, 1), padding=(0, 3), bias=False)
          (bn): BatchNorm2d(128, eps=0.001, momentum=0.1, affine=True, track_running_stats=True)
          (relu): ReLU()
        )
        (2): BasicConv2d(
          (conv): Conv2d(128, 128, kernel_size=(7, 1), stride=(1, 1), padding=(3, 0), bias=False)
          (bn): BatchNorm2d(128, eps=0.001, momentum=0.1, affine=True, track_running_stats=True)
          (relu): ReLU()
        )
      )
      (conv2d): Conv2d(256, 896, kernel_size=(1, 1), stride=(1, 1))
      (relu): ReLU()
    )
  )
  (mixed_7a): Mixed_7a(
    (branch0): Sequential(
      (0): BasicConv2d(
        (conv): Conv2d(896, 256, kernel_size=(1, 1), stride=(1, 1), bias=False)
        (bn): BatchNorm2d(256, eps=0.001, momentum=0.1, affine=True, track_running_stats=True)
        (relu): ReLU()
      )
      (1): BasicConv2d(
        (conv): Conv2d(256, 384, kernel_size=(3, 3), stride=(2, 2), bias=False)
        (bn): BatchNorm2d(384, eps=0.001, momentum=0.1, affine=True, track_running_stats=True)
        (relu): ReLU()
      )
    )
    (branch1): Sequential(
      (0): BasicConv2d(
        (conv): Conv2d(896, 256, kernel_size=(1, 1), stride=(1, 1), bias=False)
        (bn): BatchNorm2d(256, eps=0.001, momentum=0.1, affine=True, track_running_stats=True)
        (relu): ReLU()
      )
      (1): BasicConv2d(
        (conv): Conv2d(256, 256, kernel_size=(3, 3), stride=(2, 2), bias=False)
        (bn): BatchNorm2d(256, eps=0.001, momentum=0.1, affine=True, track_running_stats=True)
        (relu): ReLU()
      )
    )
    (branch2): Sequential(
      (0): BasicConv2d(
        (conv): Conv2d(896, 256, kernel_size=(1, 1), stride=(1, 1), bias=False)
        (bn): BatchNorm2d(256, eps=0.001, momentum=0.1, affine=True, track_running_stats=True)
        (relu): ReLU()
      )
      (1): BasicConv2d(
        (conv): Conv2d(256, 256, kernel_size=(3, 3), stride=(1, 1), padding=(1, 1), bias=False)
        (bn): BatchNorm2d(256, eps=0.001, momentum=0.1, affine=True, track_running_stats=True)
        (relu): ReLU()
      )
      (2): BasicConv2d(
        (conv): Conv2d(256, 256, kernel_size=(3, 3), stride=(2, 2), bias=False)
        (bn): BatchNorm2d(256, eps=0.001, momentum=0.1, affine=True, track_running_stats=True)
        (relu): ReLU()
      )
    )
    (branch3): MaxPool2d(kernel_size=3, stride=2, padding=0, dilation=1, ceil_mode=False)
  )
  (repeat2): Sequential(
    (0): Block8(
      (branch0): BasicConv2d(
        (conv): Conv2d(1792, 192, kernel_size=(1, 1), stride=(1, 1), bias=False)
        (bn): BatchNorm2d(192, eps=0.001, momentum=0.1, affine=True, track_running_stats=True)
        (relu): ReLU()
      )
      (branch1): Sequential(
        (0): BasicConv2d(
          (conv): Conv2d(1792, 192, kernel_size=(1, 1), stride=(1, 1), bias=False)
          (bn): BatchNorm2d(192, eps=0.001, momentum=0.1, affine=True, track_running_stats=True)
          (relu): ReLU()
        )
        (1): BasicConv2d(
          (conv): Conv2d(192, 192, kernel_size=(1, 3), stride=(1, 1), padding=(0, 1), bias=False)
          (bn): BatchNorm2d(192, eps=0.001, momentum=0.1, affine=True, track_running_stats=True)
          (relu): ReLU()
        )
        (2): BasicConv2d(
          (conv): Conv2d(192, 192, kernel_size=(3, 1), stride=(1, 1), padding=(1, 0), bias=False)
          (bn): BatchNorm2d(192, eps=0.001, momentum=0.1, affine=True, track_running_stats=True)
          (relu): ReLU()
        )
      )
      (conv2d): Conv2d(384, 1792, kernel_size=(1, 1), stride=(1, 1))
      (relu): ReLU()
    )
    (1): Block8(
      (branch0): BasicConv2d(
        (conv): Conv2d(1792, 192, kernel_size=(1, 1), stride=(1, 1), bias=False)
        (bn): BatchNorm2d(192, eps=0.001, momentum=0.1, affine=True, track_running_stats=True)
        (relu): ReLU()
      )
      (branch1): Sequential(
        (0): BasicConv2d(
          (conv): Conv2d(1792, 192, kernel_size=(1, 1), stride=(1, 1), bias=False)
          (bn): BatchNorm2d(192, eps=0.001, momentum=0.1, affine=True, track_running_stats=True)
          (relu): ReLU()
        )
        (1): BasicConv2d(
          (conv): Conv2d(192, 192, kernel_size=(1, 3), stride=(1, 1), padding=(0, 1), bias=False)
          (bn): BatchNorm2d(192, eps=0.001, momentum=0.1, affine=True, track_running_stats=True)
          (relu): ReLU()
        )
        (2): BasicConv2d(
          (conv): Conv2d(192, 192, kernel_size=(3, 1), stride=(1, 1), padding=(1, 0), bias=False)
          (bn): BatchNorm2d(192, eps=0.001, momentum=0.1, affine=True, track_running_stats=True)
          (relu): ReLU()
        )
      )
      (conv2d): Conv2d(384, 1792, kernel_size=(1, 1), stride=(1, 1))
      (relu): ReLU()
    )
    (2): Block8(
      (branch0): BasicConv2d(
        (conv): Conv2d(1792, 192, kernel_size=(1, 1), stride=(1, 1), bias=False)
        (bn): BatchNorm2d(192, eps=0.001, momentum=0.1, affine=True, track_running_stats=True)
        (relu): ReLU()
      )
      (branch1): Sequential(
        (0): BasicConv2d(
          (conv): Conv2d(1792, 192, kernel_size=(1, 1), stride=(1, 1), bias=False)
          (bn): BatchNorm2d(192, eps=0.001, momentum=0.1, affine=True, track_running_stats=True)
          (relu): ReLU()
        )
        (1): BasicConv2d(
          (conv): Conv2d(192, 192, kernel_size=(1, 3), stride=(1, 1), padding=(0, 1), bias=False)
          (bn): BatchNorm2d(192, eps=0.001, momentum=0.1, affine=True, track_running_stats=True)
          (relu): ReLU()
        )
        (2): BasicConv2d(
          (conv): Conv2d(192, 192, kernel_size=(3, 1), stride=(1, 1), padding=(1, 0), bias=False)
          (bn): BatchNorm2d(192, eps=0.001, momentum=0.1, affine=True, track_running_stats=True)
          (relu): ReLU()
        )
      )
      (conv2d): Conv2d(384, 1792, kernel_size=(1, 1), stride=(1, 1))
      (relu): ReLU()
    )
    (3): Block8(
      (branch0): BasicConv2d(
        (conv): Conv2d(1792, 192, kernel_size=(1, 1), stride=(1, 1), bias=False)
        (bn): BatchNorm2d(192, eps=0.001, momentum=0.1, affine=True, track_running_stats=True)
        (relu): ReLU()
      )
      (branch1): Sequential(
        (0): BasicConv2d(
          (conv): Conv2d(1792, 192, kernel_size=(1, 1), stride=(1, 1), bias=False)
          (bn): BatchNorm2d(192, eps=0.001, momentum=0.1, affine=True, track_running_stats=True)
          (relu): ReLU()
        )
        (1): BasicConv2d(
          (conv): Conv2d(192, 192, kernel_size=(1, 3), stride=(1, 1), padding=(0, 1), bias=False)
          (bn): BatchNorm2d(192, eps=0.001, momentum=0.1, affine=True, track_running_stats=True)
          (relu): ReLU()
        )
        (2): BasicConv2d(
          (conv): Conv2d(192, 192, kernel_size=(3, 1), stride=(1, 1), padding=(1, 0), bias=False)
          (bn): BatchNorm2d(192, eps=0.001, momentum=0.1, affine=True, track_running_stats=True)
          (relu): ReLU()
        )
      )
      (conv2d): Conv2d(384, 1792, kernel_size=(1, 1), stride=(1, 1))
      (relu): ReLU()
    )
    (4): Block8(
      (branch0): BasicConv2d(
        (conv): Conv2d(1792, 192, kernel_size=(1, 1), stride=(1, 1), bias=False)
        (bn): BatchNorm2d(192, eps=0.001, momentum=0.1, affine=True, track_running_stats=True)
        (relu): ReLU()
      )
      (branch1): Sequential(
        (0): BasicConv2d(
          (conv): Conv2d(1792, 192, kernel_size=(1, 1), stride=(1, 1), bias=False)
          (bn): BatchNorm2d(192, eps=0.001, momentum=0.1, affine=True, track_running_stats=True)
          (relu): ReLU()
        )
        (1): BasicConv2d(
          (conv): Conv2d(192, 192, kernel_size=(1, 3), stride=(1, 1), padding=(0, 1), bias=False)
          (bn): BatchNorm2d(192, eps=0.001, momentum=0.1, affine=True, track_running_stats=True)
          (relu): ReLU()
        )
        (2): BasicConv2d(
          (conv): Conv2d(192, 192, kernel_size=(3, 1), stride=(1, 1), padding=(1, 0), bias=False)
          (bn): BatchNorm2d(192, eps=0.001, momentum=0.1, affine=True, track_running_stats=True)
          (relu): ReLU()
        )
      )
      (conv2d): Conv2d(384, 1792, kernel_size=(1, 1), stride=(1, 1))
      (relu): ReLU()
    )
    (5): Block8(
      (branch0): BasicConv2d(
        (conv): Conv2d(1792, 192, kernel_size=(1, 1), stride=(1, 1), bias=False)
        (bn): BatchNorm2d(192, eps=0.001, momentum=0.1, affine=True, track_running_stats=True)
        (relu): ReLU()
      )
      (branch1): Sequential(
        (0): BasicConv2d(
          (conv): Conv2d(1792, 192, kernel_size=(1, 1), stride=(1, 1), bias=False)
          (bn): BatchNorm2d(192, eps=0.001, momentum=0.1, affine=True, track_running_stats=True)
          (relu): ReLU()
        )
        (1): BasicConv2d(
          (conv): Conv2d(192, 192, kernel_size=(1, 3), stride=(1, 1), padding=(0, 1), bias=False)
          (bn): BatchNorm2d(192, eps=0.001, momentum=0.1, affine=True, track_running_stats=True)
          (relu): ReLU()
        )
        (2): BasicConv2d(
          (conv): Conv2d(192, 192, kernel_size=(3, 1), stride=(1, 1), padding=(1, 0), bias=False)
          (bn): BatchNorm2d(192, eps=0.001, momentum=0.1, affine=True, track_running_stats=True)
          (relu): ReLU()
        )
      )
      (conv2d): Conv2d(384, 1792, kernel_size=(1, 1), stride=(1, 1))
      (relu): ReLU()
    )
    (6): Block8(
      (branch0): BasicConv2d(
        (conv): Conv2d(1792, 192, kernel_size=(1, 1), stride=(1, 1), bias=False)
        (bn): BatchNorm2d(192, eps=0.001, momentum=0.1, affine=True, track_running_stats=True)
        (relu): ReLU()
      )
      (branch1): Sequential(
        (0): BasicConv2d(
          (conv): Conv2d(1792, 192, kernel_size=(1, 1), stride=(1, 1), bias=False)
          (bn): BatchNorm2d(192, eps=0.001, momentum=0.1, affine=True, track_running_stats=True)
          (relu): ReLU()
        )
        (1): BasicConv2d(
          (conv): Conv2d(192, 192, kernel_size=(1, 3), stride=(1, 1), padding=(0, 1), bias=False)
          (bn): BatchNorm2d(192, eps=0.001, momentum=0.1, affine=True, track_running_stats=True)
          (relu): ReLU()
        )
        (2): BasicConv2d(
          (conv): Conv2d(192, 192, kernel_size=(3, 1), stride=(1, 1), padding=(1, 0), bias=False)
          (bn): BatchNorm2d(192, eps=0.001, momentum=0.1, affine=True, track_running_stats=True)
          (relu): ReLU()
        )
      )
      (conv2d): Conv2d(384, 1792, kernel_size=(1, 1), stride=(1, 1))
      (relu): ReLU()
    )
    (7): Block8(
      (branch0): BasicConv2d(
        (conv): Conv2d(1792, 192, kernel_size=(1, 1), stride=(1, 1), bias=False)
        (bn): BatchNorm2d(192, eps=0.001, momentum=0.1, affine=True, track_running_stats=True)
        (relu): ReLU()
      )
      (branch1): Sequential(
        (0): BasicConv2d(
          (conv): Conv2d(1792, 192, kernel_size=(1, 1), stride=(1, 1), bias=False)
          (bn): BatchNorm2d(192, eps=0.001, momentum=0.1, affine=True, track_running_stats=True)
          (relu): ReLU()
        )
        (1): BasicConv2d(
          (conv): Conv2d(192, 192, kernel_size=(1, 3), stride=(1, 1), padding=(0, 1), bias=False)
          (bn): BatchNorm2d(192, eps=0.001, momentum=0.1, affine=True, track_running_stats=True)
          (relu): ReLU()
        )
        (2): BasicConv2d(
          (conv): Conv2d(192, 192, kernel_size=(3, 1), stride=(1, 1), padding=(1, 0), bias=False)
          (bn): BatchNorm2d(192, eps=0.001, momentum=0.1, affine=True, track_running_stats=True)
          (relu): ReLU()
        )
      )
      (conv2d): Conv2d(384, 1792, kernel_size=(1, 1), stride=(1, 1))
      (relu): ReLU()
    )
    (8): Block8(
      (branch0): BasicConv2d(
        (conv): Conv2d(1792, 192, kernel_size=(1, 1), stride=(1, 1), bias=False)
        (bn): BatchNorm2d(192, eps=0.001, momentum=0.1, affine=True, track_running_stats=True)
        (relu): ReLU()
      )
      (branch1): Sequential(
        (0): BasicConv2d(
          (conv): Conv2d(1792, 192, kernel_size=(1, 1), stride=(1, 1), bias=False)
          (bn): BatchNorm2d(192, eps=0.001, momentum=0.1, affine=True, track_running_stats=True)
          (relu): ReLU()
        )
        (1): BasicConv2d(
          (conv): Conv2d(192, 192, kernel_size=(1, 3), stride=(1, 1), padding=(0, 1), bias=False)
          (bn): BatchNorm2d(192, eps=0.001, momentum=0.1, affine=True, track_running_stats=True)
          (relu): ReLU()
        )
        (2): BasicConv2d(
          (conv): Conv2d(192, 192, kernel_size=(3, 1), stride=(1, 1), padding=(1, 0), bias=False)
          (bn): BatchNorm2d(192, eps=0.001, momentum=0.1, affine=True, track_running_stats=True)
          (relu): ReLU()
        )
      )
      (conv2d): Conv2d(384, 1792, kernel_size=(1, 1), stride=(1, 1))
      (relu): ReLU()
    )
  )
  (block8): Block8(
    (branch0): BasicConv2d(
      (conv): Conv2d(1792, 192, kernel_size=(1, 1), stride=(1, 1), bias=False)
      (bn): BatchNorm2d(192, eps=0.001, momentum=0.1, affine=True, track_running_stats=True)
      (relu): ReLU()
    )
    (branch1): Sequential(
      (0): BasicConv2d(
        (conv): Conv2d(1792, 192, kernel_size=(1, 1), stride=(1, 1), bias=False)
        (bn): BatchNorm2d(192, eps=0.001, momentum=0.1, affine=True, track_running_stats=True)
        (relu): ReLU()
      )
      (1): BasicConv2d(
        (conv): Conv2d(192, 192, kernel_size=(1, 3), stride=(1, 1), padding=(0, 1), bias=False)
        (bn): BatchNorm2d(192, eps=0.001, momentum=0.1, affine=True, track_running_stats=True)
        (relu): ReLU()
      )
      (2): BasicConv2d(
        (conv): Conv2d(192, 192, kernel_size=(3, 1), stride=(1, 1), padding=(1, 0), bias=False)
        (bn): BatchNorm2d(192, eps=0.001, momentum=0.1, affine=True, track_running_stats=True)
        (relu): ReLU()
      )
    )
    (conv2d): Conv2d(384, 1792, kernel_size=(1, 1), stride=(1, 1))
  )
  (conv2d_7b): BasicConv2d(
    (conv): Conv2d(1792, 1536, kernel_size=(1, 1), stride=(1, 1), bias=False)
    (bn): BatchNorm2d(1536, eps=0.001, momentum=0.1, affine=True, track_running_stats=True)
    (relu): ReLU()
  )
  (avgpool_1a): AvgPool2d(kernel_size=8, stride=8, padding=0)
  (drop): Dropout(p=0.2)
  (last_linear): Linear(in_features=1536, out_features=1000, bias=True)
)[0m
2020-07-09 20:13:50,973 [32mINFO[0m: loss
CrossEntropyLoss()[0m
2020-07-09 20:13:50,976 [32mINFO[0m: optimizer
SGD (
Parameter Group 0
    dampening: 0
    hold_grads: False
    lr: 0.045
    momentum: 0.9
    nesterov: False
    weight_decay: 4e-05
)[0m
2020-07-09 20:13:50,978 [32mINFO[0m: create checkpoint folder checkpoints/inception_resnet_v1[0m
…
