…
        "lr": 0.1,
        "momentum": 0.9,
        "weight_decay": 0.0001
      }
    },
    "lr_scheduler": {
      "warmup_epochs": 0,
      "type": "MultiStepLR",
      "kwargs": {
        "milestones": [
          30,
          60,
          90
        ],
        "gamma": 0.1
      }
    }
  },
  "saver": {
    "pretrian_model": null,
    "resume_model": null,
    "save_dir": "checkpoints/dpn92"
  }
}[0m
2020-07-09 16:54:04,886 [32mINFO[0m: creating model 'dpn92'[0m
2020-07-09 16:54:05,213 [32mINFO[0m: model
DistributedParrotsModel
DPN(
  (features): Sequential(
    (0): InputBlock(
      (conv): Conv2d(3, 64, kernel_size=(7, 7), stride=(2, 2), padding=(3, 3), bias=False)
      (bn): BatchNorm2d(64, eps=0.001, momentum=0.1, affine=True, track_running_stats=True)
      (act): ReLU(inplace)
      (pool): MaxPool2d(kernel_size=3, stride=2, padding=1, dilation=1, ceil_mode=False)
    )
    (1): DualPathBlock(
      (c1x1_w_s1): BnActConv2d(
        (bn): BatchNorm2d(64, eps=0.001, momentum=0.1, affine=True, track_running_stats=True)
        (act): ReLU(inplace)
        (conv): Conv2d(64, 288, kernel_size=(1, 1), stride=(1, 1), bias=False)
      )
      (c1x1_a): BnActConv2d(
        (bn): BatchNorm2d(64, eps=0.001, momentum=0.1, affine=True, track_running_stats=True)
        (act): ReLU(inplace)
        (conv): Conv2d(64, 96, kernel_size=(1, 1), stride=(1, 1), bias=False)
      )
      (c3x3_b): BnActConv2d(
        (bn): BatchNorm2d(96, eps=0.001, momentum=0.1, affine=True, track_running_stats=True)
        (act): ReLU(inplace)
        (conv): Conv2d(96, 96, kernel_size=(3, 3), stride=(1, 1), padding=(1, 1), groups=32, bias=False)
      )
      (c1x1_c): BnActConv2d(
        (bn): BatchNorm2d(96, eps=0.001, momentum=0.1, affine=True, track_running_stats=True)
        (act): ReLU(inplace)
        (conv): Conv2d(96, 272, kernel_size=(1, 1), stride=(1, 1), bias=False)
      )
    )
    (2): DualPathBlock(
      (c1x1_a): BnActConv2d(
        (bn): BatchNorm2d(304, eps=0.001, momentum=0.1, affine=True, track_running_stats=True)
        (act): ReLU(inplace)
        (conv): Conv2d(304, 96, kernel_size=(1, 1), stride=(1, 1), bias=False)
      )
      (c3x3_b): BnActConv2d(
        (bn): BatchNorm2d(96, eps=0.001, momentum=0.1, affine=True, track_running_stats=True)
        (act): ReLU(inplace)
        (conv): Conv2d(96, 96, kernel_size=(3, 3), stride=(1, 1), padding=(1, 1), groups=32, bias=False)
      )
      (c1x1_c): BnActConv2d(
        (bn): BatchNorm2d(96, eps=0.001, momentum=0.1, affine=True, track_running_stats=True)
        (act): ReLU(inplace)
        (conv): Conv2d(96, 272, kernel_size=(1, 1), stride=(1, 1), bias=False)
      )
    )
    (3): DualPathBlock(
      (c1x1_a): BnActConv2d(
        (bn): BatchNorm2d(320, eps=0.001, momentum=0.1, affine=True, track_running_stats=True)
        (act): ReLU(inplace)
        (conv): Conv2d(320, 96, kernel_size=(1, 1), stride=(1, 1), bias=False)
      )
      (c3x3_b): BnActConv2d(
        (bn): BatchNorm2d(96, eps=0.001, momentum=0.1, affine=True, track_running_stats=True)
        (act): ReLU(inplace)
        (conv): Conv2d(96, 96, kernel_size=(3, 3), stride=(1, 1), padding=(1, 1), groups=32, bias=False)
      )
      (c1x1_c): BnActConv2d(
        (bn): BatchNorm2d(96, eps=0.001, momentum=0.1, affine=True, track_running_stats=True)
        (act): ReLU(inplace)
        (conv): Conv2d(96, 272, kernel_size=(1, 1), stride=(1, 1), bias=False)
      )
    )
    (4): DualPathBlock(
      (c1x1_w_s2): BnActConv2d(
        (bn): BatchNorm2d(336, eps=0.001, momentum=0.1, affine=True, track_running_stats=True)
        (act): ReLU(inplace)
        (conv): Conv2d(336, 576, kernel_size=(1, 1), stride=(2, 2), bias=False)
      )
      (c1x1_a): BnActConv2d(
        (bn): BatchNorm2d(336, eps=0.001, momentum=0.1, affine=True, track_running_stats=True)
        (act): ReLU(inplace)
        (conv): Conv2d(336, 192, kernel_size=(1, 1), stride=(1, 1), bias=False)
      )
      (c3x3_b): BnActConv2d(
        (bn): BatchNorm2d(192, eps=0.001, momentum=0.1, affine=True, track_running_stats=True)
        (act): ReLU(inplace)
        (conv): Conv2d(192, 192, kernel_size=(3, 3), stride=(2, 2), padding=(1, 1), groups=32, bias=False)
      )
      (c1x1_c): BnActConv2d(
        (bn): BatchNorm2d(192, eps=0.001, momentum=0.1, affine=True, track_running_stats=True)
        (act): ReLU(inplace)
        (conv): Conv2d(192, 544, kernel_size=(1, 1), stride=(1, 1), bias=False)
      )
    )
    (5): DualPathBlock(
      (c1x1_a): BnActConv2d(
        (bn): BatchNorm2d(608, eps=0.001, momentum=0.1, affine=True, track_running_stats=True)
        (act): ReLU(inplace)
        (conv): Conv2d(608, 192, kernel_size=(1, 1), stride=(1, 1), bias=False)
      )
      (c3x3_b): BnActConv2d(
        (bn): BatchNorm2d(192, eps=0.001, momentum=0.1, affine=True, track_running_stats=True)
        (act): ReLU(inplace)
        (conv): Conv2d(192, 192, kernel_size=(3, 3), stride=(1, 1), padding=(1, 1), groups=32, bias=False)
      )
      (c1x1_c): BnActConv2d(
        (bn): BatchNorm2d(192, eps=0.001, momentum=0.1, affine=True, track_running_stats=True)
        (act): ReLU(inplace)
        (conv): Conv2d(192, 544, kernel_size=(1, 1), stride=(1, 1), bias=False)
      )
    )
    (6): DualPathBlock(
      (c1x1_a): BnActConv2d(
        (bn): BatchNorm2d(640, eps=0.001, momentum=0.1, affine=True, track_running_stats=True)
        (act): ReLU(inplace)
        (conv): Conv2d(640, 192, kernel_size=(1, 1), stride=(1, 1), bias=False)
      )
      (c3x3_b): BnActConv2d(
        (bn): BatchNorm2d(192, eps=0.001, momentum=0.1, affine=True, track_running_stats=True)
        (act): ReLU(inplace)
        (conv): Conv2d(192, 192, kernel_size=(3, 3), stride=(1, 1), padding=(1, 1), groups=32, bias=False)
      )
      (c1x1_c): BnActConv2d(
        (bn): BatchNorm2d(192, eps=0.001, momentum=0.1, affine=True, track_running_stats=True)
        (act): ReLU(inplace)
        (conv): Conv2d(192, 544, kernel_size=(1, 1), stride=(1, 1), bias=False)
      )
    )
    (7): DualPathBlock(
      (c1x1_a): BnActConv2d(
        (bn): BatchNorm2d(672, eps=0.001, momentum=0.1, affine=True, track_running_stats=True)
        (act): ReLU(inplace)
        (conv): Conv2d(672, 192, kernel_size=(1, 1), stride=(1, 1), bias=False)
      )
      (c3x3_b): BnActConv2d(
        (bn): BatchNorm2d(192, eps=0.001, momentum=0.1, affine=True, track_running_stats=True)
        (act): ReLU(inplace)
        (conv): Conv2d(192, 192, kernel_size=(3, 3), stride=(1, 1), padding=(1, 1), groups=32, bias=False)
      )
      (c1x1_c): BnActConv2d(
        (bn): BatchNorm2d(192, eps=0.001, momentum=0.1, affine=True, track_running_stats=True)
        (act): ReLU(inplace)
        (conv): Conv2d(192, 544, kernel_size=(1, 1), stride=(1, 1), bias=False)
      )
    )
    (8): DualPathBlock(
      (c1x1_w_s2): BnActConv2d(
        (bn): BatchNorm2d(704, eps=0.001, momentum=0.1, affine=True, track_running_stats=True)
        (act): ReLU(inplace)
        (conv): Conv2d(704, 1072, kernel_size=(1, 1), stride=(2, 2), bias=False)
      )
      (c1x1_a): BnActConv2d(
        (bn): BatchNorm2d(704, eps=0.001, momentum=0.1, affine=True, track_running_stats=True)
        (act): ReLU(inplace)
        (conv): Conv2d(704, 384, kernel_size=(1, 1), stride=(1, 1), bias=False)
      )
      (c3x3_b): BnActConv2d(
        (bn): BatchNorm2d(384, eps=0.001, momentum=0.1, affine=True, track_running_stats=True)
        (act): ReLU(inplace)
        (conv): Conv2d(384, 384, kernel_size=(3, 3), stride=(2, 2), padding=(1, 1), groups=32, bias=False)
      )
      (c1x1_c): BnActConv2d(
        (bn): BatchNorm2d(384, eps=0.001, momentum=0.1, affine=True, track_running_stats=True)
        (act): ReLU(inplace)
        (conv): Conv2d(384, 1048, kernel_size=(1, 1), stride=(1, 1), bias=False)
      )
    )
    (9): DualPathBlock(
      (c1x1_a): BnActConv2d(
        (bn): BatchNorm2d(1096, eps=0.001, momentum=0.1, affine=True, track_running_stats=True)
        (act): ReLU(inplace)
        (conv): Conv2d(1096, 384, kernel_size=(1, 1), stride=(1, 1), bias=False)
      )
      (c3x3_b): BnActConv2d(
        (bn): BatchNorm2d(384, eps=0.001, momentum=0.1, affine=True, track_running_stats=True)
        (act): ReLU(inplace)
        (conv): Conv2d(384, 384, kernel_size=(3, 3), stride=(1, 1), padding=(1, 1), groups=32, bias=False)
      )
      (c1x1_c): BnActConv2d(
        (bn): BatchNorm2d(384, eps=0.001, momentum=0.1, affine=True, track_running_stats=True)
        (act): ReLU(inplace)
        (conv): Conv2d(384, 1048, kernel_size=(1, 1), stride=(1, 1), bias=False)
      )
    )
    (10): DualPathBlock(
      (c1x1_a): BnActConv2d(
        (bn): BatchNorm2d(1120, eps=0.001, momentum=0.1, affine=True, track_running_stats=True)
        (act): ReLU(inplace)
        (conv): Conv2d(1120, 384, kernel_size=(1, 1), stride=(1, 1), bias=False)
      )
      (c3x3_b): BnActConv2d(
        (bn): BatchNorm2d(384, eps=0.001, momentum=0.1, affine=True, track_running_stats=True)
        (act): ReLU(inplace)
        (conv): Conv2d(384, 384, kernel_size=(3, 3), stride=(1, 1), padding=(1, 1), groups=32, bias=False)
      )
      (c1x1_c): BnActConv2d(
        (bn): BatchNorm2d(384, eps=0.001, momentum=0.1, affine=True, track_running_stats=True)
        (act): ReLU(inplace)
        (conv): Conv2d(384, 1048, kernel_size=(1, 1), stride=(1, 1), bias=False)
      )
    )
    (11): DualPathBlock(
      (c1x1_a): BnActConv2d(
        (bn): BatchNorm2d(1144, eps=0.001, momentum=0.1, affine=True, track_running_stats=True)
        (act): ReLU(inplace)
        (conv): Conv2d(1144, 384, kernel_size=(1, 1), stride=(1, 1), bias=False)
      )
      (c3x3_b): BnActConv2d(
        (bn): BatchNorm2d(384, eps=0.001, momentum=0.1, affine=True, track_running_stats=True)
        (act): ReLU(inplace)
        (conv): Conv2d(384, 384, kernel_size=(3, 3), stride=(1, 1), padding=(1, 1), groups=32, bias=False)
      )
      (c1x1_c): BnActConv2d(
        (bn): BatchNorm2d(384, eps=0.001, momentum=0.1, affine=True, track_running_stats=True)
        (act): ReLU(inplace)
        (conv): Conv2d(384, 1048, kernel_size=(1, 1), stride=(1, 1), bias=False)
      )
    )
    (12): DualPathBlock(
      (c1x1_a): BnActConv2d(
        (bn): BatchNorm2d(1168, eps=0.001, momentum=0.1, affine=True, track_running_stats=True)
        (act): ReLU(inplace)
        (conv): Conv2d(1168, 384, kernel_size=(1, 1), stride=(1, 1), bias=False)
      )
      (c3x3_b): BnActConv2d(
        (bn): BatchNorm2d(384, eps=0.001, momentum=0.1, affine=True, track_running_stats=True)
        (act): ReLU(inplace)
        (conv): Conv2d(384, 384, kernel_size=(3, 3), stride=(1, 1), padding=(1, 1), groups=32, bias=False)
      )
      (c1x1_c): BnActConv2d(
        (bn): BatchNorm2d(384, eps=0.001, momentum=0.1, affine=True, track_running_stats=True)
        (act): ReLU(inplace)
        (conv): Conv2d(384, 1048, kernel_size=(1, 1), stride=(1, 1), bias=False)
      )
    )
    (13): DualPathBlock(
      (c1x1_a): BnActConv2d(
        (bn): BatchNorm2d(1192, eps=0.001, momentum=0.1, affine=True, track_running_stats=True)
        (act): ReLU(inplace)
        (conv): Conv2d(1192, 384, kernel_size=(1, 1), stride=(1, 1), bias=False)
      )
      (c3x3_b): BnActConv2d(
        (bn): BatchNorm2d(384, eps=0.001, momentum=0.1, affine=True, track_running_stats=True)
        (act): ReLU(inplace)
        (conv): Conv2d(384, 384, kernel_size=(3, 3), stride=(1, 1), padding=(1, 1), groups=32, bias=False)
      )
      (c1x1_c): BnActConv2d(
        (bn): BatchNorm2d(384, eps=0.001, momentum=0.1, affine=True, track_running_stats=True)
        (act): ReLU(inplace)
        (conv): Conv2d(384, 1048, kernel_size=(1, 1), stride=(1, 1), bias=False)
      )
    )
    (14): DualPathBlock(
      (c1x1_a): BnActConv2d(
        (bn): BatchNorm2d(1216, eps=0.001, momentum=0.1, affine=True, track_running_stats=True)
        (act): ReLU(inplace)
        (conv): Conv2d(1216, 384, kernel_size=(1, 1), stride=(1, 1), bias=False)
      )
      (c3x3_b): BnActConv2d(
        (bn): BatchNorm2d(384, eps=0.001, momentum=0.1, affine=True, track_running_stats=True)
        (act): ReLU(inplace)
        (conv): Conv2d(384, 384, kernel_size=(3, 3), stride=(1, 1), padding=(1, 1), groups=32, bias=False)
      )
      (c1x1_c): BnActConv2d(
        (bn): BatchNorm2d(384, eps=0.001, momentum=0.1, affine=True, track_running_stats=True)
        (act): ReLU(inplace)
        (conv): Conv2d(384, 1048, kernel_size=(1, 1), stride=(1, 1), bias=False)
      )
    )
    (15): DualPathBlock(
      (c1x1_a): BnActConv2d(
        (bn): BatchNorm2d(1240, eps=0.001, momentum=0.1, affine=True, track_running_stats=True)
        (act): ReLU(inplace)
        (conv): Conv2d(1240, 384, kernel_size=(1, 1), stride=(1, 1), bias=False)
      )
      (c3x3_b): BnActConv2d(
        (bn): BatchNorm2d(384, eps=0.001, momentum=0.1, affine=True, track_running_stats=True)
        (act): ReLU(inplace)
        (conv): Conv2d(384, 384, kernel_size=(3, 3), stride=(1, 1), padding=(1, 1), groups=32, bias=False)
      )
      (c1x1_c): BnActConv2d(
        (bn): BatchNorm2d(384, eps=0.001, momentum=0.1, affine=True, track_running_stats=True)
        (act): ReLU(inplace)
        (conv): Conv2d(384, 1048, kernel_size=(1, 1), stride=(1, 1), bias=False)
      )
    )
    (16): DualPathBlock(
      (c1x1_a): BnActConv2d(
        (bn): BatchNorm2d(1264, eps=0.001, momentum=0.1, affine=True, track_running_stats=True)
        (act): ReLU(inplace)
        (conv): Conv2d(1264, 384, kernel_size=(1, 1), stride=(1, 1), bias=False)
      )
      (c3x3_b): BnActConv2d(
        (bn): BatchNorm2d(384, eps=0.001, momentum=0.1, affine=True, track_running_stats=True)
        (act): ReLU(inplace)
        (conv): Conv2d(384, 384, kernel_size=(3, 3), stride=(1, 1), padding=(1, 1), groups=32, bias=False)
      )
      (c1x1_c): BnActConv2d(
        (bn): BatchNorm2d(384, eps=0.001, momentum=0.1, affine=True, track_running_stats=True)
        (act): ReLU(inplace)
        (conv): Conv2d(384, 1048, kernel_size=(1, 1), stride=(1, 1), bias=False)
      )
    )
    (17): DualPathBlock(
      (c1x1_a): BnActConv2d(
        (bn): BatchNorm2d(1288, eps=0.001, momentum=0.1, affine=True, track_running_stats=True)
        (act): ReLU(inplace)
        (conv): Conv2d(1288, 384, kernel_size=(1, 1), stride=(1, 1), bias=False)
      )
      (c3x3_b): BnActConv2d(
        (bn): BatchNorm2d(384, eps=0.001, momentum=0.1, affine=True, track_running_stats=True)
        (act): ReLU(inplace)
        (conv): Conv2d(384, 384, kernel_size=(3, 3), stride=(1, 1), padding=(1, 1), groups=32, bias=False)
      )
      (c1x1_c): BnActConv2d(
        (bn): BatchNorm2d(384, eps=0.001, momentum=0.1, affine=True, track_running_stats=True)
        (act): ReLU(inplace)
        (conv): Conv2d(384, 1048, kernel_size=(1, 1), stride=(1, 1), bias=False)
      )
    )
    (18): DualPathBlock(
      (c1x1_a): BnActConv2d(
        (bn): BatchNorm2d(1312, eps=0.001, momentum=0.1, affine=True, track_running_stats=True)
        (act): ReLU(inplace)
        (conv): Conv2d(1312, 384, kernel_size=(1, 1), stride=(1, 1), bias=False)
      )
      (c3x3_b): BnActConv2d(
        (bn): BatchNorm2d(384, eps=0.001, momentum=0.1, affine=True, track_running_stats=True)
        (act): ReLU(inplace)
        (conv): Conv2d(384, 384, kernel_size=(3, 3), stride=(1, 1), padding=(1, 1), groups=32, bias=False)
      )
      (c1x1_c): BnActConv2d(
        (bn): BatchNorm2d(384, eps=0.001, momentum=0.1, affine=True, track_running_stats=True)
        (act): ReLU(inplace)
        (conv): Conv2d(384, 1048, kernel_size=(1, 1), stride=(1, 1), bias=False)
      )
    )
    (19): DualPathBlock(
      (c1x1_a): BnActConv2d(
        (bn): BatchNorm2d(1336, eps=0.001, momentum=0.1, affine=True, track_running_stats=True)
        (act): ReLU(inplace)
        (conv): Conv2d(1336, 384, kernel_size=(1, 1), stride=(1, 1), bias=False)
      )
      (c3x3_b): BnActConv2d(
        (bn): BatchNorm2d(384, eps=0.001, momentum=0.1, affine=True, track_running_stats=True)
        (act): ReLU(inplace)
        (conv): Conv2d(384, 384, kernel_size=(3, 3), stride=(1, 1), padding=(1, 1), groups=32, bias=False)
      )
      (c1x1_c): BnActConv2d(
        (bn): BatchNorm2d(384, eps=0.001, momentum=0.1, affine=True, track_running_stats=True)
        (act): ReLU(inplace)
        (conv): Conv2d(384, 1048, kernel_size=(1, 1), stride=(1, 1), bias=False)
      )
    )
    (20): DualPathBlock(
      (c1x1_a): BnActConv2d(
        (bn): BatchNorm2d(1360, eps=0.001, momentum=0.1, affine=True, track_running_stats=True)
        (act): ReLU(inplace)
        (conv): Conv2d(1360, 384, kernel_size=(1, 1), stride=(1, 1), bias=False)
      )
      (c3x3_b): BnActConv2d(
        (bn): BatchNorm2d(384, eps=0.001, momentum=0.1, affine=True, track_running_stats=True)
        (act): ReLU(inplace)
        (conv): Conv2d(384, 384, kernel_size=(3, 3), stride=(1, 1), padding=(1, 1), groups=32, bias=False)
      )
      (c1x1_c): BnActConv2d(
        (bn): BatchNorm2d(384, eps=0.001, momentum=0.1, affine=True, track_running_stats=True)
        (act): ReLU(inplace)
        (conv): Conv2d(384, 1048, kernel_size=(1, 1), stride=(1, 1), bias=False)
      )
    )
    (21): DualPathBlock(
      (c1x1_a): BnActConv2d(
        (bn): BatchNorm2d(1384, eps=0.001, momentum=0.1, affine=True, track_running_stats=True)
        (act): ReLU(inplace)
        (conv): Conv2d(1384, 384, kernel_size=(1, 1), stride=(1, 1), bias=False)
      )
      (c3x3_b): BnActConv2d(
        (bn): BatchNorm2d(384, eps=0.001, momentum=0.1, affine=True, track_running_stats=True)
        (act): ReLU(inplace)
        (conv): Conv2d(384, 384, kernel_size=(3, 3), stride=(1, 1), padding=(1, 1), groups=32, bias=False)
      )
      (c1x1_c): BnActConv2d(
        (bn): BatchNorm2d(384, eps=0.001, momentum=0.1, affine=True, track_running_stats=True)
        (act): ReLU(inplace)
        (conv): Conv2d(384, 1048, kernel_size=(1, 1), stride=(1, 1), bias=False)
      )
    )
    (22): DualPathBlock(
      (c1x1_a): BnActConv2d(
        (bn): BatchNorm2d(1408, eps=0.001, momentum=0.1, affine=True, track_running_stats=True)
        (act): ReLU(inplace)
        (conv): Conv2d(1408, 384, kernel_size=(1, 1), stride=(1, 1), bias=False)
      )
      (c3x3_b): BnActConv2d(
        (bn): BatchNorm2d(384, eps=0.001, momentum=0.1, affine=True, track_running_stats=True)
        (act): ReLU(inplace)
        (conv): Conv2d(384, 384, kernel_size=(3, 3), stride=(1, 1), padding=(1, 1), groups=32, bias=False)
      )
      (c1x1_c): BnActConv2d(
        (bn): BatchNorm2d(384, eps=0.001, momentum=0.1, affine=True, track_running_stats=True)
        (act): ReLU(inplace)
        (conv): Conv2d(384, 1048, kernel_size=(1, 1), stride=(1, 1), bias=False)
      )
    )
    (23): DualPathBlock(
      (c1x1_a): BnActConv2d(
        (bn): BatchNorm2d(1432, eps=0.001, momentum=0.1, affine=True, track_running_stats=True)
        (act): ReLU(inplace)
        (conv): Conv2d(1432, 384, kernel_size=(1, 1), stride=(1, 1), bias=False)
      )
      (c3x3_b): BnActConv2d(
        (bn): BatchNorm2d(384, eps=0.001, momentum=0.1, affine=True, track_running_stats=True)
        (act): ReLU(inplace)
        (conv): Conv2d(384, 384, kernel_size=(3, 3), stride=(1, 1), padding=(1, 1), groups=32, bias=False)
      )
      (c1x1_c): BnActConv2d(
        (bn): BatchNorm2d(384, eps=0.001, momentum=0.1, affine=True, track_running_stats=True)
        (act): ReLU(inplace)
        (conv): Conv2d(384, 1048, kernel_size=(1, 1), stride=(1, 1), bias=False)
      )
    )
    (24): DualPathBlock(
      (c1x1_a): BnActConv2d(
        (bn): BatchNorm2d(1456, eps=0.001, momentum=0.1, affine=True, track_running_stats=True)
        (act): ReLU(inplace)
        (conv): Conv2d(1456, 384, kernel_size=(1, 1), stride=(1, 1), bias=False)
      )
      (c3x3_b): BnActConv2d(
        (bn): BatchNorm2d(384, eps=0.001, momentum=0.1, affine=True, track_running_stats=True)
        (act): ReLU(inplace)
        (conv): Conv2d(384, 384, kernel_size=(3, 3), stride=(1, 1), padding=(1, 1), groups=32, bias=False)
      )
      (c1x1_c): BnActConv2d(
        (bn): BatchNorm2d(384, eps=0.001, momentum=0.1, affine=True, track_running_stats=True)
        (act): ReLU(inplace)
        (conv): Conv2d(384, 1048, kernel_size=(1, 1), stride=(1, 1), bias=False)
      )
    )
    (25): DualPathBlock(
      (c1x1_a): BnActConv2d(
        (bn): BatchNorm2d(1480, eps=0.001, momentum=0.1, affine=True, track_running_stats=True)
        (act): ReLU(inplace)
        (conv): Conv2d(1480, 384, kernel_size=(1, 1), stride=(1, 1), bias=False)
      )
      (c3x3_b): BnActConv2d(
        (bn): BatchNorm2d(384, eps=0.001, momentum=0.1, affine=True, track_running_stats=True)
        (act): ReLU(inplace)
        (conv): Conv2d(384, 384, kernel_size=(3, 3), stride=(1, 1), padding=(1, 1), groups=32, bias=False)
      )
      (c1x1_c): BnActConv2d(
        (bn): BatchNorm2d(384, eps=0.001, momentum=0.1, affine=True, track_running_stats=True)
        (act): ReLU(inplace)
        (conv): Conv2d(384, 1048, kernel_size=(1, 1), stride=(1, 1), bias=False)
      )
    )
    (26): DualPathBlock(
      (c1x1_a): BnActConv2d(
        (bn): BatchNorm2d(1504, eps=0.001, momentum=0.1, affine=True, track_running_stats=True)
        (act): ReLU(inplace)
        (conv): Conv2d(1504, 384, kernel_size=(1, 1), stride=(1, 1), bias=False)
      )
      (c3x3_b): BnActConv2d(
        (bn): BatchNorm2d(384, eps=0.001, momentum=0.1, affine=True, track_running_stats=True)
        (act): ReLU(inplace)
        (conv): Conv2d(384, 384, kernel_size=(3, 3), stride=(1, 1), padding=(1, 1), groups=32, bias=False)
      )
      (c1x1_c): BnActConv2d(
        (bn): BatchNorm2d(384, eps=0.001, momentum=0.1, affine=True, track_running_stats=True)
        (act): ReLU(inplace)
        (conv): Conv2d(384, 1048, kernel_size=(1, 1), stride=(1, 1), bias=False)
      )
    )
    (27): DualPathBlock(
      (c1x1_a): BnActConv2d(
        (bn): BatchNorm2d(1528, eps=0.001, momentum=0.1, affine=True, track_running_stats=True)
        (act): ReLU(inplace)
        (conv): Conv2d(1528, 384, kernel_size=(1, 1), stride=(1, 1), bias=False)
      )
      (c3x3_b): BnActConv2d(
        (bn): BatchNorm2d(384, eps=0.001, momentum=0.1, affine=True, track_running_stats=True)
        (act): ReLU(inplace)
        (conv): Conv2d(384, 384, kernel_size=(3, 3), stride=(1, 1), padding=(1, 1), groups=32, bias=False)
      )
      (c1x1_c): BnActConv2d(
        (bn): BatchNorm2d(384, eps=0.001, momentum=0.1, affine=True, track_running_stats=True)
        (act): ReLU(inplace)
        (conv): Conv2d(384, 1048, kernel_size=(1, 1), stride=(1, 1), bias=False)
      )
    )
    (28): DualPathBlock(
      (c1x1_w_s2): BnActConv2d(
        (bn): BatchNorm2d(1552, eps=0.001, momentum=0.1, affine=True, track_running_stats=True)
        (act): ReLU(inplace)
        (conv): Conv2d(1552, 2304, kernel_size=(1, 1), stride=(2, 2), bias=False)
      )
      (c1x1_a): BnActConv2d(
        (bn): BatchNorm2d(1552, eps=0.001, momentum=0.1, affine=True, track_running_stats=True)
        (act): ReLU(inplace)
        (conv): Conv2d(1552, 768, kernel_size=(1, 1), stride=(1, 1), bias=False)
      )
      (c3x3_b): BnActConv2d(
        (bn): BatchNorm2d(768, eps=0.001, momentum=0.1, affine=True, track_running_stats=True)
        (act): ReLU(inplace)
        (conv): Conv2d(768, 768, kernel_size=(3, 3), stride=(2, 2), padding=(1, 1), groups=32, bias=False)
      )
      (c1x1_c): BnActConv2d(
        (bn): BatchNorm2d(768, eps=0.001, momentum=0.1, affine=True, track_running_stats=True)
        (act): ReLU(inplace)
        (conv): Conv2d(768, 2176, kernel_size=(1, 1), stride=(1, 1), bias=False)
      )
    )
    (29): DualPathBlock(
      (c1x1_a): BnActConv2d(
        (bn): BatchNorm2d(2432, eps=0.001, momentum=0.1, affine=True, track_running_stats=True)
        (act): ReLU(inplace)
        (conv): Conv2d(2432, 768, kernel_size=(1, 1), stride=(1, 1), bias=False)
      )
      (c3x3_b): BnActConv2d(
        (bn): BatchNorm2d(768, eps=0.001, momentum=0.1, affine=True, track_running_stats=True)
        (act): ReLU(inplace)
        (conv): Conv2d(768, 768, kernel_size=(3, 3), stride=(1, 1), padding=(1, 1), groups=32, bias=False)
      )
      (c1x1_c): BnActConv2d(
        (bn): BatchNorm2d(768, eps=0.001, momentum=0.1, affine=True, track_running_stats=True)
        (act): ReLU(inplace)
        (conv): Conv2d(768, 2176, kernel_size=(1, 1), stride=(1, 1), bias=False)
      )
    )
    (30): DualPathBlock(
      (c1x1_a): BnActConv2d(
        (bn): BatchNorm2d(2560, eps=0.001, momentum=0.1, affine=True, track_running_stats=True)
        (act): ReLU(inplace)
        (conv): Conv2d(2560, 768, kernel_size=(1, 1), stride=(1, 1), bias=False)
      )
      (c3x3_b): BnActConv2d(
        (bn): BatchNorm2d(768, eps=0.001, momentum=0.1, affine=True, track_running_stats=True)
        (act): ReLU(inplace)
        (conv): Conv2d(768, 768, kernel_size=(3, 3), stride=(1, 1), padding=(1, 1), groups=32, bias=False)
      )
      (c1x1_c): BnActConv2d(
        (bn): BatchNorm2d(768, eps=0.001, momentum=0.1, affine=True, track_running_stats=True)
        (act): ReLU(inplace)
        (conv): Conv2d(768, 2176, kernel_size=(1, 1), stride=(1, 1), bias=False)
      )
    )
    (31): CatBnAct(
      (bn): BatchNorm2d(2688, eps=0.001, momentum=0.1, affine=True, track_running_stats=True)
      (act): ReLU(inplace)
    )
  )
  (classifier): Conv2d(2688, 1000, kernel_size=(1, 1), stride=(1, 1))
)[0m
2020-07-09 16:54:05,214 [32mINFO[0m: loss
CrossEntropyLoss()[0m
2020-07-09 16:54:05,215 [32mINFO[0m: optimizer
SGD (
Parameter Group 0
    dampening: 0
    hold_grads: False
    lr: 0.1
    momentum: 0.9
    nesterov: False
    weight_decay: 0.0001
)[0m
2020-07-09 16:54:06,751 [32mINFO[0m: ==> begin trace[0m
2020-07-09 16:54:21,787 [32mINFO[0m: ==> tr_data dumped[0m
…
