…
      "type": "SGD",
      "kwargs": {
        "lr": 0.12,
        "momentum": 0.9,
        "weight_decay": 4e-05
      }
    },
    "lr_scheduler": {
      "warmup_epochs": 0,
      "type": "MultiStepLR",
      "kwargs": {
        "milestones": [
          30,
          60,
          90
        ],
        "gamma": 0.1
      }
    }
  },
  "saver": {
    "pretrian_model": null,
    "resume_model": null,
    "save_dir": "checkpoints/shuffle_v1"
  }
}[0m
2020-07-10 14:04:03,149 [32mINFO[0m: creating model 'shuffle_v1'[0m
2020-07-10 14:04:03,207 [32mINFO[0m: model
DistributedParrotsModel
ShuffleNetV1(
  (conv1): Conv2d(3, 24, kernel_size=(3, 3), stride=(2, 2), padding=(1, 1))
  (maxpool): MaxPool2d(kernel_size=3, stride=2, padding=1, dilation=1, ceil_mode=False)
  (stage2): Sequential(
    (ShuffleUnit_Stage2_0): ShuffleUnit(
      (g_conv_1x1_compress): Sequential(
        (conv1x1): Conv2d(24, 60, kernel_size=(1, 1), stride=(1, 1))
        (batch_norm): BatchNorm2d(60, eps=1e-05, momentum=0.1, affine=True, track_running_stats=True)
        (relu): ReLU()
      )
      (depthwise_conv3x3): Conv2d(60, 60, kernel_size=(3, 3), stride=(2, 2), padding=(1, 1), groups=60)
      (bn_after_depthwise): BatchNorm2d(60, eps=1e-05, momentum=0.1, affine=True, track_running_stats=True)
      (g_conv_1x1_expand): Sequential(
        (conv1x1): Conv2d(60, 216, kernel_size=(1, 1), stride=(1, 1), groups=3)
        (batch_norm): BatchNorm2d(216, eps=1e-05, momentum=0.1, affine=True, track_running_stats=True)
      )
    )
    (ShuffleUnit_Stage2_1): ShuffleUnit(
      (g_conv_1x1_compress): Sequential(
        (conv1x1): Conv2d(240, 60, kernel_size=(1, 1), stride=(1, 1), groups=3)
        (batch_norm): BatchNorm2d(60, eps=1e-05, momentum=0.1, affine=True, track_running_stats=True)
        (relu): ReLU()
      )
      (depthwise_conv3x3): Conv2d(60, 60, kernel_size=(3, 3), stride=(1, 1), padding=(1, 1), groups=60)
      (bn_after_depthwise): BatchNorm2d(60, eps=1e-05, momentum=0.1, affine=True, track_running_stats=True)
      (g_conv_1x1_expand): Sequential(
        (conv1x1): Conv2d(60, 240, kernel_size=(1, 1), stride=(1, 1), groups=3)
        (batch_norm): BatchNorm2d(240, eps=1e-05, momentum=0.1, affine=True, track_running_stats=True)
      )
    )
    (ShuffleUnit_Stage2_2): ShuffleUnit(
      (g_conv_1x1_compress): Sequential(
        (conv1x1): Conv2d(240, 60, kernel_size=(1, 1), stride=(1, 1), groups=3)
        (batch_norm): BatchNorm2d(60, eps=1e-05, momentum=0.1, affine=True, track_running_stats=True)
        (relu): ReLU()
      )
      (depthwise_conv3x3): Conv2d(60, 60, kernel_size=(3, 3), stride=(1, 1), padding=(1, 1), groups=60)
      (bn_after_depthwise): BatchNorm2d(60, eps=1e-05, momentum=0.1, affine=True, track_running_stats=True)
      (g_conv_1x1_expand): Sequential(
        (conv1x1): Conv2d(60, 240, kernel_size=(1, 1), stride=(1, 1), groups=3)
        (batch_norm): BatchNorm2d(240, eps=1e-05, momentum=0.1, affine=True, track_running_stats=True)
      )
    )
    (ShuffleUnit_Stage2_3): ShuffleUnit(
      (g_conv_1x1_compress): Sequential(
        (conv1x1): Conv2d(240, 60, kernel_size=(1, 1), stride=(1, 1), groups=3)
        (batch_norm): BatchNorm2d(60, eps=1e-05, momentum=0.1, affine=True, track_running_stats=True)
        (relu): ReLU()
      )
      (depthwise_conv3x3): Conv2d(60, 60, kernel_size=(3, 3), stride=(1, 1), padding=(1, 1), groups=60)
      (bn_after_depthwise): BatchNorm2d(60, eps=1e-05, momentum=0.1, affine=True, track_running_stats=True)
      (g_conv_1x1_expand): Sequential(
        (conv1x1): Conv2d(60, 240, kernel_size=(1, 1), stride=(1, 1), groups=3)
        (batch_norm): BatchNorm2d(240, eps=1e-05, momentum=0.1, affine=True, track_running_stats=True)
      )
    )
  )
  (stage3): Sequential(
    (ShuffleUnit_Stage3_0): ShuffleUnit(
      (g_conv_1x1_compress): Sequential(
        (conv1x1): Conv2d(240, 120, kernel_size=(1, 1), stride=(1, 1), groups=3)
        (batch_norm): BatchNorm2d(120, eps=1e-05, momentum=0.1, affine=True, track_running_stats=True)
        (relu): ReLU()
      )
      (depthwise_conv3x3): Conv2d(120, 120, kernel_size=(3, 3), stride=(2, 2), padding=(1, 1), groups=120)
      (bn_after_depthwise): BatchNorm2d(120, eps=1e-05, momentum=0.1, affine=True, track_running_stats=True)
      (g_conv_1x1_expand): Sequential(
        (conv1x1): Conv2d(120, 240, kernel_size=(1, 1), stride=(1, 1), groups=3)
        (batch_norm): BatchNorm2d(240, eps=1e-05, momentum=0.1, affine=True, track_running_stats=True)
      )
    )
    (ShuffleUnit_Stage3_1): ShuffleUnit(
      (g_conv_1x1_compress): Sequential(
        (conv1x1): Conv2d(480, 120, kernel_size=(1, 1), stride=(1, 1), groups=3)
        (batch_norm): BatchNorm2d(120, eps=1e-05, momentum=0.1, affine=True, track_running_stats=True)
        (relu): ReLU()
      )
      (depthwise_conv3x3): Conv2d(120, 120, kernel_size=(3, 3), stride=(1, 1), padding=(1, 1), groups=120)
      (bn_after_depthwise): BatchNorm2d(120, eps=1e-05, momentum=0.1, affine=True, track_running_stats=True)
      (g_conv_1x1_expand): Sequential(
        (conv1x1): Conv2d(120, 480, kernel_size=(1, 1), stride=(1, 1), groups=3)
        (batch_norm): BatchNorm2d(480, eps=1e-05, momentum=0.1, affine=True, track_running_stats=True)
      )
    )
    (ShuffleUnit_Stage3_2): ShuffleUnit(
      (g_conv_1x1_compress): Sequential(
        (conv1x1): Conv2d(480, 120, kernel_size=(1, 1), stride=(1, 1), groups=3)
        (batch_norm): BatchNorm2d(120, eps=1e-05, momentum=0.1, affine=True, track_running_stats=True)
        (relu): ReLU()
      )
      (depthwise_conv3x3): Conv2d(120, 120, kernel_size=(3, 3), stride=(1, 1), padding=(1, 1), groups=120)
      (bn_after_depthwise): BatchNorm2d(120, eps=1e-05, momentum=0.1, affine=True, track_running_stats=True)
      (g_conv_1x1_expand): Sequential(
        (conv1x1): Conv2d(120, 480, kernel_size=(1, 1), stride=(1, 1), groups=3)
        (batch_norm): BatchNorm2d(480, eps=1e-05, momentum=0.1, affine=True, track_running_stats=True)
      )
    )
    (ShuffleUnit_Stage3_3): ShuffleUnit(
      (g_conv_1x1_compress): Sequential(
        (conv1x1): Conv2d(480, 120, kernel_size=(1, 1), stride=(1, 1), groups=3)
        (batch_norm): BatchNorm2d(120, eps=1e-05, momentum=0.1, affine=True, track_running_stats=True)
        (relu): ReLU()
      )
      (depthwise_conv3x3): Conv2d(120, 120, kernel_size=(3, 3), stride=(1, 1), padding=(1, 1), groups=120)
      (bn_after_depthwise): BatchNorm2d(120, eps=1e-05, momentum=0.1, affine=True, track_running_stats=True)
      (g_conv_1x1_expand): Sequential(
        (conv1x1): Conv2d(120, 480, kernel_size=(1, 1), stride=(1, 1), groups=3)
        (batch_norm): BatchNorm2d(480, eps=1e-05, momentum=0.1, affine=True, track_running_stats=True)
      )
    )
    (ShuffleUnit_Stage3_4): ShuffleUnit(
      (g_conv_1x1_compress): Sequential(
        (conv1x1): Conv2d(480, 120, kernel_size=(1, 1), stride=(1, 1), groups=3)
        (batch_norm): BatchNorm2d(120, eps=1e-05, momentum=0.1, affine=True, track_running_stats=True)
        (relu): ReLU()
      )
      (depthwise_conv3x3): Conv2d(120, 120, kernel_size=(3, 3), stride=(1, 1), padding=(1, 1), groups=120)
      (bn_after_depthwise): BatchNorm2d(120, eps=1e-05, momentum=0.1, affine=True, track_running_stats=True)
      (g_conv_1x1_expand): Sequential(
        (conv1x1): Conv2d(120, 480, kernel_size=(1, 1), stride=(1, 1), groups=3)
        (batch_norm): BatchNorm2d(480, eps=1e-05, momentum=0.1, affine=True, track_running_stats=True)
      )
    )
    (ShuffleUnit_Stage3_5): ShuffleUnit(
      (g_conv_1x1_compress): Sequential(
        (conv1x1): Conv2d(480, 120, kernel_size=(1, 1), stride=(1, 1), groups=3)
        (batch_norm): BatchNorm2d(120, eps=1e-05, momentum=0.1, affine=True, track_running_stats=True)
        (relu): ReLU()
      )
      (depthwise_conv3x3): Conv2d(120, 120, kernel_size=(3, 3), stride=(1, 1), padding=(1, 1), groups=120)
      (bn_after_depthwise): BatchNorm2d(120, eps=1e-05, momentum=0.1, affine=True, track_running_stats=True)
      (g_conv_1x1_expand): Sequential(
        (conv1x1): Conv2d(120, 480, kernel_size=(1, 1), stride=(1, 1), groups=3)
        (batch_norm): BatchNorm2d(480, eps=1e-05, momentum=0.1, affine=True, track_running_stats=True)
      )
    )
    (ShuffleUnit_Stage3_6): ShuffleUnit(
      (g_conv_1x1_compress): Sequential(
        (conv1x1): Conv2d(480, 120, kernel_size=(1, 1), stride=(1, 1), groups=3)
        (batch_norm): BatchNorm2d(120, eps=1e-05, momentum=0.1, affine=True, track_running_stats=True)
        (relu): ReLU()
      )
      (depthwise_conv3x3): Conv2d(120, 120, kernel_size=(3, 3), stride=(1, 1), padding=(1, 1), groups=120)
      (bn_after_depthwise): BatchNorm2d(120, eps=1e-05, momentum=0.1, affine=True, track_running_stats=True)
      (g_conv_1x1_expand): Sequential(
        (conv1x1): Conv2d(120, 480, kernel_size=(1, 1), stride=(1, 1), groups=3)
        (batch_norm): BatchNorm2d(480, eps=1e-05, momentum=0.1, affine=True, track_running_stats=True)
      )
    )
    (ShuffleUnit_Stage3_7): ShuffleUnit(
      (g_conv_1x1_compress): Sequential(
        (conv1x1): Conv2d(480, 120, kernel_size=(1, 1), stride=(1, 1), groups=3)
        (batch_norm): BatchNorm2d(120, eps=1e-05, momentum=0.1, affine=True, track_running_stats=True)
        (relu): ReLU()
      )
      (depthwise_conv3x3): Conv2d(120, 120, kernel_size=(3, 3), stride=(1, 1), padding=(1, 1), groups=120)
      (bn_after_depthwise): BatchNorm2d(120, eps=1e-05, momentum=0.1, affine=True, track_running_stats=True)
      (g_conv_1x1_expand): Sequential(
        (conv1x1): Conv2d(120, 480, kernel_size=(1, 1), stride=(1, 1), groups=3)
        (batch_norm): BatchNorm2d(480, eps=1e-05, momentum=0.1, affine=True, track_running_stats=True)
      )
    )
  )
  (stage4): Sequential(
    (ShuffleUnit_Stage4_0): ShuffleUnit(
      (g_conv_1x1_compress): Sequential(
        (conv1x1): Conv2d(480, 240, kernel_size=(1, 1), stride=(1, 1), groups=3)
        (batch_norm): BatchNorm2d(240, eps=1e-05, momentum=0.1, affine=True, track_running_stats=True)
        (relu): ReLU()
      )
      (depthwise_conv3x3): Conv2d(240, 240, kernel_size=(3, 3), stride=(2, 2), padding=(1, 1), groups=240)
      (bn_after_depthwise): BatchNorm2d(240, eps=1e-05, momentum=0.1, affine=True, track_running_stats=True)
      (g_conv_1x1_expand): Sequential(
        (conv1x1): Conv2d(240, 480, kernel_size=(1, 1), stride=(1, 1), groups=3)
        (batch_norm): BatchNorm2d(480, eps=1e-05, momentum=0.1, affine=True, track_running_stats=True)
      )
    )
    (ShuffleUnit_Stage4_1): ShuffleUnit(
      (g_conv_1x1_compress): Sequential(
        (conv1x1): Conv2d(960, 240, kernel_size=(1, 1), stride=(1, 1), groups=3)
        (batch_norm): BatchNorm2d(240, eps=1e-05, momentum=0.1, affine=True, track_running_stats=True)
        (relu): ReLU()
      )
      (depthwise_conv3x3): Conv2d(240, 240, kernel_size=(3, 3), stride=(1, 1), padding=(1, 1), groups=240)
      (bn_after_depthwise): BatchNorm2d(240, eps=1e-05, momentum=0.1, affine=True, track_running_stats=True)
      (g_conv_1x1_expand): Sequential(
        (conv1x1): Conv2d(240, 960, kernel_size=(1, 1), stride=(1, 1), groups=3)
        (batch_norm): BatchNorm2d(960, eps=1e-05, momentum=0.1, affine=True, track_running_stats=True)
      )
    )
    (ShuffleUnit_Stage4_2): ShuffleUnit(
      (g_conv_1x1_compress): Sequential(
        (conv1x1): Conv2d(960, 240, kernel_size=(1, 1), stride=(1, 1), groups=3)
        (batch_norm): BatchNorm2d(240, eps=1e-05, momentum=0.1, affine=True, track_running_stats=True)
        (relu): ReLU()
      )
      (depthwise_conv3x3): Conv2d(240, 240, kernel_size=(3, 3), stride=(1, 1), padding=(1, 1), groups=240)
      (bn_after_depthwise): BatchNorm2d(240, eps=1e-05, momentum=0.1, affine=True, track_running_stats=True)
      (g_conv_1x1_expand): Sequential(
        (conv1x1): Conv2d(240, 960, kernel_size=(1, 1), stride=(1, 1), groups=3)
        (batch_norm): BatchNorm2d(960, eps=1e-05, momentum=0.1, affine=True, track_running_stats=True)
      )
    )
    (ShuffleUnit_Stage4_3): ShuffleUnit(
      (g_conv_1x1_compress): Sequential(
        (conv1x1): Conv2d(960, 240, kernel_size=(1, 1), stride=(1, 1), groups=3)
        (batch_norm): BatchNorm2d(240, eps=1e-05, momentum=0.1, affine=True, track_running_stats=True)
        (relu): ReLU()
      )
      (depthwise_conv3x3): Conv2d(240, 240, kernel_size=(3, 3), stride=(1, 1), padding=(1, 1), groups=240)
      (bn_after_depthwise): BatchNorm2d(240, eps=1e-05, momentum=0.1, affine=True, track_running_stats=True)
      (g_conv_1x1_expand): Sequential(
        (conv1x1): Conv2d(240, 960, kernel_size=(1, 1), stride=(1, 1), groups=3)
        (batch_norm): BatchNorm2d(960, eps=1e-05, momentum=0.1, affine=True, track_running_stats=True)
      )
    )
  )
  (fc): Linear(in_features=960, out_features=1000, bias=True)
)[0m
2020-07-10 14:04:03,207 [32mINFO[0m: loss
CrossEntropyLoss()[0m
2020-07-10 14:04:03,208 [32mINFO[0m: optimizer
SGD (
Parameter Group 0
    dampening: 0
    hold_grads: False
    lr: 0.12
    momentum: 0.9
    nesterov: False
    weight_decay: 4e-05
)[0m
2020-07-10 14:04:03,210 [32mINFO[0m: create checkpoint folder checkpoints/shuffle_v1[0m
…
