…
        "lr": 0.1,
        "momentum": 0.9,
        "weight_decay": 0.0001
      }
    },
    "lr_scheduler": {
      "warmup_epochs": 0,
      "type": "MultiStepLR",
      "kwargs": {
        "milestones": [
          30,
          60,
          90
        ],
        "gamma": 0.1
      }
    }
  },
  "saver": {
    "pretrian_model": null,
    "resume_model": null,
    "save_dir": "checkpoints/inception_v3"
  }
}[0m
2020-07-09 20:24:42,468 [32mINFO[0m: creating model 'inception_v1'[0m
2020-07-09 20:24:42,471 [32mINFO[0m: model
DistributedParrotsModel
InceptionV1(
  (c1): Sequential(
    (0): Conv2d(3, 64, kernel_size=(7, 7), stride=(2, 2), padding=(3, 3))
    (1): ReLU(inplace)
  )
  (c2): Sequential(
    (0): Conv2d(64, 64, kernel_size=(1, 1), stride=(1, 1))
    (1): ReLU(inplace)
  )
  (c3): Sequential(
    (0): Conv2d(64, 192, kernel_size=(3, 3), stride=(1, 1), padding=(1, 1))
    (1): ReLU(inplace)
  )
  (a3): Inception(
    (b1): Sequential(
      (0): Conv2d(192, 64, kernel_size=(1, 1), stride=(1, 1))
      (1): ReLU(inplace)
    )
    (b2): Sequential(
      (0): Conv2d(192, 96, kernel_size=(1, 1), stride=(1, 1))
      (1): ReLU(inplace)
      (2): Conv2d(96, 128, kernel_size=(3, 3), stride=(1, 1), padding=(1, 1))
      (3): ReLU(inplace)
    )
    (b3): Sequential(
      (0): Conv2d(192, 16, kernel_size=(1, 1), stride=(1, 1))
      (1): ReLU(inplace)
      (2): Conv2d(16, 32, kernel_size=(5, 5), stride=(1, 1), padding=(2, 2))
      (3): ReLU(inplace)
    )
    (b4): Sequential(
      (0): MaxPool2d(kernel_size=3, stride=1, padding=1, dilation=1, ceil_mode=False)
      (1): Conv2d(192, 32, kernel_size=(1, 1), stride=(1, 1))
      (2): ReLU(inplace)
    )
  )
  (b3): Inception(
    (b1): Sequential(
      (0): Conv2d(256, 128, kernel_size=(1, 1), stride=(1, 1))
      (1): ReLU(inplace)
    )
    (b2): Sequential(
      (0): Conv2d(256, 128, kernel_size=(1, 1), stride=(1, 1))
      (1): ReLU(inplace)
      (2): Conv2d(128, 192, kernel_size=(3, 3), stride=(1, 1), padding=(1, 1))
      (3): ReLU(inplace)
    )
    (b3): Sequential(
      (0): Conv2d(256, 32, kernel_size=(1, 1), stride=(1, 1))
      (1): ReLU(inplace)
      (2): Conv2d(32, 96, kernel_size=(5, 5), stride=(1, 1), padding=(2, 2))
      (3): ReLU(inplace)
    )
    (b4): Sequential(
      (0): MaxPool2d(kernel_size=3, stride=1, padding=1, dilation=1, ceil_mode=False)
      (1): Conv2d(256, 64, kernel_size=(1, 1), stride=(1, 1))
      (2): ReLU(inplace)
    )
  )
  (maxpool): MaxPool2d(kernel_size=3, stride=2, padding=1, dilation=1, ceil_mode=False)
  (lrn): LocalResponseNorm(2, alpha=0.0001, beta=0.75, k=1.0)
  (a4): Inception(
    (b1): Sequential(
      (0): Conv2d(480, 192, kernel_size=(1, 1), stride=(1, 1))
      (1): ReLU(inplace)
    )
    (b2): Sequential(
      (0): Conv2d(480, 96, kernel_size=(1, 1), stride=(1, 1))
      (1): ReLU(inplace)
      (2): Conv2d(96, 208, kernel_size=(3, 3), stride=(1, 1), padding=(1, 1))
      (3): ReLU(inplace)
    )
    (b3): Sequential(
      (0): Conv2d(480, 16, kernel_size=(1, 1), stride=(1, 1))
      (1): ReLU(inplace)
      (2): Conv2d(16, 48, kernel_size=(5, 5), stride=(1, 1), padding=(2, 2))
      (3): ReLU(inplace)
    )
    (b4): Sequential(
      (0): MaxPool2d(kernel_size=3, stride=1, padding=1, dilation=1, ceil_mode=False)
      (1): Conv2d(480, 64, kernel_size=(1, 1), stride=(1, 1))
      (2): ReLU(inplace)
    )
  )
  (aux0): AuxClassifier(
    (pool1): AvgPool2d(kernel_size=5, stride=3, padding=0)
    (conv1): Sequential(
      (0): Conv2d(512, 128, kernel_size=(1, 1), stride=(1, 1))
      (1): ReLU(inplace)
    )
    (fc1): Sequential(
      (0): Linear(in_features=2048, out_features=1024, bias=True)
      (1): ReLU(inplace)
    )
    (drop): Dropout(p=0.3)
    (fc2): Linear(in_features=1024, out_features=1000, bias=True)
  )
  (b4): Inception(
    (b1): Sequential(
      (0): Conv2d(512, 160, kernel_size=(1, 1), stride=(1, 1))
      (1): ReLU(inplace)
    )
    (b2): Sequential(
      (0): Conv2d(512, 112, kernel_size=(1, 1), stride=(1, 1))
      (1): ReLU(inplace)
      (2): Conv2d(112, 224, kernel_size=(3, 3), stride=(1, 1), padding=(1, 1))
      (3): ReLU(inplace)
    )
    (b3): Sequential(
      (0): Conv2d(512, 24, kernel_size=(1, 1), stride=(1, 1))
      (1): ReLU(inplace)
      (2): Conv2d(24, 64, kernel_size=(5, 5), stride=(1, 1), padding=(2, 2))
      (3): ReLU(inplace)
    )
    (b4): Sequential(
      (0): MaxPool2d(kernel_size=3, stride=1, padding=1, dilation=1, ceil_mode=False)
      (1): Conv2d(512, 64, kernel_size=(1, 1), stride=(1, 1))
      (2): ReLU(inplace)
    )
  )
  (c4): Inception(
    (b1): Sequential(
      (0): Conv2d(512, 128, kernel_size=(1, 1), stride=(1, 1))
      (1): ReLU(inplace)
    )
    (b2): Sequential(
      (0): Conv2d(512, 128, kernel_size=(1, 1), stride=(1, 1))
      (1): ReLU(inplace)
      (2): Conv2d(128, 256, kernel_size=(3, 3), stride=(1, 1), padding=(1, 1))
      (3): ReLU(inplace)
    )
    (b3): Sequential(
      (0): Conv2d(512, 24, kernel_size=(1, 1), stride=(1, 1))
      (1): ReLU(inplace)
      (2): Conv2d(24, 64, kernel_size=(5, 5), stride=(1, 1), padding=(2, 2))
      (3): ReLU(inplace)
    )
    (b4): Sequential(
      (0): MaxPool2d(kernel_size=3, stride=1, padding=1, dilation=1, ceil_mode=False)
      (1): Conv2d(512, 64, kernel_size=(1, 1), stride=(1, 1))
      (2): ReLU(inplace)
    )
  )
  (d4): Inception(
    (b1): Sequential(
      (0): Conv2d(512, 112, kernel_size=(1, 1), stride=(1, 1))
      (1): ReLU(inplace)
    )
    (b2): Sequential(
      (0): Conv2d(512, 144, kernel_size=(1, 1), stride=(1, 1))
      (1): ReLU(inplace)
      (2): Conv2d(144, 288, kernel_size=(3, 3), stride=(1, 1), padding=(1, 1))
      (3): ReLU(inplace)
    )
    (b3): Sequential(
      (0): Conv2d(512, 32, kernel_size=(1, 1), stride=(1, 1))
      (1): ReLU(inplace)
      (2): Conv2d(32, 64, kernel_size=(5, 5), stride=(1, 1), padding=(2, 2))
      (3): ReLU(inplace)
    )
    (b4): Sequential(
      (0): MaxPool2d(kernel_size=3, stride=1, padding=1, dilation=1, ceil_mode=False)
      (1): Conv2d(512, 64, kernel_size=(1, 1), stride=(1, 1))
      (2): ReLU(inplace)
    )
  )
  (aux1): AuxClassifier(
    (pool1): AvgPool2d(kernel_size=5, stride=3, padding=0)
    (conv1): Sequential(
      (0): Conv2d(528, 128, kernel_size=(1, 1), stride=(1, 1))
      (1): ReLU(inplace)
    )
    (fc1): Sequential(
      (0): Linear(in_features=2048, out_features=1024, bias=True)
      (1): ReLU(inplace)
    )
    (drop): Dropout(p=0.3)
    (fc2): Linear(in_features=1024, out_features=1000, bias=True)
  )
  (e4): Inception(
    (b1): Sequential(
      (0): Conv2d(528, 256, kernel_size=(1, 1), stride=(1, 1))
      (1): ReLU(inplace)
    )
    (b2): Sequential(
      (0): Conv2d(528, 160, kernel_size=(1, 1), stride=(1, 1))
      (1): ReLU(inplace)
      (2): Conv2d(160, 320, kernel_size=(3, 3), stride=(1, 1), padding=(1, 1))
      (3): ReLU(inplace)
    )
    (b3): Sequential(
      (0): Conv2d(528, 32, kernel_size=(1, 1), stride=(1, 1))
      (1): ReLU(inplace)
      (2): Conv2d(32, 128, kernel_size=(5, 5), stride=(1, 1), padding=(2, 2))
      (3): ReLU(inplace)
    )
    (b4): Sequential(
      (0): MaxPool2d(kernel_size=3, stride=1, padding=1, dilation=1, ceil_mode=False)
      (1): Conv2d(528, 128, kernel_size=(1, 1), stride=(1, 1))
      (2): ReLU(inplace)
    )
  )
  (a5): Inception(
    (b1): Sequential(
      (0): Conv2d(832, 256, kernel_size=(1, 1), stride=(1, 1))
      (1): ReLU(inplace)
    )
    (b2): Sequential(
      (0): Conv2d(832, 160, kernel_size=(1, 1), stride=(1, 1))
      (1): ReLU(inplace)
      (2): Conv2d(160, 320, kernel_size=(3, 3), stride=(1, 1), padding=(1, 1))
      (3): ReLU(inplace)
    )
    (b3): Sequential(
      (0): Conv2d(832, 32, kernel_size=(1, 1), stride=(1, 1))
      (1): ReLU(inplace)
      (2): Conv2d(32, 128, kernel_size=(5, 5), stride=(1, 1), padding=(2, 2))
      (3): ReLU(inplace)
    )
    (b4): Sequential(
      (0): MaxPool2d(kernel_size=3, stride=1, padding=1, dilation=1, ceil_mode=False)
      (1): Conv2d(832, 128, kernel_size=(1, 1), stride=(1, 1))
      (2): ReLU(inplace)
    )
  )
  (b5): Inception(
    (b1): Sequential(
      (0): Conv2d(832, 384, kernel_size=(1, 1), stride=(1, 1))
      (1): ReLU(inplace)
    )
    (b2): Sequential(
      (0): Conv2d(832, 192, kernel_size=(1, 1), stride=(1, 1))
      (1): ReLU(inplace)
      (2): Conv2d(192, 384, kernel_size=(3, 3), stride=(1, 1), padding=(1, 1))
      (3): ReLU(inplace)
    )
    (b3): Sequential(
      (0): Conv2d(832, 48, kernel_size=(1, 1), stride=(1, 1))
      (1): ReLU(inplace)
      (2): Conv2d(48, 128, kernel_size=(5, 5), stride=(1, 1), padding=(2, 2))
      (3): ReLU(inplace)
    )
    (b4): Sequential(
      (0): MaxPool2d(kernel_size=3, stride=1, padding=1, dilation=1, ceil_mode=False)
      (1): Conv2d(832, 128, kernel_size=(1, 1), stride=(1, 1))
      (2): ReLU(inplace)
    )
  )
  (avgpool): AvgPool2d(kernel_size=7, stride=1, padding=0)
  (drop): Dropout(p=0.4)
  (linear): Linear(in_features=1024, out_features=1000, bias=True)
)[0m
2020-07-09 20:24:42,471 [32mINFO[0m: loss
CrossEntropyLoss()[0m
2020-07-09 20:24:42,472 [32mINFO[0m: optimizer
SGD (
Parameter Group 0
    dampening: 0
    hold_grads: False
    lr: 0.1
    momentum: 0.9
    nesterov: False
    weight_decay: 0.0001
)[0m
2020-07-09 20:24:42,473 [32mINFO[0m: create checkpoint folder checkpoints/inception_v3[0m
…
