…
        "momentum": 0.9,
        "weight_decay": 0.0001
      }
    },
    "lr_scheduler": {
      "warmup_epochs": 0,
      "type": "MultiStepLR",
      "kwargs": {
        "milestones": [
          30,
          60,
          90
        ],
        "gamma": 0.1
      }
    }
  },
  "saver": {
    "pretrain_model": null,
    "resume_model": null,
    "save_dir": "checkpoints/mobile_v3"
  }
}[0m
2020-07-09 21:03:09,689 [32mINFO[0m: creating model 'mobile_v3'[0m
2020-07-09 21:03:09,759 [32mINFO[0m: model
DistributedParrotsModel
MobileNetV3(
  (features): Sequential(
    (0): Sequential(
      (0): Conv2d(3, 16, kernel_size=(3, 3), stride=(2, 2), padding=(1, 1), bias=False)
      (1): BatchNorm2d(16, eps=1e-05, momentum=0.1, affine=True, track_running_stats=True)
      (2): Hswish()
    )
    (1): InvertedResidual(
      (conv): Sequential(
        (0): Conv2d(16, 16, kernel_size=(3, 3), stride=(2, 2), padding=(1, 1), groups=16, bias=False)
        (1): BatchNorm2d(16, eps=1e-05, momentum=0.1, affine=True, track_running_stats=True)
        (2): SEModule(
          (avg_pool): AdaptiveAvgPool2d()
          (fc): Sequential(
            (0): Linear(in_features=16, out_features=4, bias=False)
            (1): ReLU(inplace)
            (2): Linear(in_features=4, out_features=16, bias=False)
            (3): Hsigmoid()
          )
        )
        (3): ReLU(inplace)
        (4): Conv2d(16, 16, kernel_size=(1, 1), stride=(1, 1), bias=False)
        (5): BatchNorm2d(16, eps=1e-05, momentum=0.1, affine=True, track_running_stats=True)
      )
    )
    (2): InvertedResidual(
      (conv): Sequential(
        (0): Conv2d(16, 56, kernel_size=(1, 1), stride=(1, 1), bias=False)
        (1): BatchNorm2d(56, eps=1e-05, momentum=0.1, affine=True, track_running_stats=True)
        (2): ReLU(inplace)
        (3): Conv2d(56, 56, kernel_size=(3, 3), stride=(2, 2), padding=(1, 1), groups=56, bias=False)
        (4): BatchNorm2d(56, eps=1e-05, momentum=0.1, affine=True, track_running_stats=True)
        (5): Identity()
        (6): ReLU(inplace)
        (7): Conv2d(56, 24, kernel_size=(1, 1), stride=(1, 1), bias=False)
        (8): BatchNorm2d(24, eps=1e-05, momentum=0.1, affine=True, track_running_stats=True)
      )
    )
    (3): InvertedResidual(
      (conv): Sequential(
        (0): Conv2d(24, 64, kernel_size=(1, 1), stride=(1, 1), bias=False)
        (1): BatchNorm2d(64, eps=1e-05, momentum=0.1, affine=True, track_running_stats=True)
        (2): ReLU(inplace)
        (3): Conv2d(64, 64, kernel_size=(3, 3), stride=(1, 1), padding=(1, 1), groups=64, bias=False)
        (4): BatchNorm2d(64, eps=1e-05, momentum=0.1, affine=True, track_running_stats=True)
        (5): Identity()
        (6): ReLU(inplace)
        (7): Conv2d(64, 24, kernel_size=(1, 1), stride=(1, 1), bias=False)
        (8): BatchNorm2d(24, eps=1e-05, momentum=0.1, affine=True, track_running_stats=True)
      )
    )
    (4): InvertedResidual(
      (conv): Sequential(
        (0): Conv2d(24, 72, kernel_size=(1, 1), stride=(1, 1), bias=False)
        (1): BatchNorm2d(72, eps=1e-05, momentum=0.1, affine=True, track_running_stats=True)
        (2): Hswish()
        (3): Conv2d(72, 72, kernel_size=(5, 5), stride=(2, 2), padding=(2, 2), groups=72, bias=False)
        (4): BatchNorm2d(72, eps=1e-05, momentum=0.1, affine=True, track_running_stats=True)
        (5): SEModule(
          (avg_pool): AdaptiveAvgPool2d()
          (fc): Sequential(
            (0): Linear(in_features=72, out_features=18, bias=False)
            (1): ReLU(inplace)
            (2): Linear(in_features=18, out_features=72, bias=False)
            (3): Hsigmoid()
          )
        )
        (6): Hswish()
        (7): Conv2d(72, 32, kernel_size=(1, 1), stride=(1, 1), bias=False)
        (8): BatchNorm2d(32, eps=1e-05, momentum=0.1, affine=True, track_running_stats=True)
      )
    )
    (5): InvertedResidual(
      (conv): Sequential(
        (0): Conv2d(32, 184, kernel_size=(1, 1), stride=(1, 1), bias=False)
        (1): BatchNorm2d(184, eps=1e-05, momentum=0.1, affine=True, track_running_stats=True)
        (2): Hswish()
        (3): Conv2d(184, 184, kernel_size=(5, 5), stride=(1, 1), padding=(2, 2), groups=184, bias=False)
        (4): BatchNorm2d(184, eps=1e-05, momentum=0.1, affine=True, track_running_stats=True)
        (5): SEModule(
          (avg_pool): AdaptiveAvgPool2d()
          (fc): Sequential(
            (0): Linear(in_features=184, out_features=46, bias=False)
            (1): ReLU(inplace)
            (2): Linear(in_features=46, out_features=184, bias=False)
            (3): Hsigmoid()
          )
        )
        (6): Hswish()
        (7): Conv2d(184, 32, kernel_size=(1, 1), stride=(1, 1), bias=False)
        (8): BatchNorm2d(32, eps=1e-05, momentum=0.1, affine=True, track_running_stats=True)
      )
    )
    (6): InvertedResidual(
      (conv): Sequential(
        (0): Conv2d(32, 184, kernel_size=(1, 1), stride=(1, 1), bias=False)
        (1): BatchNorm2d(184, eps=1e-05, momentum=0.1, affine=True, track_running_stats=True)
        (2): Hswish()
        (3): Conv2d(184, 184, kernel_size=(5, 5), stride=(1, 1), padding=(2, 2), groups=184, bias=False)
        (4): BatchNorm2d(184, eps=1e-05, momentum=0.1, affine=True, track_running_stats=True)
        (5): SEModule(
          (avg_pool): AdaptiveAvgPool2d()
          (fc): Sequential(
            (0): Linear(in_features=184, out_features=46, bias=False)
            (1): ReLU(inplace)
            (2): Linear(in_features=46, out_features=184, bias=False)
            (3): Hsigmoid()
          )
        )
        (6): Hswish()
        (7): Conv2d(184, 32, kernel_size=(1, 1), stride=(1, 1), bias=False)
        (8): BatchNorm2d(32, eps=1e-05, momentum=0.1, affine=True, track_running_stats=True)
      )
    )
    (7): InvertedResidual(
      (conv): Sequential(
        (0): Conv2d(32, 88, kernel_size=(1, 1), stride=(1, 1), bias=False)
        (1): BatchNorm2d(88, eps=1e-05, momentum=0.1, affine=True, track_running_stats=True)
        (2): Hswish()
        (3): Conv2d(88, 88, kernel_size=(5, 5), stride=(1, 1), padding=(2, 2), groups=88, bias=False)
        (4): BatchNorm2d(88, eps=1e-05, momentum=0.1, affine=True, track_running_stats=True)
        (5): SEModule(
          (avg_pool): AdaptiveAvgPool2d()
          (fc): Sequential(
            (0): Linear(in_features=88, out_features=22, bias=False)
            (1): ReLU(inplace)
            (2): Linear(in_features=22, out_features=88, bias=False)
            (3): Hsigmoid()
          )
        )
        (6): Hswish()
        (7): Conv2d(88, 40, kernel_size=(1, 1), stride=(1, 1), bias=False)
        (8): BatchNorm2d(40, eps=1e-05, momentum=0.1, affine=True, track_running_stats=True)
      )
    )
    (8): InvertedResidual(
      (conv): Sequential(
        (0): Conv2d(40, 112, kernel_size=(1, 1), stride=(1, 1), bias=False)
        (1): BatchNorm2d(112, eps=1e-05, momentum=0.1, affine=True, track_running_stats=True)
        (2): Hswish()
        (3): Conv2d(112, 112, kernel_size=(5, 5), stride=(1, 1), padding=(2, 2), groups=112, bias=False)
        (4): BatchNorm2d(112, eps=1e-05, momentum=0.1, affine=True, track_running_stats=True)
        (5): SEModule(
          (avg_pool): AdaptiveAvgPool2d()
          (fc): Sequential(
            (0): Linear(in_features=112, out_features=28, bias=False)
            (1): ReLU(inplace)
            (2): Linear(in_features=28, out_features=112, bias=False)
            (3): Hsigmoid()
          )
        )
        (6): Hswish()
        (7): Conv2d(112, 40, kernel_size=(1, 1), stride=(1, 1), bias=False)
        (8): BatchNorm2d(40, eps=1e-05, momentum=0.1, affine=True, track_running_stats=True)
      )
    )
    (9): InvertedResidual(
      (conv): Sequential(
        (0): Conv2d(40, 216, kernel_size=(1, 1), stride=(1, 1), bias=False)
        (1): BatchNorm2d(216, eps=1e-05, momentum=0.1, affine=True, track_running_stats=True)
        (2): Hswish()
        (3): Conv2d(216, 216, kernel_size=(5, 5), stride=(2, 2), padding=(2, 2), groups=216, bias=False)
        (4): BatchNorm2d(216, eps=1e-05, momentum=0.1, affine=True, track_running_stats=True)
        (5): SEModule(
          (avg_pool): AdaptiveAvgPool2d()
          (fc): Sequential(
            (0): Linear(in_features=216, out_features=54, bias=False)
            (1): ReLU(inplace)
            (2): Linear(in_features=54, out_features=216, bias=False)
            (3): Hsigmoid()
          )
        )
        (6): Hswish()
        (7): Conv2d(216, 72, kernel_size=(1, 1), stride=(1, 1), bias=False)
        (8): BatchNorm2d(72, eps=1e-05, momentum=0.1, affine=True, track_running_stats=True)
      )
    )
    (10): InvertedResidual(
      (conv): Sequential(
        (0): Conv2d(72, 432, kernel_size=(1, 1), stride=(1, 1), bias=False)
        (1): BatchNorm2d(432, eps=1e-05, momentum=0.1, affine=True, track_running_stats=True)
        (2): Hswish()
        (3): Conv2d(432, 432, kernel_size=(5, 5), stride=(1, 1), padding=(2, 2), groups=432, bias=False)
        (4): BatchNorm2d(432, eps=1e-05, momentum=0.1, affine=True, track_running_stats=True)
        (5): SEModule(
          (avg_pool): AdaptiveAvgPool2d()
          (fc): Sequential(
            (0): Linear(in_features=432, out_features=108, bias=False)
            (1): ReLU(inplace)
            (2): Linear(in_features=108, out_features=432, bias=False)
            (3): Hsigmoid()
          )
        )
        (6): Hswish()
        (7): Conv2d(432, 72, kernel_size=(1, 1), stride=(1, 1), bias=False)
        (8): BatchNorm2d(72, eps=1e-05, momentum=0.1, affine=True, track_running_stats=True)
      )
    )
    (11): InvertedResidual(
      (conv): Sequential(
        (0): Conv2d(72, 432, kernel_size=(1, 1), stride=(1, 1), bias=False)
        (1): BatchNorm2d(432, eps=1e-05, momentum=0.1, affine=True, track_running_stats=True)
        (2): Hswish()
        (3): Conv2d(432, 432, kernel_size=(5, 5), stride=(1, 1), padding=(2, 2), groups=432, bias=False)
        (4): BatchNorm2d(432, eps=1e-05, momentum=0.1, affine=True, track_running_stats=True)
        (5): SEModule(
          (avg_pool): AdaptiveAvgPool2d()
          (fc): Sequential(
            (0): Linear(in_features=432, out_features=108, bias=False)
            (1): ReLU(inplace)
            (2): Linear(in_features=108, out_features=432, bias=False)
            (3): Hsigmoid()
          )
        )
        (6): Hswish()
        (7): Conv2d(432, 72, kernel_size=(1, 1), stride=(1, 1), bias=False)
        (8): BatchNorm2d(72, eps=1e-05, momentum=0.1, affine=True, track_running_stats=True)
      )
    )
    (12): Sequential(
      (0): Conv2d(72, 432, kernel_size=(1, 1), stride=(1, 1), bias=False)
      (1): BatchNorm2d(432, eps=1e-05, momentum=0.1, affine=True, track_running_stats=True)
      (2): Hswish()
    )
    (13): AdaptiveAvgPool2d()
    (14): Conv2d(432, 1280, kernel_size=(1, 1), stride=(1, 1))
    (15): Hswish()
  )
  (classifier): Sequential(
    (0): Dropout(p=0.2)
    (1): Linear(in_features=1280, out_features=1000, bias=True)
  )
)[0m
2020-07-09 21:03:09,759 [32mINFO[0m: loss
CrossEntropyLoss()[0m
2020-07-09 21:03:09,760 [32mINFO[0m: optimizer
SGD (
Parameter Group 0
    dampening: 0
    hold_grads: False
    lr: 0.1
    momentum: 0.9
    nesterov: False
    weight_decay: 0.0001
)[0m
2020-07-09 21:03:09,761 [32mINFO[0m: create checkpoint folder checkpoints/mobile_v3[0m
…
