…
convert module: layer4.2.conv3
convert module: avgpool
convert module: layer4.2.conv2
convert module: fc
convert module: layer4.2.bn3
convert module: layer4.2.bn2
convert module: layer4.2.relu
convert module: avgpool
convert module: layer4.2.conv3
convert module: fc
convert module: layer4.2.bn2
convert module: layer4.2.conv3
convert module: layer4.2.bn3
convert module: layer4.2.relu
convert module: avgpool
convert module: fc
convert module: layer4.2.bn3
convert module: layer4.2.relu
convert module: avgpool
convert module: fc
2020-07-02 15:09:06,061 [32mINFO[0m: model
DistributedParrotsModel
ResNet(
  (conv1): Conv2d(
    3, 64, kernel_size=(7, 7), stride=(2, 2), padding=(3, 3), bias=False
    (output_quant): FakeLinearQuantization(mode=ASYMMETRIC_UNSIGNED, num_bits=8, ema_decay=0.9990))
  )
  (bn1): BatchNorm2d(
    64, eps=1e-05, momentum=0.1, affine=True, track_running_stats=True
    (output_quant): FakeLinearQuantization(mode=ASYMMETRIC_UNSIGNED, num_bits=8, ema_decay=0.9990))
  )
  (relu): ReLU(
    inplace
    (output_quant): FakeLinearQuantization(mode=ASYMMETRIC_UNSIGNED, num_bits=8, ema_decay=0.9990))
  )
  (maxpool): MaxPool2d(
    kernel_size=3, stride=2, padding=1, dilation=1, ceil_mode=False
    (output_quant): FakeLinearQuantization(mode=ASYMMETRIC_UNSIGNED, num_bits=8, ema_decay=0.9990))
  )
  (layer1): Sequential(
    (0): Bottleneck(
      (conv1): Conv2d(
        64, 64, kernel_size=(1, 1), stride=(1, 1), bias=False
        (output_quant): FakeLinearQuantization(mode=ASYMMETRIC_UNSIGNED, num_bits=8, ema_decay=0.9990))
      )
      (bn1): BatchNorm2d(
        64, eps=1e-05, momentum=0.1, affine=True, track_running_stats=True
        (output_quant): FakeLinearQuantization(mode=ASYMMETRIC_UNSIGNED, num_bits=8, ema_decay=0.9990))
      )
      (conv2): Conv2d(
        64, 64, kernel_size=(3, 3), stride=(1, 1), padding=(1, 1), bias=False
        (output_quant): FakeLinearQuantization(mode=ASYMMETRIC_UNSIGNED, num_bits=8, ema_decay=0.9990))
      )
      (bn2): BatchNorm2d(
        64, eps=1e-05, momentum=0.1, affine=True, track_running_stats=True
        (output_quant): FakeLinearQuantization(mode=ASYMMETRIC_UNSIGNED, num_bits=8, ema_decay=0.9990))
      )
      (conv3): Conv2d(
        64, 256, kernel_size=(1, 1), stride=(1, 1), bias=False
        (output_quant): FakeLinearQuantization(mode=ASYMMETRIC_UNSIGNED, num_bits=8, ema_decay=0.9990))
      )
      (bn3): BatchNorm2d(
        256, eps=1e-05, momentum=0.1, affine=True, track_running_stats=True
        (output_quant): FakeLinearQuantization(mode=ASYMMETRIC_UNSIGNED, num_bits=8, ema_decay=0.9990))
      )
      (relu): ReLU(
        inplace
        (output_quant): FakeLinearQuantization(mode=ASYMMETRIC_UNSIGNED, num_bits=8, ema_decay=0.9990))
      )
      (downsample): Sequential(
        (0): Conv2d(
          64, 256, kernel_size=(1, 1), stride=(1, 1), bias=False
          (output_quant): FakeLinearQuantization(mode=ASYMMETRIC_UNSIGNED, num_bits=8, ema_decay=0.9990))
        )
        (1): BatchNorm2d(
          256, eps=1e-05, momentum=0.1, affine=True, track_running_stats=True
          (output_quant): FakeLinearQuantization(mode=ASYMMETRIC_UNSIGNED, num_bits=8, ema_decay=0.9990))
        )
      )
    )
    (1): Bottleneck(
      (conv1): Conv2d(
        256, 64, kernel_size=(1, 1), stride=(1, 1), bias=False
        (output_quant): FakeLinearQuantization(mode=ASYMMETRIC_UNSIGNED, num_bits=8, ema_decay=0.9990))
      )
      (bn1): BatchNorm2d(
        64, eps=1e-05, momentum=0.1, affine=True, track_running_stats=True
        (output_quant): FakeLinearQuantization(mode=ASYMMETRIC_UNSIGNED, num_bits=8, ema_decay=0.9990))
      )
      (conv2): Conv2d(
        64, 64, kernel_size=(3, 3), stride=(1, 1), padding=(1, 1), bias=False
        (output_quant): FakeLinearQuantization(mode=ASYMMETRIC_UNSIGNED, num_bits=8, ema_decay=0.9990))
      )
      (bn2): BatchNorm2d(
        64, eps=1e-05, momentum=0.1, affine=True, track_running_stats=True
        (output_quant): FakeLinearQuantization(mode=ASYMMETRIC_UNSIGNED, num_bits=8, ema_decay=0.9990))
      )
      (conv3): Conv2d(
        64, 256, kernel_size=(1, 1), stride=(1, 1), bias=False
        (output_quant): FakeLinearQuantization(mode=ASYMMETRIC_UNSIGNED, num_bits=8, ema_decay=0.9990))
      )
      (bn3): BatchNorm2d(
        256, eps=1e-05, momentum=0.1, affine=True, track_running_stats=True
        (output_quant): FakeLinearQuantization(mode=ASYMMETRIC_UNSIGNED, num_bits=8, ema_decay=0.9990))
      )
      (relu): ReLU(
        inplace
        (output_quant): FakeLinearQuantization(mode=ASYMMETRIC_UNSIGNED, num_bits=8, ema_decay=0.9990))
      )
    )
    (2): Bottleneck(
      (conv1): Conv2d(
        256, 64, kernel_size=(1, 1), stride=(1, 1), bias=False
        (output_quant): FakeLinearQuantization(mode=ASYMMETRIC_UNSIGNED, num_bits=8, ema_decay=0.9990))
      )
      (bn1): BatchNorm2d(
        64, eps=1e-05, momentum=0.1, affine=True, track_running_stats=True
        (output_quant): FakeLinearQuantization(mode=ASYMMETRIC_UNSIGNED, num_bits=8, ema_decay=0.9990))
      )
      (conv2): Conv2d(
        64, 64, kernel_size=(3, 3), stride=(1, 1), padding=(1, 1), bias=False
        (output_quant): FakeLinearQuantization(mode=ASYMMETRIC_UNSIGNED, num_bits=8, ema_decay=0.9990))
      )
      (bn2): BatchNorm2d(
        64, eps=1e-05, momentum=0.1, affine=True, track_running_stats=True
        (output_quant): FakeLinearQuantization(mode=ASYMMETRIC_UNSIGNED, num_bits=8, ema_decay=0.9990))
      )
      (conv3): Conv2d(
        64, 256, kernel_size=(1, 1), stride=(1, 1), bias=False
        (output_quant): FakeLinearQuantization(mode=ASYMMETRIC_UNSIGNED, num_bits=8, ema_decay=0.9990))
      )
      (bn3): BatchNorm2d(
        256, eps=1e-05, momentum=0.1, affine=True, track_running_stats=True
        (output_quant): FakeLinearQuantization(mode=ASYMMETRIC_UNSIGNED, num_bits=8, ema_decay=0.9990))
      )
      (relu): ReLU(
        inplace
        (output_quant): FakeLinearQuantization(mode=ASYMMETRIC_UNSIGNED, num_bits=8, ema_decay=0.9990))
      )
    )
  )
  (layer2): Sequential(
    (0): Bottleneck(
      (conv1): Conv2d(
        256, 128, kernel_size=(1, 1), stride=(1, 1), bias=False
        (output_quant): FakeLinearQuantization(mode=ASYMMETRIC_UNSIGNED, num_bits=8, ema_decay=0.9990))
      )
      (bn1): BatchNorm2d(
        128, eps=1e-05, momentum=0.1, affine=True, track_running_stats=True
        (output_quant): FakeLinearQuantization(mode=ASYMMETRIC_UNSIGNED, num_bits=8, ema_decay=0.9990))
      )
      (conv2): Conv2d(
        128, 128, kernel_size=(3, 3), stride=(2, 2), padding=(1, 1), bias=False
        (output_quant): FakeLinearQuantization(mode=ASYMMETRIC_UNSIGNED, num_bits=8, ema_decay=0.9990))
      )
      (bn2): BatchNorm2d(
        128, eps=1e-05, momentum=0.1, affine=True, track_running_stats=True
        (output_quant): FakeLinearQuantization(mode=ASYMMETRIC_UNSIGNED, num_bits=8, ema_decay=0.9990))
      )
      (conv3): Conv2d(
        128, 512, kernel_size=(1, 1), stride=(1, 1), bias=False
        (output_quant): FakeLinearQuantization(mode=ASYMMETRIC_UNSIGNED, num_bits=8, ema_decay=0.9990))
      )
      (bn3): BatchNorm2d(
        512, eps=1e-05, momentum=0.1, affine=True, track_running_stats=True
        (output_quant): FakeLinearQuantization(mode=ASYMMETRIC_UNSIGNED, num_bits=8, ema_decay=0.9990))
      )
      (relu): ReLU(
        inplace
        (output_quant): FakeLinearQuantization(mode=ASYMMETRIC_UNSIGNED, num_bits=8, ema_decay=0.9990))
      )
      (downsample): Sequential(
        (0): Conv2d(
          256, 512, kernel_size=(1, 1), stride=(2, 2), bias=False
          (output_quant): FakeLinearQuantization(mode=ASYMMETRIC_UNSIGNED, num_bits=8, ema_decay=0.9990))
        )
        (1): BatchNorm2d(
          512, eps=1e-05, momentum=0.1, affine=True, track_running_stats=True
          (output_quant): FakeLinearQuantization(mode=ASYMMETRIC_UNSIGNED, num_bits=8, ema_decay=0.9990))
        )
      )
    )
    (1): Bottleneck(
      (conv1): Conv2d(
        512, 128, kernel_size=(1, 1), stride=(1, 1), bias=False
        (output_quant): FakeLinearQuantization(mode=ASYMMETRIC_UNSIGNED, num_bits=8, ema_decay=0.9990))
      )
      (bn1): BatchNorm2d(
        128, eps=1e-05, momentum=0.1, affine=True, track_running_stats=True
        (output_quant): FakeLinearQuantization(mode=ASYMMETRIC_UNSIGNED, num_bits=8, ema_decay=0.9990))
      )
      (conv2): Conv2d(
        128, 128, kernel_size=(3, 3), stride=(1, 1), padding=(1, 1), bias=False
        (output_quant): FakeLinearQuantization(mode=ASYMMETRIC_UNSIGNED, num_bits=8, ema_decay=0.9990))
      )
      (bn2): BatchNorm2d(
        128, eps=1e-05, momentum=0.1, affine=True, track_running_stats=True
        (output_quant): FakeLinearQuantization(mode=ASYMMETRIC_UNSIGNED, num_bits=8, ema_decay=0.9990))
      )
      (conv3): Conv2d(
        128, 512, kernel_size=(1, 1), stride=(1, 1), bias=False
        (output_quant): FakeLinearQuantization(mode=ASYMMETRIC_UNSIGNED, num_bits=8, ema_decay=0.9990))
      )
      (bn3): BatchNorm2d(
        512, eps=1e-05, momentum=0.1, affine=True, track_running_stats=True
        (output_quant): FakeLinearQuantization(mode=ASYMMETRIC_UNSIGNED, num_bits=8, ema_decay=0.9990))
      )
      (relu): ReLU(
        inplace
        (output_quant): FakeLinearQuantization(mode=ASYMMETRIC_UNSIGNED, num_bits=8, ema_decay=0.9990))
      )
    )
    (2): Bottleneck(
      (conv1): Conv2d(
        512, 128, kernel_size=(1, 1), stride=(1, 1), bias=False
        (output_quant): FakeLinearQuantization(mode=ASYMMETRIC_UNSIGNED, num_bits=8, ema_decay=0.9990))
      )
      (bn1): BatchNorm2d(
        128, eps=1e-05, momentum=0.1, affine=True, track_running_stats=True
        (output_quant): FakeLinearQuantization(mode=ASYMMETRIC_UNSIGNED, num_bits=8, ema_decay=0.9990))
      )
      (conv2): Conv2d(
        128, 128, kernel_size=(3, 3), stride=(1, 1), padding=(1, 1), bias=False
        (output_quant): FakeLinearQuantization(mode=ASYMMETRIC_UNSIGNED, num_bits=8, ema_decay=0.9990))
      )
      (bn2): BatchNorm2d(
        128, eps=1e-05, momentum=0.1, affine=True, track_running_stats=True
        (output_quant): FakeLinearQuantization(mode=ASYMMETRIC_UNSIGNED, num_bits=8, ema_decay=0.9990))
      )
      (conv3): Conv2d(
        128, 512, kernel_size=(1, 1), stride=(1, 1), bias=False
        (output_quant): FakeLinearQuantization(mode=ASYMMETRIC_UNSIGNED, num_bits=8, ema_decay=0.9990))
      )
      (bn3): BatchNorm2d(
        512, eps=1e-05, momentum=0.1, affine=True, track_running_stats=True
        (output_quant): FakeLinearQuantization(mode=ASYMMETRIC_UNSIGNED, num_bits=8, ema_decay=0.9990))
      )
      (relu): ReLU(
        inplace
        (output_quant): FakeLinearQuantization(mode=ASYMMETRIC_UNSIGNED, num_bits=8, ema_decay=0.9990))
      )
    )
    (3): Bottleneck(
      (conv1): Conv2d(
        512, 128, kernel_size=(1, 1), stride=(1, 1), bias=False
        (output_quant): FakeLinearQuantization(mode=ASYMMETRIC_UNSIGNED, num_bits=8, ema_decay=0.9990))
      )
      (bn1): BatchNorm2d(
        128, eps=1e-05, momentum=0.1, affine=True, track_running_stats=True
        (output_quant): FakeLinearQuantization(mode=ASYMMETRIC_UNSIGNED, num_bits=8, ema_decay=0.9990))
      )
      (conv2): Conv2d(
        128, 128, kernel_size=(3, 3), stride=(1, 1), padding=(1, 1), bias=False
        (output_quant): FakeLinearQuantization(mode=ASYMMETRIC_UNSIGNED, num_bits=8, ema_decay=0.9990))
      )
      (bn2): BatchNorm2d(
        128, eps=1e-05, momentum=0.1, affine=True, track_running_stats=True
        (output_quant): FakeLinearQuantization(mode=ASYMMETRIC_UNSIGNED, num_bits=8, ema_decay=0.9990))
      )
      (conv3): Conv2d(
        128, 512, kernel_size=(1, 1), stride=(1, 1), bias=False
        (output_quant): FakeLinearQuantization(mode=ASYMMETRIC_UNSIGNED, num_bits=8, ema_decay=0.9990))
      )
      (bn3): BatchNorm2d(
        512, eps=1e-05, momentum=0.1, affine=True, track_running_stats=True
        (output_quant): FakeLinearQuantization(mode=ASYMMETRIC_UNSIGNED, num_bits=8, ema_decay=0.9990))
      )
      (relu): ReLU(
        inplace
        (output_quant): FakeLinearQuantization(mode=ASYMMETRIC_UNSIGNED, num_bits=8, ema_decay=0.9990))
      )
    )
  )
  (layer3): Sequential(
    (0): Bottleneck(
      (conv1): Conv2d(
        512, 256, kernel_size=(1, 1), stride=(1, 1), bias=False
        (output_quant): FakeLinearQuantization(mode=ASYMMETRIC_UNSIGNED, num_bits=8, ema_decay=0.9990))
      )
      (bn1): BatchNorm2d(
        256, eps=1e-05, momentum=0.1, affine=True, track_running_stats=True
        (output_quant): FakeLinearQuantization(mode=ASYMMETRIC_UNSIGNED, num_bits=8, ema_decay=0.9990))
      )
      (conv2): Conv2d(
        256, 256, kernel_size=(3, 3), stride=(2, 2), padding=(1, 1), bias=False
        (output_quant): FakeLinearQuantization(mode=ASYMMETRIC_UNSIGNED, num_bits=8, ema_decay=0.9990))
      )
      (bn2): BatchNorm2d(
        256, eps=1e-05, momentum=0.1, affine=True, track_running_stats=True
        (output_quant): FakeLinearQuantization(mode=ASYMMETRIC_UNSIGNED, num_bits=8, ema_decay=0.9990))
      )
      (conv3): Conv2d(
        256, 1024, kernel_size=(1, 1), stride=(1, 1), bias=False
        (output_quant): FakeLinearQuantization(mode=ASYMMETRIC_UNSIGNED, num_bits=8, ema_decay=0.9990))
      )
      (bn3): BatchNorm2d(
        1024, eps=1e-05, momentum=0.1, affine=True, track_running_stats=True
        (output_quant): FakeLinearQuantization(mode=ASYMMETRIC_UNSIGNED, num_bits=8, ema_decay=0.9990))
      )
      (relu): ReLU(
        inplace
        (output_quant): FakeLinearQuantization(mode=ASYMMETRIC_UNSIGNED, num_bits=8, ema_decay=0.9990))
      )
      (downsample): Sequential(
        (0): Conv2d(
          512, 1024, kernel_size=(1, 1), stride=(2, 2), bias=False
          (output_quant): FakeLinearQuantization(mode=ASYMMETRIC_UNSIGNED, num_bits=8, ema_decay=0.9990))
        )
        (1): BatchNorm2d(
          1024, eps=1e-05, momentum=0.1, affine=True, track_running_stats=True
          (output_quant): FakeLinearQuantization(mode=ASYMMETRIC_UNSIGNED, num_bits=8, ema_decay=0.9990))
        )
      )
    )
    (1): Bottleneck(
      (conv1): Conv2d(
        1024, 256, kernel_size=(1, 1), stride=(1, 1), bias=False
        (output_quant): FakeLinearQuantization(mode=ASYMMETRIC_UNSIGNED, num_bits=8, ema_decay=0.9990))
      )
      (bn1): BatchNorm2d(
        256, eps=1e-05, momentum=0.1, affine=True, track_running_stats=True
        (output_quant): FakeLinearQuantization(mode=ASYMMETRIC_UNSIGNED, num_bits=8, ema_decay=0.9990))
      )
      (conv2): Conv2d(
        256, 256, kernel_size=(3, 3), stride=(1, 1), padding=(1, 1), bias=False
        (output_quant): FakeLinearQuantization(mode=ASYMMETRIC_UNSIGNED, num_bits=8, ema_decay=0.9990))
      )
      (bn2): BatchNorm2d(
        256, eps=1e-05, momentum=0.1, affine=True, track_running_stats=True
        (output_quant): FakeLinearQuantization(mode=ASYMMETRIC_UNSIGNED, num_bits=8, ema_decay=0.9990))
      )
      (conv3): Conv2d(
        256, 1024, kernel_size=(1, 1), stride=(1, 1), bias=False
        (output_quant): FakeLinearQuantization(mode=ASYMMETRIC_UNSIGNED, num_bits=8, ema_decay=0.9990))
      )
      (bn3): BatchNorm2d(
        1024, eps=1e-05, momentum=0.1, affine=True, track_running_stats=True
        (output_quant): FakeLinearQuantization(mode=ASYMMETRIC_UNSIGNED, num_bits=8, ema_decay=0.9990))
      )
      (relu): ReLU(
        inplace
        (output_quant): FakeLinearQuantization(mode=ASYMMETRIC_UNSIGNED, num_bits=8, ema_decay=0.9990))
      )
    )
    (2): Bottleneck(
      (conv1): Conv2d(
        1024, 256, kernel_size=(1, 1), stride=(1, 1), bias=False
        (output_quant): FakeLinearQuantization(mode=ASYMMETRIC_UNSIGNED, num_bits=8, ema_decay=0.9990))
      )
      (bn1): BatchNorm2d(
        256, eps=1e-05, momentum=0.1, affine=True, track_running_stats=True
        (output_quant): FakeLinearQuantization(mode=ASYMMETRIC_UNSIGNED, num_bits=8, ema_decay=0.9990))
      )
      (conv2): Conv2d(
        256, 256, kernel_size=(3, 3), stride=(1, 1), padding=(1, 1), bias=False
        (output_quant): FakeLinearQuantization(mode=ASYMMETRIC_UNSIGNED, num_bits=8, ema_decay=0.9990))
      )
      (bn2): BatchNorm2d(
        256, eps=1e-05, momentum=0.1, affine=True, track_running_stats=True
        (output_quant): FakeLinearQuantization(mode=ASYMMETRIC_UNSIGNED, num_bits=8, ema_decay=0.9990))
      )
      (conv3): Conv2d(
        256, 1024, kernel_size=(1, 1), stride=(1, 1), bias=False
        (output_quant): FakeLinearQuantization(mode=ASYMMETRIC_UNSIGNED, num_bits=8, ema_decay=0.9990))
      )
      (bn3): BatchNorm2d(
        1024, eps=1e-05, momentum=0.1, affine=True, track_running_stats=True
        (output_quant): FakeLinearQuantization(mode=ASYMMETRIC_UNSIGNED, num_bits=8, ema_decay=0.9990))
      )
      (relu): ReLU(
        inplace
        (output_quant): FakeLinearQuantization(mode=ASYMMETRIC_UNSIGNED, num_bits=8, ema_decay=0.9990))
      )
    )
    (3): Bottleneck(
      (conv1): Conv2d(
        1024, 256, kernel_size=(1, 1), stride=(1, 1), bias=False
        (output_quant): FakeLinearQuantization(mode=ASYMMETRIC_UNSIGNED, num_bits=8, ema_decay=0.9990))
      )
      (bn1): BatchNorm2d(
        256, eps=1e-05, momentum=0.1, affine=True, track_running_stats=True
        (output_quant): FakeLinearQuantization(mode=ASYMMETRIC_UNSIGNED, num_bits=8, ema_decay=0.9990))
      )
      (conv2): Conv2d(
        256, 256, kernel_size=(3, 3), stride=(1, 1), padding=(1, 1), bias=False
        (output_quant): FakeLinearQuantization(mode=ASYMMETRIC_UNSIGNED, num_bits=8, ema_decay=0.9990))
      )
      (bn2): BatchNorm2d(
        256, eps=1e-05, momentum=0.1, affine=True, track_running_stats=True
        (output_quant): FakeLinearQuantization(mode=ASYMMETRIC_UNSIGNED, num_bits=8, ema_decay=0.9990))
      )
      (conv3): Conv2d(
        256, 1024, kernel_size=(1, 1), stride=(1, 1), bias=False
        (output_quant): FakeLinearQuantization(mode=ASYMMETRIC_UNSIGNED, num_bits=8, ema_decay=0.9990))
      )
      (bn3): BatchNorm2d(
        1024, eps=1e-05, momentum=0.1, affine=True, track_running_stats=True
        (output_quant): FakeLinearQuantization(mode=ASYMMETRIC_UNSIGNED, num_bits=8, ema_decay=0.9990))
      )
      (relu): ReLU(
        inplace
        (output_quant): FakeLinearQuantization(mode=ASYMMETRIC_UNSIGNED, num_bits=8, ema_decay=0.9990))
      )
    )
    (4): Bottleneck(
      (conv1): Conv2d(
        1024, 256, kernel_size=(1, 1), stride=(1, 1), bias=False
        (output_quant): FakeLinearQuantization(mode=ASYMMETRIC_UNSIGNED, num_bits=8, ema_decay=0.9990))
      )
      (bn1): BatchNorm2d(
        256, eps=1e-05, momentum=0.1, affine=True, track_running_stats=True
        (output_quant): FakeLinearQuantization(mode=ASYMMETRIC_UNSIGNED, num_bits=8, ema_decay=0.9990))
      )
      (conv2): Conv2d(
        256, 256, kernel_size=(3, 3), stride=(1, 1), padding=(1, 1), bias=False
        (output_quant): FakeLinearQuantization(mode=ASYMMETRIC_UNSIGNED, num_bits=8, ema_decay=0.9990))
      )
      (bn2): BatchNorm2d(
        256, eps=1e-05, momentum=0.1, affine=True, track_running_stats=True
        (output_quant): FakeLinearQuantization(mode=ASYMMETRIC_UNSIGNED, num_bits=8, ema_decay=0.9990))
      )
      (conv3): Conv2d(
        256, 1024, kernel_size=(1, 1), stride=(1, 1), bias=False
        (output_quant): FakeLinearQuantization(mode=ASYMMETRIC_UNSIGNED, num_bits=8, ema_decay=0.9990))
      )
      (bn3): BatchNorm2d(
        1024, eps=1e-05, momentum=0.1, affine=True, track_running_stats=True
        (output_quant): FakeLinearQuantization(mode=ASYMMETRIC_UNSIGNED, num_bits=8, ema_decay=0.9990))
      )
      (relu): ReLU(
        inplace
        (output_quant): FakeLinearQuantization(mode=ASYMMETRIC_UNSIGNED, num_bits=8, ema_decay=0.9990))
      )
    )
    (5): Bottleneck(
      (conv1): Conv2d(
        1024, 256, kernel_size=(1, 1), stride=(1, 1), bias=False
        (output_quant): FakeLinearQuantization(mode=ASYMMETRIC_UNSIGNED, num_bits=8, ema_decay=0.9990))
      )
      (bn1): BatchNorm2d(
        256, eps=1e-05, momentum=0.1, affine=True, track_running_stats=True
        (output_quant): FakeLinearQuantization(mode=ASYMMETRIC_UNSIGNED, num_bits=8, ema_decay=0.9990))
      )
      (conv2): Conv2d(
        256, 256, kernel_size=(3, 3), stride=(1, 1), padding=(1, 1), bias=False
        (output_quant): FakeLinearQuantization(mode=ASYMMETRIC_UNSIGNED, num_bits=8, ema_decay=0.9990))
      )
      (bn2): BatchNorm2d(
        256, eps=1e-05, momentum=0.1, affine=True, track_running_stats=True
        (output_quant): FakeLinearQuantization(mode=ASYMMETRIC_UNSIGNED, num_bits=8, ema_decay=0.9990))
      )
      (conv3): Conv2d(
        256, 1024, kernel_size=(1, 1), stride=(1, 1), bias=False
        (output_quant): FakeLinearQuantization(mode=ASYMMETRIC_UNSIGNED, num_bits=8, ema_decay=0.9990))
      )
      (bn3): BatchNorm2d(
        1024, eps=1e-05, momentum=0.1, affine=True, track_running_stats=True
        (output_quant): FakeLinearQuantization(mode=ASYMMETRIC_UNSIGNED, num_bits=8, ema_decay=0.9990))
      )
      (relu): ReLU(
        inplace
        (output_quant): FakeLinearQuantization(mode=ASYMMETRIC_UNSIGNED, num_bits=8, ema_decay=0.9990))
      )
    )
  )
  (layer4): Sequential(
    (0): Bottleneck(
      (conv1): Conv2d(
        1024, 512, kernel_size=(1, 1), stride=(1, 1), bias=False
        (output_quant): FakeLinearQuantization(mode=ASYMMETRIC_UNSIGNED, num_bits=8, ema_decay=0.9990))
      )
      (bn1): BatchNorm2d(
        512, eps=1e-05, momentum=0.1, affine=True, track_running_stats=True
        (output_quant): FakeLinearQuantization(mode=ASYMMETRIC_UNSIGNED, num_bits=8, ema_decay=0.9990))
      )
      (conv2): Conv2d(
        512, 512, kernel_size=(3, 3), stride=(2, 2), padding=(1, 1), bias=False
        (output_quant): FakeLinearQuantization(mode=ASYMMETRIC_UNSIGNED, num_bits=8, ema_decay=0.9990))
      )
      (bn2): BatchNorm2d(
        512, eps=1e-05, momentum=0.1, affine=True, track_running_stats=True
        (output_quant): FakeLinearQuantization(mode=ASYMMETRIC_UNSIGNED, num_bits=8, ema_decay=0.9990))
      )
      (conv3): Conv2d(
        512, 2048, kernel_size=(1, 1), stride=(1, 1), bias=False
        (output_quant): FakeLinearQuantization(mode=ASYMMETRIC_UNSIGNED, num_bits=8, ema_decay=0.9990))
      )
      (bn3): BatchNorm2d(
        2048, eps=1e-05, momentum=0.1, affine=True, track_running_stats=True
        (output_quant): FakeLinearQuantization(mode=ASYMMETRIC_UNSIGNED, num_bits=8, ema_decay=0.9990))
      )
      (relu): ReLU(
        inplace
        (output_quant): FakeLinearQuantization(mode=ASYMMETRIC_UNSIGNED, num_bits=8, ema_decay=0.9990))
      )
      (downsample): Sequential(
        (0): Conv2d(
          1024, 2048, kernel_size=(1, 1), stride=(2, 2), bias=False
          (output_quant): FakeLinearQuantization(mode=ASYMMETRIC_UNSIGNED, num_bits=8, ema_decay=0.9990))
        )
        (1): BatchNorm2d(
          2048, eps=1e-05, momentum=0.1, affine=True, track_running_stats=True
          (output_quant): FakeLinearQuantization(mode=ASYMMETRIC_UNSIGNED, num_bits=8, ema_decay=0.9990))
        )
      )
    )
    (1): Bottleneck(
      (conv1): Conv2d(
        2048, 512, kernel_size=(1, 1), stride=(1, 1), bias=False
        (output_quant): FakeLinearQuantization(mode=ASYMMETRIC_UNSIGNED, num_bits=8, ema_decay=0.9990))
      )
      (bn1): BatchNorm2d(
        512, eps=1e-05, momentum=0.1, affine=True, track_running_stats=True
        (output_quant): FakeLinearQuantization(mode=ASYMMETRIC_UNSIGNED, num_bits=8, ema_decay=0.9990))
      )
      (conv2): Conv2d(
        512, 512, kernel_size=(3, 3), stride=(1, 1), padding=(1, 1), bias=False
        (output_quant): FakeLinearQuantization(mode=ASYMMETRIC_UNSIGNED, num_bits=8, ema_decay=0.9990))
      )
      (bn2): BatchNorm2d(
        512, eps=1e-05, momentum=0.1, affine=True, track_running_stats=True
        (output_quant): FakeLinearQuantization(mode=ASYMMETRIC_UNSIGNED, num_bits=8, ema_decay=0.9990))
      )
      (conv3): Conv2d(
        512, 2048, kernel_size=(1, 1), stride=(1, 1), bias=False
        (output_quant): FakeLinearQuantization(mode=ASYMMETRIC_UNSIGNED, num_bits=8, ema_decay=0.9990))
      )
      (bn3): BatchNorm2d(
        2048, eps=1e-05, momentum=0.1, affine=True, track_running_stats=True
        (output_quant): FakeLinearQuantization(mode=ASYMMETRIC_UNSIGNED, num_bits=8, ema_decay=0.9990))
      )
      (relu): ReLU(
        inplace
        (output_quant): FakeLinearQuantization(mode=ASYMMETRIC_UNSIGNED, num_bits=8, ema_decay=0.9990))
      )
    )
    (2): Bottleneck(
      (conv1): Conv2d(
        2048, 512, kernel_size=(1, 1), stride=(1, 1), bias=False
        (output_quant): FakeLinearQuantization(mode=ASYMMETRIC_UNSIGNED, num_bits=8, ema_decay=0.9990))
      )
      (bn1): BatchNorm2d(
        512, eps=1e-05, momentum=0.1, affine=True, track_running_stats=True
        (output_quant): FakeLinearQuantization(mode=ASYMMETRIC_UNSIGNED, num_bits=8, ema_decay=0.9990))
      )
      (conv2): Conv2d(
        512, 512, kernel_size=(3, 3), stride=(1, 1), padding=(1, 1), bias=False
        (output_quant): FakeLinearQuantization(mode=ASYMMETRIC_UNSIGNED, num_bits=8, ema_decay=0.9990))
      )
      (bn2): BatchNorm2d(
        512, eps=1e-05, momentum=0.1, affine=True, track_running_stats=True
        (output_quant): FakeLinearQuantization(mode=ASYMMETRIC_UNSIGNED, num_bits=8, ema_decay=0.9990))
      )
      (conv3): Conv2d(
        512, 2048, kernel_size=(1, 1), stride=(1, 1), bias=False
        (output_quant): FakeLinearQuantization(mode=ASYMMETRIC_UNSIGNED, num_bits=8, ema_decay=0.9990))
      )
      (bn3): BatchNorm2d(
        2048, eps=1e-05, momentum=0.1, affine=True, track_running_stats=True
        (output_quant): FakeLinearQuantization(mode=ASYMMETRIC_UNSIGNED, num_bits=8, ema_decay=0.9990))
      )
      (relu): ReLU(
        inplace
        (output_quant): FakeLinearQuantization(mode=ASYMMETRIC_UNSIGNED, num_bits=8, ema_decay=0.9990))
      )
    )
  )
  (avgpool): AvgPool2d(
    kernel_size=7, stride=1, padding=0
    (output_quant): FakeLinearQuantization(mode=ASYMMETRIC_UNSIGNED, num_bits=8, ema_decay=0.9990))
  )
  (fc): Linear(
    in_features=2048, out_features=1000, bias=True
    (output_quant): FakeLinearQuantization(mode=ASYMMETRIC_UNSIGNED, num_bits=8, ema_decay=0.9990))
  )
)[0m
2020-07-02 15:09:06,160 [32mINFO[0m: loss
CrossEntropyLoss()[0m
2020-07-02 15:09:06,162 [32mINFO[0m: optimizer
SGD (
Parameter Group 0
    dampening: 0
    hold_grads: False
    lr: 0.1
    momentum: 0.9
    nesterov: False
    weight_decay: 0.0001
…
