…
[rank 2] linklink init: world_size=16, device=2, thread_pool=1, buffer_pool=4 reorder=0
[rank 4] linklink init: world_size=16, device=4, thread_pool=1, buffer_pool=4 reorder=0
[rank 5] linklink init: world_size=16, device=5, thread_pool=1, buffer_pool=4 reorder=0
[rank 6] linklink init: world_size=16, device=6, thread_pool=1, buffer_pool=4 reorder=0
[rank 3] linklink init: world_size=16, device=3, thread_pool=1, buffer_pool=4 reorder=0
[rank 7] linklink init: world_size=16, device=7, thread_pool=1, buffer_pool=4 reorder=0
2019-08-30 18:48:51,611-rk0-main.py#57:Adas(
  (stem): Sequential(
    (0): Conv2d(3, 32, kernel_size=(3, 3), stride=(2, 2), padding=(1, 1), bias=False)
    (1): BatchNorm2d(32, eps=1e-05, momentum=0.1, affine=True, track_running_stats=True)
    (2): Conv2d(32, 32, kernel_size=(3, 3), stride=(2, 2), padding=(1, 1), bias=False)
    (3): BatchNorm2d(32, eps=1e-05, momentum=0.1, affine=True, track_running_stats=True)
  )
  (cells_list): ModuleList(
    (0): ModuleList(
      (0): AvgPool(
        (op): Sequential(
          (0): AvgPool2d(kernel_size=3, stride=1, padding=1)
          (1): Conv2d(32, 32, kernel_size=(1, 1), stride=(1, 1), bias=False)
          (2): BatchNorm2d(32, eps=1e-05, momentum=0.1, affine=True, track_running_stats=True)
        )
      )
      (1): MaxPool(
        (op): Sequential(
          (0): MaxPool2d(kernel_size=3, stride=1, padding=1, dilation=1, ceil_mode=True)
          (1): Conv2d(32, 32, kernel_size=(1, 1), stride=(1, 1), bias=False)
          (2): BatchNorm2d(32, eps=1e-05, momentum=0.1, affine=True, track_running_stats=True)
        )
      )
      (2): ConvBnRelu(
        (op): Sequential(
          (0): Conv2d(32, 32, kernel_size=(1, 1), stride=(1, 1), bias=False)
          (1): BatchNorm2d(32, eps=1e-05, momentum=0.1, affine=True, track_running_stats=True)
          (2): ReLU(inplace)
        )
      )
      (3): ConvBnRelu(
        (op): Sequential(
          (0): Conv2d(32, 32, kernel_size=(3, 3), stride=(1, 1), padding=(1, 1), bias=False)
          (1): BatchNorm2d(32, eps=1e-05, momentum=0.1, affine=True, track_running_stats=True)
          (2): ReLU(inplace)
        )
      )
    )
    (1): ModuleList(
      (0): AvgPool(
        (op): Sequential(
          (0): AvgPool2d(kernel_size=3, stride=1, padding=1)
          (1): Conv2d(32, 32, kernel_size=(1, 1), stride=(1, 1), bias=False)
          (2): BatchNorm2d(32, eps=1e-05, momentum=0.1, affine=True, track_running_stats=True)
        )
      )
      (1): MaxPool(
        (op): Sequential(
          (0): MaxPool2d(kernel_size=3, stride=1, padding=1, dilation=1, ceil_mode=True)
          (1): Conv2d(32, 32, kernel_size=(1, 1), stride=(1, 1), bias=False)
          (2): BatchNorm2d(32, eps=1e-05, momentum=0.1, affine=True, track_running_stats=True)
        )
      )
      (2): ConvBnRelu(
        (op): Sequential(
          (0): Conv2d(32, 32, kernel_size=(1, 1), stride=(1, 1), bias=False)
          (1): BatchNorm2d(32, eps=1e-05, momentum=0.1, affine=True, track_running_stats=True)
          (2): ReLU(inplace)
        )
      )
      (3): ConvBnRelu(
        (op): Sequential(
          (0): Conv2d(32, 32, kernel_size=(3, 3), stride=(1, 1), padding=(1, 1), bias=False)
          (1): BatchNorm2d(32, eps=1e-05, momentum=0.1, affine=True, track_running_stats=True)
          (2): ReLU(inplace)
        )
      )
    )
    (2): ModuleList(
      (0): AvgPool(
        (op): Sequential(
          (0): AvgPool2d(kernel_size=3, stride=2, padding=1)
          (1): Conv2d(32, 64, kernel_size=(1, 1), stride=(1, 1), bias=False)
          (2): BatchNorm2d(64, eps=1e-05, momentum=0.1, affine=True, track_running_stats=True)
        )
      )
      (1): MaxPool(
        (op): Sequential(
          (0): MaxPool2d(kernel_size=3, stride=2, padding=1, dilation=1, ceil_mode=True)
          (1): Conv2d(32, 64, kernel_size=(1, 1), stride=(1, 1), bias=False)
          (2): BatchNorm2d(64, eps=1e-05, momentum=0.1, affine=True, track_running_stats=True)
        )
      )
      (2): ConvBnRelu(
        (op): Sequential(
          (0): Conv2d(32, 64, kernel_size=(3, 3), stride=(2, 2), padding=(1, 1), bias=False)
          (1): BatchNorm2d(64, eps=1e-05, momentum=0.1, affine=True, track_running_stats=True)
          (2): ReLU(inplace)
        )
      )
    )
    (3): ModuleList(
      (0): AvgPool(
        (op): Sequential(
          (0): AvgPool2d(kernel_size=3, stride=1, padding=1)
          (1): Conv2d(64, 64, kernel_size=(1, 1), stride=(1, 1), bias=False)
          (2): BatchNorm2d(64, eps=1e-05, momentum=0.1, affine=True, track_running_stats=True)
        )
      )
      (1): MaxPool(
        (op): Sequential(
          (0): MaxPool2d(kernel_size=3, stride=1, padding=1, dilation=1, ceil_mode=True)
          (1): Conv2d(64, 64, kernel_size=(1, 1), stride=(1, 1), bias=False)
          (2): BatchNorm2d(64, eps=1e-05, momentum=0.1, affine=True, track_running_stats=True)
        )
      )
      (2): ConvBnRelu(
        (op): Sequential(
          (0): Conv2d(64, 64, kernel_size=(1, 1), stride=(1, 1), bias=False)
          (1): BatchNorm2d(64, eps=1e-05, momentum=0.1, affine=True, track_running_stats=True)
          (2): ReLU(inplace)
        )
      )
      (3): ConvBnRelu(
        (op): Sequential(
          (0): Conv2d(64, 64, kernel_size=(3, 3), stride=(1, 1), padding=(1, 1), bias=False)
          (1): BatchNorm2d(64, eps=1e-05, momentum=0.1, affine=True, track_running_stats=True)
          (2): ReLU(inplace)
        )
      )
    )
    (4): ModuleList(
      (0): AvgPool(
        (op): Sequential(
          (0): AvgPool2d(kernel_size=3, stride=1, padding=1)
          (1): Conv2d(64, 64, kernel_size=(1, 1), stride=(1, 1), bias=False)
          (2): BatchNorm2d(64, eps=1e-05, momentum=0.1, affine=True, track_running_stats=True)
        )
      )
      (1): MaxPool(
        (op): Sequential(
          (0): MaxPool2d(kernel_size=3, stride=1, padding=1, dilation=1, ceil_mode=True)
          (1): Conv2d(64, 64, kernel_size=(1, 1), stride=(1, 1), bias=False)
          (2): BatchNorm2d(64, eps=1e-05, momentum=0.1, affine=True, track_running_stats=True)
        )
      )
      (2): ConvBnRelu(
        (op): Sequential(
          (0): Conv2d(64, 64, kernel_size=(1, 1), stride=(1, 1), bias=False)
          (1): BatchNorm2d(64, eps=1e-05, momentum=0.1, affine=True, track_running_stats=True)
          (2): ReLU(inplace)
        )
      )
      (3): ConvBnRelu(
        (op): Sequential(
          (0): Conv2d(64, 64, kernel_size=(3, 3), stride=(1, 1), padding=(1, 1), bias=False)
          (1): BatchNorm2d(64, eps=1e-05, momentum=0.1, affine=True, track_running_stats=True)
          (2): ReLU(inplace)
        )
      )
    )
    (5): ModuleList(
      (0): AvgPool(
        (op): Sequential(
          (0): AvgPool2d(kernel_size=3, stride=1, padding=1)
          (1): Conv2d(64, 64, kernel_size=(1, 1), stride=(1, 1), bias=False)
          (2): BatchNorm2d(64, eps=1e-05, momentum=0.1, affine=True, track_running_stats=True)
        )
      )
      (1): MaxPool(
        (op): Sequential(
          (0): MaxPool2d(kernel_size=3, stride=1, padding=1, dilation=1, ceil_mode=True)
          (1): Conv2d(64, 64, kernel_size=(1, 1), stride=(1, 1), bias=False)
          (2): BatchNorm2d(64, eps=1e-05, momentum=0.1, affine=True, track_running_stats=True)
        )
      )
      (2): ConvBnRelu(
        (op): Sequential(
          (0): Conv2d(64, 64, kernel_size=(1, 1), stride=(1, 1), bias=False)
          (1): BatchNorm2d(64, eps=1e-05, momentum=0.1, affine=True, track_running_stats=True)
          (2): ReLU(inplace)
        )
      )
      (3): ConvBnRelu(
        (op): Sequential(
          (0): Conv2d(64, 64, kernel_size=(3, 3), stride=(1, 1), padding=(1, 1), bias=False)
          (1): BatchNorm2d(64, eps=1e-05, momentum=0.1, affine=True, track_running_stats=True)
          (2): ReLU(inplace)
        )
      )
    )
    (6): ModuleList(
      (0): AvgPool(
        (op): Sequential(
          (0): AvgPool2d(kernel_size=3, stride=1, padding=1)
          (1): Conv2d(64, 64, kernel_size=(1, 1), stride=(1, 1), bias=False)
          (2): BatchNorm2d(64, eps=1e-05, momentum=0.1, affine=True, track_running_stats=True)
        )
      )
      (1): MaxPool(
        (op): Sequential(
          (0): MaxPool2d(kernel_size=3, stride=1, padding=1, dilation=1, ceil_mode=True)
          (1): Conv2d(64, 64, kernel_size=(1, 1), stride=(1, 1), bias=False)
          (2): BatchNorm2d(64, eps=1e-05, momentum=0.1, affine=True, track_running_stats=True)
        )
      )
      (2): ConvBnRelu(
        (op): Sequential(
          (0): Conv2d(64, 64, kernel_size=(1, 1), stride=(1, 1), bias=False)
          (1): BatchNorm2d(64, eps=1e-05, momentum=0.1, affine=True, track_running_stats=True)
          (2): ReLU(inplace)
        )
      )
      (3): ConvBnRelu(
        (op): Sequential(
          (0): Conv2d(64, 64, kernel_size=(3, 3), stride=(1, 1), padding=(1, 1), bias=False)
          (1): BatchNorm2d(64, eps=1e-05, momentum=0.1, affine=True, track_running_stats=True)
          (2): ReLU(inplace)
        )
      )
    )
    (7): ModuleList(
      (0): AvgPool(
        (op): Sequential(
          (0): AvgPool2d(kernel_size=3, stride=2, padding=1)
          (1): Conv2d(64, 128, kernel_size=(1, 1), stride=(1, 1), bias=False)
          (2): BatchNorm2d(128, eps=1e-05, momentum=0.1, affine=True, track_running_stats=True)
        )
      )
      (1): MaxPool(
        (op): Sequential(
          (0): MaxPool2d(kernel_size=3, stride=2, padding=1, dilation=1, ceil_mode=True)
          (1): Conv2d(64, 128, kernel_size=(1, 1), stride=(1, 1), bias=False)
          (2): BatchNorm2d(128, eps=1e-05, momentum=0.1, affine=True, track_running_stats=True)
        )
      )
      (2): ConvBnRelu(
        (op): Sequential(
          (0): Conv2d(64, 128, kernel_size=(3, 3), stride=(2, 2), padding=(1, 1), bias=False)
          (1): BatchNorm2d(128, eps=1e-05, momentum=0.1, affine=True, track_running_stats=True)
          (2): ReLU(inplace)
        )
      )
    )
    (8): ModuleList(
      (0): AvgPool(
        (op): Sequential(
          (0): AvgPool2d(kernel_size=3, stride=1, padding=1)
          (1): Conv2d(128, 128, kernel_size=(1, 1), stride=(1, 1), bias=False)
          (2): BatchNorm2d(128, eps=1e-05, momentum=0.1, affine=True, track_running_stats=True)
        )
      )
      (1): MaxPool(
        (op): Sequential(
          (0): MaxPool2d(kernel_size=3, stride=1, padding=1, dilation=1, ceil_mode=True)
          (1): Conv2d(128, 128, kernel_size=(1, 1), stride=(1, 1), bias=False)
          (2): BatchNorm2d(128, eps=1e-05, momentum=0.1, affine=True, track_running_stats=True)
        )
      )
      (2): ConvBnRelu(
        (op): Sequential(
          (0): Conv2d(128, 128, kernel_size=(1, 1), stride=(1, 1), bias=False)
          (1): BatchNorm2d(128, eps=1e-05, momentum=0.1, affine=True, track_running_stats=True)
          (2): ReLU(inplace)
        )
      )
      (3): ConvBnRelu(
        (op): Sequential(
          (0): Conv2d(128, 128, kernel_size=(3, 3), stride=(1, 1), padding=(1, 1), bias=False)
          (1): BatchNorm2d(128, eps=1e-05, momentum=0.1, affine=True, track_running_stats=True)
          (2): ReLU(inplace)
        )
      )
    )
    (9): ModuleList(
      (0): AvgPool(
        (op): Sequential(
          (0): AvgPool2d(kernel_size=3, stride=1, padding=1)
          (1): Conv2d(128, 128, kernel_size=(1, 1), stride=(1, 1), bias=False)
          (2): BatchNorm2d(128, eps=1e-05, momentum=0.1, affine=True, track_running_stats=True)
        )
      )
      (1): MaxPool(
        (op): Sequential(
          (0): MaxPool2d(kernel_size=3, stride=1, padding=1, dilation=1, ceil_mode=True)
          (1): Conv2d(128, 128, kernel_size=(1, 1), stride=(1, 1), bias=False)
          (2): BatchNorm2d(128, eps=1e-05, momentum=0.1, affine=True, track_running_stats=True)
        )
      )
      (2): ConvBnRelu(
        (op): Sequential(
          (0): Conv2d(128, 128, kernel_size=(1, 1), stride=(1, 1), bias=False)
          (1): BatchNorm2d(128, eps=1e-05, momentum=0.1, affine=True, track_running_stats=True)
          (2): ReLU(inplace)
        )
      )
      (3): ConvBnRelu(
        (op): Sequential(
          (0): Conv2d(128, 128, kernel_size=(3, 3), stride=(1, 1), padding=(1, 1), bias=False)
          (1): BatchNorm2d(128, eps=1e-05, momentum=0.1, affine=True, track_running_stats=True)
          (2): ReLU(inplace)
        )
      )
    )
    (10): ModuleList(
      (0): AvgPool(
        (op): Sequential(
          (0): AvgPool2d(kernel_size=3, stride=1, padding=1)
          (1): Conv2d(128, 128, kernel_size=(1, 1), stride=(1, 1), bias=False)
          (2): BatchNorm2d(128, eps=1e-05, momentum=0.1, affine=True, track_running_stats=True)
        )
      )
      (1): MaxPool(
        (op): Sequential(
          (0): MaxPool2d(kernel_size=3, stride=1, padding=1, dilation=1, ceil_mode=True)
          (1): Conv2d(128, 128, kernel_size=(1, 1), stride=(1, 1), bias=False)
          (2): BatchNorm2d(128, eps=1e-05, momentum=0.1, affine=True, track_running_stats=True)
        )
      )
      (2): ConvBnRelu(
        (op): Sequential(
          (0): Conv2d(128, 128, kernel_size=(1, 1), stride=(1, 1), bias=False)
          (1): BatchNorm2d(128, eps=1e-05, momentum=0.1, affine=True, track_running_stats=True)
          (2): ReLU(inplace)
        )
      )
      (3): ConvBnRelu(
        (op): Sequential(
          (0): Conv2d(128, 128, kernel_size=(3, 3), stride=(1, 1), padding=(1, 1), bias=False)
          (1): BatchNorm2d(128, eps=1e-05, momentum=0.1, affine=True, track_running_stats=True)
          (2): ReLU(inplace)
        )
      )
    )
    (11): ModuleList(
      (0): AvgPool(
        (op): Sequential(
          (0): AvgPool2d(kernel_size=3, stride=1, padding=1)
          (1): Conv2d(128, 128, kernel_size=(1, 1), stride=(1, 1), bias=False)
          (2): BatchNorm2d(128, eps=1e-05, momentum=0.1, affine=True, track_running_stats=True)
        )
      )
      (1): MaxPool(
        (op): Sequential(
          (0): MaxPool2d(kernel_size=3, stride=1, padding=1, dilation=1, ceil_mode=True)
          (1): Conv2d(128, 128, kernel_size=(1, 1), stride=(1, 1), bias=False)
          (2): BatchNorm2d(128, eps=1e-05, momentum=0.1, affine=True, track_running_stats=True)
        )
      )
      (2): ConvBnRelu(
        (op): Sequential(
          (0): Conv2d(128, 128, kernel_size=(1, 1), stride=(1, 1), bias=False)
          (1): BatchNorm2d(128, eps=1e-05, momentum=0.1, affine=True, track_running_stats=True)
          (2): ReLU(inplace)
        )
      )
      (3): ConvBnRelu(
        (op): Sequential(
          (0): Conv2d(128, 128, kernel_size=(3, 3), stride=(1, 1), padding=(1, 1), bias=False)
          (1): BatchNorm2d(128, eps=1e-05, momentum=0.1, affine=True, track_running_stats=True)
          (2): ReLU(inplace)
        )
      )
    )
    (12): ModuleList(
      (0): AvgPool(
        (op): Sequential(
          (0): AvgPool2d(kernel_size=3, stride=1, padding=1)
          (1): Conv2d(128, 128, kernel_size=(1, 1), stride=(1, 1), bias=False)
          (2): BatchNorm2d(128, eps=1e-05, momentum=0.1, affine=True, track_running_stats=True)
        )
      )
      (1): MaxPool(
        (op): Sequential(
          (0): MaxPool2d(kernel_size=3, stride=1, padding=1, dilation=1, ceil_mode=True)
          (1): Conv2d(128, 128, kernel_size=(1, 1), stride=(1, 1), bias=False)
          (2): BatchNorm2d(128, eps=1e-05, momentum=0.1, affine=True, track_running_stats=True)
        )
      )
      (2): ConvBnRelu(
        (op): Sequential(
          (0): Conv2d(128, 128, kernel_size=(1, 1), stride=(1, 1), bias=False)
          (1): BatchNorm2d(128, eps=1e-05, momentum=0.1, affine=True, track_running_stats=True)
          (2): ReLU(inplace)
        )
      )
      (3): ConvBnRelu(
        (op): Sequential(
          (0): Conv2d(128, 128, kernel_size=(3, 3), stride=(1, 1), padding=(1, 1), bias=False)
          (1): BatchNorm2d(128, eps=1e-05, momentum=0.1, affine=True, track_running_stats=True)
          (2): ReLU(inplace)
        )
      )
    )
    (13): ModuleList(
      (0): AvgPool(
        (op): Sequential(
          (0): AvgPool2d(kernel_size=3, stride=1, padding=1)
          (1): Conv2d(128, 128, kernel_size=(1, 1), stride=(1, 1), bias=False)
          (2): BatchNorm2d(128, eps=1e-05, momentum=0.1, affine=True, track_running_stats=True)
        )
      )
      (1): MaxPool(
        (op): Sequential(
          (0): MaxPool2d(kernel_size=3, stride=1, padding=1, dilation=1, ceil_mode=True)
          (1): Conv2d(128, 128, kernel_size=(1, 1), stride=(1, 1), bias=False)
          (2): BatchNorm2d(128, eps=1e-05, momentum=0.1, affine=True, track_running_stats=True)
        )
      )
      (2): ConvBnRelu(
        (op): Sequential(
          (0): Conv2d(128, 128, kernel_size=(1, 1), stride=(1, 1), bias=False)
          (1): BatchNorm2d(128, eps=1e-05, momentum=0.1, affine=True, track_running_stats=True)
          (2): ReLU(inplace)
        )
      )
      (3): ConvBnRelu(
        (op): Sequential(
          (0): Conv2d(128, 128, kernel_size=(3, 3), stride=(1, 1), padding=(1, 1), bias=False)
          (1): BatchNorm2d(128, eps=1e-05, momentum=0.1, affine=True, track_running_stats=True)
          (2): ReLU(inplace)
        )
      )
    )
    (14): ModuleList(
      (0): AvgPool(
        (op): Sequential(
          (0): AvgPool2d(kernel_size=3, stride=1, padding=1)
          (1): Conv2d(128, 128, kernel_size=(1, 1), stride=(1, 1), bias=False)
          (2): BatchNorm2d(128, eps=1e-05, momentum=0.1, affine=True, track_running_stats=True)
        )
      )
      (1): MaxPool(
        (op): Sequential(
          (0): MaxPool2d(kernel_size=3, stride=1, padding=1, dilation=1, ceil_mode=True)
          (1): Conv2d(128, 128, kernel_size=(1, 1), stride=(1, 1), bias=False)
          (2): BatchNorm2d(128, eps=1e-05, momentum=0.1, affine=True, track_running_stats=True)
        )
      )
      (2): ConvBnRelu(
        (op): Sequential(
          (0): Conv2d(128, 128, kernel_size=(1, 1), stride=(1, 1), bias=False)
          (1): BatchNorm2d(128, eps=1e-05, momentum=0.1, affine=True, track_running_stats=True)
          (2): ReLU(inplace)
        )
      )
      (3): ConvBnRelu(
        (op): Sequential(
          (0): Conv2d(128, 128, kernel_size=(3, 3), stride=(1, 1), padding=(1, 1), bias=False)
          (1): BatchNorm2d(128, eps=1e-05, momentum=0.1, affine=True, track_running_stats=True)
          (2): ReLU(inplace)
        )
      )
    )
    (15): ModuleList(
      (0): AvgPool(
        (op): Sequential(
          (0): AvgPool2d(kernel_size=3, stride=1, padding=1)
          (1): Conv2d(128, 128, kernel_size=(1, 1), stride=(1, 1), bias=False)
          (2): BatchNorm2d(128, eps=1e-05, momentum=0.1, affine=True, track_running_stats=True)
        )
      )
      (1): MaxPool(
        (op): Sequential(
          (0): MaxPool2d(kernel_size=3, stride=1, padding=1, dilation=1, ceil_mode=True)
          (1): Conv2d(128, 128, kernel_size=(1, 1), stride=(1, 1), bias=False)
          (2): BatchNorm2d(128, eps=1e-05, momentum=0.1, affine=True, track_running_stats=True)
        )
      )
      (2): ConvBnRelu(
        (op): Sequential(
          (0): Conv2d(128, 128, kernel_size=(1, 1), stride=(1, 1), bias=False)
          (1): BatchNorm2d(128, eps=1e-05, momentum=0.1, affine=True, track_running_stats=True)
          (2): ReLU(inplace)
        )
      )
      (3): ConvBnRelu(
        (op): Sequential(
          (0): Conv2d(128, 128, kernel_size=(3, 3), stride=(1, 1), padding=(1, 1), bias=False)
          (1): BatchNorm2d(128, eps=1e-05, momentum=0.1, affine=True, track_running_stats=True)
          (2): ReLU(inplace)
        )
      )
    )
  )
  (reducefeature1): FeatureReduce(
    (conv): Conv2d(64, 64, kernel_size=(1, 1), stride=(1, 1))
    (bn): BatchNorm2d(64, eps=1e-05, momentum=0.1, affine=True, track_running_stats=True)
    (up): Upsample(size=(113, 225), mode=bilinear)
  )
  (reducefeature2): FeatureReduce(
    (conv): Conv2d(128, 64, kernel_size=(1, 1), stride=(1, 1))
    (bn): BatchNorm2d(64, eps=1e-05, momentum=0.1, affine=True, track_running_stats=True)
    (up): Upsample(size=(113, 225), mode=bilinear)
  )
  (featurefusion): Sequential(
    (0): Conv2d(128, 128, kernel_size=(1, 1), stride=(1, 1), bias=False)
    (1): BatchNorm2d(128, eps=1e-05, momentum=0.1, affine=True, track_running_stats=True)
    (2): ReLU(inplace)
  )
  (laneline): Sequential(
    (0): Conv2d(128, 32, kernel_size=(3, 3), stride=(1, 1), padding=(1, 1))
    (1): BatchNorm2d(32, eps=1e-05, momentum=0.1, affine=True, track_running_stats=True)
    (2): ReLU(inplace)
    (3): Conv2d(32, 16, kernel_size=(3, 3), stride=(1, 1), padding=(1, 1))
    (4): BatchNorm2d(16, eps=1e-05, momentum=0.1, affine=True, track_running_stats=True)
    (5): ReLU(inplace)
    (6): Conv2d(16, 19, kernel_size=(3, 3), stride=(1, 1), padding=(1, 1))
    (7): Upsample(size=(449, 897), mode=bilinear)
  )
)
2019-08-30 18:48:51,696-rk0-builder.py#25:Get loader Done...
2019-08-30 18:48:51,698-rk0-lr_helper.py#37:The kwargs for lr scheduler: 0.9
/mnt/lustre/share/spring/envs/r0.2.2/lib/python3.6/site-packages/torch/nn/modules/upsampling.py:122: UserWarning: nn.Upsampling is deprecated. Use nn.functional.interpolate instead.
…
